neura1/bestval_e14_weights.ckpt (torch, 399055 bytes, 8 tensors)

0.weight f4 [100, 630]
0	0x3cbe9b95	0.023267547
1	0x3c961e64	0.018325038
2	0x3c52a9ea	0.0128578935
3	0xbec01f6b	-0.3752397
4	0xbe2b0adc	-0.16703361
5	0xbe232863	-0.15933375
6	0xbea32b2d	-0.31868878
7	0xbda44899	-0.080216594
8	0xbeae677c	-0.34063327
9	0xbefd74ab	-0.49503073
10	0xbef6146c	-0.48062456
11	0xbb98804f	-0.0046539675
12	0x3d2f2d4f	0.04276782
13	0x3edc4925	0.43024555
14	0xbc5091d5	-0.012730082
15	0xbd9183bf	-0.07105207
16	0x3e5f0f3a	0.21783152
17	0x3ed831fc	0.42225635
18	0xbe176d77	-0.14787851
19	0x3e06f8e9	0.13180889
20	0x3e668d7e	0.22514912
21	0x3ebb80fe	0.3662185
22	0xbe21cc28	-0.15800536
23	0x3c985c19	0.018598603
24	0x3e8ce0e4	0.27515328
25	0x3f0172ef	0.50566
26	0x3b913a4a	0.0044319974
27	0xbccb8e6f	-0.024848191
28	0x3d4fda61	0.05074537
29	0xbecd3a1d	-0.400834
30	0x3bf36d11	0.007428773
31	0xbd25c335	-0.040469367
32	0x3d52205a	0.051300384
33	0xbde3c626	-0.11121778
34	0xbe195df7	-0.14977251
35	0xbd2162d1	-0.03940088
36	0xbe2876df	-0.16451596
37	0xbcd51d76	-0.026015025
38	0xbe263771	-0.16232087
39	0xbe9a5b96	-0.30148
40	0xbe933a63	-0.28755483
41	0xbdb22130	-0.08697736
42	0xbd2d4fe1	-0.042312507
43	0x3e334791	0.17507769
44	0xbc1862b4	-0.009300876
45	0xbd701ccc	-0.058621213
46	0x3d82ca12	0.06386198
47	0x3e847fc0	0.25878716
48	0xbe251275	-0.16120322
49	0x3db25909	0.08708388
50	0x3db4ac5c	0.088219374
51	0x3e8109ce	0.25202793
52	0xbe502ec3	-0.20330338
53	0xbc54a94d	-0.012979818
54	0x3e3a1f69	0.18176045
55	0x3ec7418b	0.38917193
56	0xbdc936bc	-0.09824893
57	0xbd967539	-0.07346577
58	0x3d29b2cb	0.041430276
59	0xbed91b45	-0.42403618
60	0x3c2713a1	0.010197551
61	0xbc814608	-0.015780464
62	0x3c4c04d8	0.012452327
63	0xbdf86fe6	-0.12130718
64	0xbe25e066	-0.16198882
65	0xbd1f5fe0	-0.038909793
66	0xbe23a4ee	-0.15980884
67	0x3d200eda	0.039076664
68	0xbe3b98f7	-0.1832007
69	0xbe8a5032	-0.2701431
70	0xbe6cfb76	-0.231428
71	0xbddc662b	-0.107616745
72	0xbbcf9a84	-0.0063355584
73	0x3e796ee8	0.24358714
74	0x3d87e177	0.06634801
75	0x3ca5aa48	0.020222798
76	0x3d71bed3	0.059019875
77	0x3e981f76	0.29711503
78	0xbda3c93c	-0.07997367
79	0x3e21111e	0.15729186
80	0x3d9692dc	0.0735223
81	0x3e8ba8bf	0.2727718
82	0xbe1ec8eb	-0.15506332
83	0x3d02eca8	0.031963974
84	0x3e630497	0.2216972
85	0x3ec2fb61	0.38082412
86	0xbdf920da	-0.12164469
87	0xbdd9b4a6	-0.10630159
88	0x3cc6d5bd	0.02427184
89	0xbebd3841	-0.3695698
90	0xbcaa154e	-0.020762112
91	0xbdbdf43c	-0.092751
92	0x3c1254cd	0.008931351
93	0xbdac93fd	-0.08426664
94	0xbddeeda3	-0.10885169
95	0xbd19a934	-0.03751488
96	0xbe1df904	-0.15427023
97	0xbb402c16	-0.0029323152
98	0xbe33e342	-0.1756716
99	0xbe852075	-0.26001325
100	0xbe6268a6	-0.22110233
101	0xbdae27ee	-0.0850371
102	0xbc064e62	-0.008197399
103	0x3e9725a6	0.2952091
104	0x3d43e010	0.047821105
105	0x3d3fc8a7	0.046822216
106	0x3dbdd404	0.092689544
107	0x3e90cd83	0.28281793
108	0xbdbc3c43	-0.091911815
109	0x3ddd3327	0.10800772
110	0x3deb9c0d	0.11504374
111	0x3e8a7eec	0.2704996
112	0xbe4981cf	-0.19678424
113	0x3d4ec6b8	0.05048248
114	0x3e32ef1d	0.17474027
115	0x3e9b0469	0.30276802
116	0xbde578a8	-0.11204654
117	0xbd909aac	-0.07060751
118	0xbbf21287	-0.0073874625
119	0xbed40545	-0.4141027
120	0xbcb19caf	-0.021681158
121	0xbdadf43a	-0.08493848
122	0x3c79deab	0.015250842
123	0xbd9d7767	-0.0768879
124	0xbde04dc7	-0.10952335
125	0xbd6b847e	-0.0574994
126	0xbe2c9bf3	-0.16856365
127	0xbb592bb6	-0.0033137626
128	0xbe41633c	-0.18885511
129	0xbe8d97e0	-0.27654934
130	0xbe78c7eb	-0.24295013
131	0xbd64bedd	-0.055846084
132	0x3d20fef6	0.03930565
133	0x3ea26520	0.31717777
134	0x3d5128be	0.051064245
135	0x3cd269b9	0.025685178
136	0x3df5e59d	0.12006686
137	0x3ea39359	0.31948355
138	0xbd74982e	-0.059715442
139	0x3e21f8e8	0.15817606
140	0x3e0cd90a	0.13754669
141	0x3ea025b0	0.31278753
142	0xbe174bac	-0.1477496
143	0x3de8df83	0.113707565
144	0x3e07a426	0.13246211
145	0x3ea392c1	0.31947902
146	0xbe0a0b91	-0.13480975
147	0xbd54d602	-0.051961906
148	0x3d6d0262	0.0578636
149	0xbed300e5	-0.4121162
150	0x3cfc95ae	0.030833092
151	0xbda0765a	-0.07835074
152	0x3c7ddff7	0.015495292
153	0xbddb0d42	-0.10695888
154	0xbd9dcb55	-0.07704798
155	0xbd6fe5c2	-0.058568723
156	0xbe2a7c21	-0.16648914
157	0xbd417055	-0.04722627
158	0xbe263973	-0.16232853
159	0xbe96c103	-0.2944413
160	0xbe586f8e	-0.21136305
161	0xbd02a0b1	-0.03189153
162	0x3d910519	0.070810504
163	0x3e9d4d01	0.30722812
164	0x3d8b1def	0.06792819
165	0x3d68bf09	0.05682281
166	0x3de97de1	0.114009626
167	0x3eadd3f4	0.3395077
168	0xbdf1e7d7	-0.11811798
169	0x3e6999bc	0.22812551
170	0x3e0c6554	0.13710529
171	0x3e7c9a95	0.24668343
172	0xbdfff9e7	-0.12498837
173	0xbc6dfa9d	-0.014525083
174	0x3e607346	0.21918973
175	0x3eae69b7	0.3406503
176	0xbe25339b	-0.16132967
177	0xbdc26b53	-0.09493127
178	0x3d873ac2	0.06603004
179	0xbebf7809	-0.37396267
180	0x3d282244	0.041048303
181	0xbd95f275	-0.07321636
182	0x3d351ece	0.04421883
183	0xbdca1021	-0.098663576
184	0xbc5ce569	-0.01348243
185	0x3c8e7eea	0.017394502
186	0xbe11afa0	-0.14227152
187	0xbc4f52b9	-0.012654
188	0xbe5676ab	-0.20943706
189	0xbea7eeac	-0.3279928
190	0xbe648a29	-0.22318329
191	0xbc9e037d	-0.019288773
192	0x3d395dcb	0.045255464
193	0x3eab5a10	0.3346715
194	0x3d858fd5	0.065215744
195	0x3d869800	0.065719604
196	0x3e1e5a8c	0.15464228
197	0x3e94fe8c	0.29100454
198	0xbde5bc8f	-0.11217605
199	0x3e728855	0.23684819
200	0x3e45bfd0	0.19311452
201	0x3e9308b7	0.28717586
202	0xbe1b8abd	-0.15189643
203	0x3c73eb01	0.014887572
204	0x3e6c2f52	0.23064926
205	0x3ea1b9e3	0.31587133
206	0xbde6c77b	-0.11268517
207	0xbcadd426	-0.021219324
208	0x3cee24bc	0.02907025
209	0xbec22bc6	-0.3792402
210	0x3b757249	0.0037452152
211	0xbd1767c3	-0.03696419
212	0x3bb84265	0.005623149
213	0xbda496d8	-0.08036584
214	0xbd8f81e1	-0.07007194
215	0xbcc01bc7	-0.023450745
216	0xbe33aa8b	-0.17545526
217	0xbda2e935	-0.07954637
218	0xbe402bf1	-0.18766762
219	0xbea3508f	-0.318974
220	0xbe5c3951	-0.2150624
221	0xbc8a7fe6	-0.01690669
222	0x3d41c261	0.047304515
223	0x3eb56fa5	0.3543674
224	0x3d9220c9	0.071351595
225	0x3dddb5a6	0.10825662
226	0x3e0fd4b2	0.1404598
227	0x3ecc6f66	0.3992874
228	0xbdfc9476	-0.12333004
229	0x3e67e957	0.22647606
230	0x3e1541df	0.14575909
231	0x3e859eee	0.26097816
232	0xbde2bacb	-0.11070784
233	0x3df75390	0.12076485
234	0x3e513eaf	0.20434068
235	0x3eb79619	0.35856703
236	0xbdd56ffa	-0.104217485
237	0xbdbb986d	-0.09159932
238	0xbc619d70	-0.013770446
239	0xbe9b6dc1	-0.30357173
240	0x3cb3b941	0.021938922
241	0xbd72c8ca	-0.05927352
242	0x3c83d963	0.016094869
243	0xbdeee894	-0.116654545
244	0xbce7c583	-0.028292423
245	0xbc4290fa	-0.011875385
246	0xbdf75bed	-0.1207808
247	0xbd9d2658	-0.07673329
248	0xbe6042a5	-0.21900423
249	0xbe9b3e5a	-0.30321008
250	0xbe5cdaa5	-0.21567781
251	0x3d2fa581	0.042882446
252	0x3d836686	0.06416039
253	0x3e9eca31	0.31013635
254	0x3e0edb98	0.13950956
255	0x3dd71265	0.10501555

0.bias f4 [100]
0	0x3e221763	0.15829234
1	0x3cb40c40	0.021978498
2	0x3bd37f1a	0.0064543607
3	0x3d017efa	0.031615235
4	0x3e9bb262	0.30409533
5	0x3e0aa213	0.13538389
6	0xbcd0ca34	-0.025487043
7	0x3cabe8fb	0.020985117
8	0xbeeae679	-0.45878962
9	0xbf4b18f0	-0.79334927
10	0xbe4c236a	-0.19935384
11	0xbe6c9285	-0.23102768
12	0x3d4a9ab0	0.049463928
13	0xbc73b3af	-0.014874383
14	0xbe30807f	-0.17236517
15	0x3ea733da	0.32656747
16	0x3b810abe	0.003938048
17	0xbc391bf8	-0.011298172
18	0x3f0a3d1e	0.5399951
19	0x3e68f1d4	0.227485
20	0x3f3ab0e7	0.7292618
21	0xbd8a41ed	-0.067508556
22	0xbe49bbb7	-0.19700514
23	0x3f136d4a	0.57588637
24	0x3e01fb39	0.1269349
25	0x3c311a3f	0.01080948
26	0x3e8c3f4c	0.27392042
27	0x3e8097ba	0.25115758
28	0xbe188fe1	-0.14898635
29	0xbdc8686b	-0.09785541
30	0x3e9ddc97	0.3083236
31	0xbdbef9b2	-0.09324969
32	0xbc528585	-0.012849216
33	0xbbf1f031	-0.0073833694
34	0x3e23a62c	0.15981358
35	0xbeca1b23	-0.3947383
36	0xbd866dd2	-0.06563915
37	0xbf21399c	-0.6297853
38	0xbccca5e6	-0.02498145
39	0xbd0c0e2a	-0.034193195
40	0xbc404da1	-0.011737258
41	0xbe5e02ff	-0.2168083
42	0xbccd12be	-0.025033351
43	0xbc7cf1e7	-0.015438533
44	0x3cb15e34	0.021651365
45	0xbe1f9d83	-0.1558743
46	0x3ae677b2	0.0017583279
47	0xbf0a397e	-0.53993976
48	0xbe80736f	-0.2508807
49	0xbe83c65c	-0.25737274
50	0xbe92b49b	-0.28653416
51	0x3eee9844	0.46600544
52	0xbcc93a49	-0.024563925
53	0x3eb443a0	0.35207844
54	0xbe4de0be	-0.20105264
55	0xbe70476f	-0.2346475
56	0xbd223788	-0.03960374
57	0x3e984eea	0.29747707
58	0xbcab9551	-0.020945223
59	0xbc6d3f1d	-0.014480379
60	0xbb985181	-0.004648388
61	0xbe8b6620	-0.27226353
62	0xbeee4a48	-0.46541047
63	0xbd7fe254	-0.062471703
64	0x3d31f904	0.04345037
65	0xbde7f291	-0.11325563
66	0xbdf05315	-0.11734597
67	0xbc860bfb	-0.016363135
68	0xbf153985	-0.5829089
69	0x3ebfb7f1	0.37445024
70	0xbf6aebf2	-0.91766274
71	0x3de11a6f	0.1099137
72	0xbed68b6d	-0.41903248
73	0xbccc2a0d	-0.024922395
74	0xbabb8e68	-0.0014309408
75	0xbdd89dc2	-0.10576965
76	0xbcb16ed7	-0.021659298
77	0xbf4b9cd5	-0.7953618
78	0xbced8fdc	-0.028999262
79	0xbe563030	-0.2091682
80	0x3ccbaa4b	0.024861475
81	0x3e22a57d	0.15883441
82	0x3e7d3f88	0.24731266
83	0x3e377e3a	0.17919245
84	0xbcfac6b2	-0.030612323
85	0x3eb5812c	0.35450113
86	0x3e2ae096	0.16687235
87	0xbe868f41	-0.2628117
88	0x3bfcdaa2	0.0077164927
89	0x3c221206	0.009891992
90	0x3de3a95b	0.11116286
91	0xbce7dab2	-0.028302524
92	0xbec5810d	-0.3857502
93	0x3c309230	0.010777041
94	0xbddfa653	-0.10920396
95	0xbf17670e	-0.59141624
96	0xbdc2c578	-0.095103204
97	0x3ebfc26c	0.3745302
98	0xbe8d3f7a	-0.2758749
99	0x3df51613	0.11967101

2.weight f4 [100, 100]
0	0xbe5a2bf7	-0.21305834
1	0xbdb83fca	-0.08996542
2	0xbc96ac0d	-0.018392587
3	0xbd5229c7	-0.051309373
4	0xbcb114f4	-0.021616437
5	0x3e64574d	0.22298928
6	0x3d9cbe4f	0.07653486
7	0xbd00b343	-0.031420957
8	0x3e794b92	0.24345234
9	0xbd37587c	-0.04476212
10	0x3c0157f0	0.007894501
11	0x3e556189	0.20837988
12	0xbdfd28b4	-0.12361279
13	0x3d91672d	0.07099757
14	0xbbf487e0	-0.0074624866
15	0x3d41dbe6	0.047328852
16	0x3cdd8aaa	0.02704366
17	0xbbf3c1b3	-0.007438862
18	0x3def54fe	0.11686133
19	0x3ddd5f4f	0.10809194
20	0xbe004d56	-0.12529501
21	0x3dc1167e	0.09428118
22	0x3d1799d0	0.03701192
23	0xbe6ca706	-0.2311059
24	0xbd2c927e	-0.042131893
25	0x3da5dcfd	0.08098791
26	0xbe26d725	-0.16293009
27	0xbd7919f3	-0.060815763
28	0x3e09b1a3	0.1344667
29	0x3ed27c64	0.41110528
30	0xbd8dd9f4	-0.06926337
31	0xbd623a21	-0.055231217
32	0x3d4d52fa	0.05012796
33	0xbda43f47	-0.08019882
34	0x3d926293	0.07147708
35	0xbda0978d	-0.07841406
36	0xbe44f2dd	-0.1923327
37	0x3d603297	0.054735746
38	0xbd865667	-0.06559449
39	0xbd0fa7cd	-0.035072137
40	0x3d6e3080	0.058151722
41	0xbde9a1dd	-0.11407826
42	0x3cc43acd	0.02395382
43	0xbdc56f57	-0.09640377
44	0xbd2873d3	-0.041126084
45	0x3d40768b	0.04698805
46	0x3cbd1f2d	0.023086155
47	0x3db55eb8	0.08855957
48	0x3e589eea	0.21154371
49	0x3d283f29	0.04107586
50	0x3dc1b43a	0.094582036
51	0x3dd7ac82	0.1053095
52	0xbd875dcd	-0.06609688
53	0xbe53e455	-0.2069257
54	0xbd1b9e30	-0.037992656
55	0xbd6a7071	-0.05723614
56	0x3d1375fc	0.03600119
57	0xbe36409d	-0.17798086
58	0xbdb3bc1d	-0.08776114
59	0xbd8aaefb	-0.06771656
60	0x3d9fa97a	0.07795997
61	0x3e1d18de	0.15341517
62	0x3db0c4f2	0.08631314
63	0xbe1034d1	-0.14082648
64	0x3e8a2fbe	0.2698955
65	0xbdf0ef75	-0.11764423
66	0xbe6dc12b	-0.23218219
67	0x3d72ea3a	0.059305407
68	0x3e740021	0.23828174
69	0x3daf0d95	0.085475124
70	0x3e0579e2	0.13034776
71	0x3e881a0b	0.2658237
72	0xbe0b4547	-0.13600646
73	0xbe500d86	-0.20317659
74	0x3db93efa	0.09045215
75	0xbc556d50	-0.01302655
76	0x3b907267	0.004408169
77	0xbd2f3e25	-0.042783875
78	0x3cec8580	0.028872252
79	0xbc9d3026	-0.019187998
80	0x3d596957	0.053078976
81	0x3ea80ec7	0.32823774
82	0x3df38b77	0.11891835
83	0x3e191733	0.14950256
84	0x3dd33fed	0.10314927
85	0x3dfa7ae7	0.12230473
86	0xbe5eeebf	-0.21770762
87	0x3d914ad9	0.07094354
88	0xbc61351a	-0.013745571
89	0xbd73aead	-0.059492756
90	0xbd1b015d	-0.037843097
91	0xbd3da29d	-0.04629766
92	0x3e802aca	0.25032645
93	0x3d952bc7	0.072837405
94	0x3f497424	0.7869284
95	0x3de59ad9	0.112111755
96	0x3d2be414	0.04196556
97	0xbef85c40	-0.4850788
98	0x3e49bf28	0.19701827
99	0xbe8fb2a4	-0.2806598
100	0x3d3f54ba	0.04671166
101	0xbca0f608	-0.019648567
102	0xbdb49063	-0.08816602
103	0x3db9e27e	0.09076403
104	0x3e347c14	0.17625457
105	0xbdf6ea98	-0.12056464
106	0x3ed92d49	0.42417362
107	0xbdcf7032	-0.101288214
108	0x3e25a4a7	0.16176091
109	0xbe1414e1	-0.1446109
110	0x3dbdec40	0.09273577
111	0xbbd2fab5	-0.006438578
112	0xbc653aec	-0.013991099
113	0x3ab755b6	0.0013987336
114	0x3e0085c9	0.12551035
115	0xbe187c48	-0.1489116
116	0x3d95378e	0.07285987
117	0xbcfe470d	-0.031039739
118	0x3e0f1c75	0.13975699
119	0x3e37a917	0.17935596
120	0xbea1f3f2	-0.31631428
121	0x3e108535	0.14113314
122	0xbeb0c387	-0.34524176
123	0x3e2bbefa	0.1677207
124	0x3d960c34	0.07326546
125	0xbcfee894	-0.031116761
126	0xbca05418	-0.019571349
127	0x3ea9dab8	0.33174682
128	0x3e0c2557	0.13686119
129	0xbeadabcd	-0.33920136
130	0xbd0e6fe9	-0.034774695
131	0x3dc04575	0.09388248
132	0x3d14096e	0.036141805
133	0x3d8b869f	0.06812786
134	0xbe0d7976	-0.13815865
135	0xbd5b2071	-0.053497735
136	0xbd31005c	-0.043213233
137	0xbdd94bd1	-0.10610164
138	0x3cfdda93	0.030988013
139	0x3ca3f77f	0.020015476
140	0x3d66dd98	0.056363672
141	0xbd065fda	-0.032806255
142	0xbb2223d2	-0.002474059
143	0x3cd40980	0.025883436
144	0x3cc95727	0.02457769
145	0xbe1e6c16	-0.15470919
146	0xbcf382e5	-0.029725501
147	0x3e003dbe	0.12523553
148	0x3e481a7b	0.19541351
149	0xbe3c16af	-0.18368028
150	0xbe02a205	-0.12757118
151	0xbd4b8989	-0.04969171
152	0xbd1a6555	-0.037694294
153	0x3dc15335	0.094396986
154	0x3e2a64c5	0.16640003
155	0xbdc8dfd1	-0.098083146
156	0x3d531b5f	0.051539775
157	0xbc204e02	-0.0097842235
158	0x3c846de4	0.016165681
159	0x3bb27d63	0.005447076
160	0x3dd56db1	0.104213126
161	0x3cf56e41	0.0299598
162	0x3debecb4	0.11519757
163	0x3e1e296a	0.15445486
164	0xbdd13878	-0.10215849
165	0xbd08805d	-0.03332554
166	0xbda7b457	-0.08188694
167	0x3c958f6f	0.018256871
168	0xbe505d5c	-0.20348114
169	0xbd522b57	-0.051310863
170	0x3d1eb883	0.038750183
171	0x3d9da0de	0.076966986
172	0x3e11603c	0.14196867
173	0xbd3f7dd7	-0.04675087
174	0xbd42f71a	-0.047598936
175	0xbd1a079c	-0.037604913
176	0xbdb97f8b	-0.0905753
177	0x3e00f86f	0.1259477
178	0xbd219f7f	-0.039458748
179	0xbe683193	-0.22675161
180	0x3d7a8724	0.061164036
181	0xbd4ed913	-0.050499987
182	0xbd42f54e	-0.047597222
183	0xbe167551	-0.1469319
184	0xbda1fee2	-0.07909943
185	0x3cf2f244	0.029656537
186	0x3e324c85	0.17412002
187	0x3d1459b8	0.036218375
188	0x3c0be69e	0.00853887
189	0xbd8dcdd0	-0.06924021
190	0x3e91f661	0.28508285
191	0x3d7ca714	0.061682776
192	0x3d8cc2d5	0.06873099
193	0x3d31b58e	0.043386035
194	0xbec1f631	-0.37883142
195	0xbb9b616e	-0.004741839
196	0x3dad044b	0.084480844
197	0x3e4e8879	0.20169248
198	0xbda9a993	-0.08284297
199	0x3ea47c12	0.32125908
200	0xbbd219dc	-0.006411774
201	0xbd9c3bfa	-0.07628627
202	0x3d7f9aea	0.062403597
203	0x3db402aa	0.08789571
204	0xbd7ea77d	-0.062171448
205	0xbd5626b7	-0.052283015
206	0x3d695126	0.056962155
207	0xbdc3e190	-0.09564507
208	0x3cdaefb4	0.026725627
209	0xbbf9d524	-0.0076242853
210	0xbb8149c8	-0.003945563
211	0xbdfaec29	-0.12252075
212	0xbd8557fc	-0.06510922
213	0xbd98be46	-0.07458167
214	0xbd8f2b84	-0.06990722
215	0xbd988bea	-0.074485615
216	0xbbc7d79a	-0.0060986998
217	0xbd9b0d2b	-0.07570871
218	0xbdc139c0	-0.09434843
219	0x3da8371c	0.08213636
220	0xbd15ddf8	-0.03658864
221	0xbda59eea	-0.08086951
222	0x3dc4aed8	0.09603661
223	0x3d026eef	0.031844076
224	0x3d1c27ff	0.03812408
225	0x3c2b5c5a	0.01045903
226	0xbcf0e9c1	-0.029408338
227	0x3d15191c	0.0364009
228	0x3d2fb8ec	0.042900965
229	0xbdbefc0b	-0.09325417
230	0x3cb91e83	0.022597557
231	0x3ce1e2e5	0.027574012
232	0x3db55ec0	0.08855963
233	0xbd9f851a	-0.07789059
234	0xbdd1064d	-0.1020628
235	0xbb85a1c1	-0.0040781205
236	0xbd8cb649	-0.06870706
237	0xbd64c42b	-0.055851143
238	0xbcd8ee40	-0.026480794
239	0xbd2aa3a3	-0.041659962
240	0xbd5d025d	-0.053957332
241	0xbd058c7f	-0.03260469
242	0xbd8c91a2	-0.06863715
243	0xbd75d92d	-0.060021568
244	0x3d96b225	0.07358197
245	0xbcda8ed0	-0.026679426
246	0x3da1cc45	0.079002894
247	0xbdfe048c	-0.12403211
248	0xbd1b7ae1	-0.037958983
249	0x3b1fa7d6	0.0024361513
250	0x3b81371b	0.0039433367
251	0xbcce661a	-0.02519517
252	0x3d32275d	0.04349457
253	0x3d79f554	0.06102498
254	0xbd7da1d4	-0.06192191
255	0xbc6c407a	-0.014419669

2.bias f4 [100]
0	0x3b0f96f2	0.0021910039
1	0x3e978dfc	0.29600513
2	0xbdca5e13	-0.098812245
3	0x3f49b6e7	0.7879471
4	0xbe13d247	-0.14435683
5	0x3d1ae717	0.03781804
6	0x3d832427	0.0640338
7	0x3e8983d6	0.26858395
8	0x3e4ac32c	0.19801015
9	0xbe755793	-0.23959188
10	0x3eac8d6d	0.3370165
11	0x3e4f7fb1	0.20263554
12	0x3d307b3c	0.043086275
13	0x3e04bcc2	0.1296263
14	0xbf156ae9	-0.58366257
15	0xbdec6a1d	-0.11543677
16	0x3ea430c9	0.3206847
17	0x3e986361	0.2976332
18	0xbc108adc	-0.008822169
19	0x3dc7bef0	0.09753215
20	0x3df25b00	0.11833763
21	0xbdfa6877	-0.12226956
22	0xbd9c35e9	-0.0762747
23	0x3e161542	0.14656547
24	0xbda12ca2	-0.07869841
25	0xbd99f879	-0.075180955
26	0x3d05f25b	0.03270183
27	0xbef81fc4	-0.48461735
28	0xbd4ec1ba	-0.05047772
29	0xbf2ef230	-0.683383
30	0x3e3f149a	0.18660203
31	0xbe091fac	-0.13390988
32	0xbe85844b	-0.26077494
33	0xbf42dded	-0.7611988
34	0x3f1898fb	0.5960843
35	0x3eaef918	0.34174418
36	0xbc779c6e	-0.015112979
37	0xbde14a9e	-0.1100056
38	0xbd8f1691	-0.06986726
39	0x3d70be27	0.058775093
40	0xbdaad8ff	-0.0834217
41	0xbd414a2c	-0.047189876
42	0xbda695a8	-0.081340134
43	0x3e797100	0.24359512
44	0xbe92092b	-0.2852262
45	0x3ed1aecb	0.4095367
46	0xbe0694d4	-0.13142711
47	0xbccc70a6	-0.024956059
48	0xbf03169e	-0.51206386
49	0x3d37b00e	0.044845633
50	0xbf0a330e	-0.53984153
51	0xbe744712	-0.23855236
52	0x3f4dbb6b	0.803641
53	0x3e3303e8	0.17481959
54	0xbd8c23d8	-0.06842774
55	0x3ecccfc8	0.40002275
56	0xbdd5b5e3	-0.10435083
57	0x3f52bff5	0.82324153
58	0x3f8f42ae	1.1192224
59	0xbc623c67	-0.013808346
60	0x3f550973	0.83217543
61	0x3ec4c763	0.3843337
62	0x3f234ea0	0.6379185
63	0x3c84edca	0.016226668
64	0xbe8f6a2e	-0.28010696
65	0xbd8888a1	-0.06666685
66	0xbc3df455	-0.011593898
67	0xbeed4251	-0.46339658
68	0xbf09775d	-0.5369776
69	0xbe903687	-0.281666
70	0xbd9b1746	-0.075727984
71	0xbeb84876	-0.35992783
72	0xbf237cdb	-0.6386239
73	0xbef183ed	-0.47170964
74	0xbd2ccc90	-0.042187274
75	0xbd1a2000	-0.037628174
76	0x3d76a357	0.060214367
77	0x3e3dc8cf	0.18533634
78	0xbe47db01	-0.19517137
79	0x3efa4bbb	0.48885903
80	0xbecd2829	-0.40069702
81	0xbe22c99c	-0.1589722
82	0xbf1342b8	-0.5752368
83	0xbea3ce98	-0.31993556
84	0x3e0f30fb	0.13983528
85	0x3ecf41ed	0.40479985
86	0xbf0891d9	-0.53347546
87	0x3e0e6b92	0.13908222
88	0x3e0b7614	0.13619262
89	0xbf256d9b	-0.6462037
90	0xbce42ea2	-0.027854268
91	0x3f1b78c4	0.6073115
92	0xbf0fbd18	-0.5614791
93	0xbd9b1f68	-0.0757435
94	0xbeba3fc4	-0.36376774
95	0xbddc1d85	-0.10747818
96	0x3d85ca21	0.06532694
97	0xbe6db3a0	-0.23213053
98	0xbe87a15c	-0.26490295
99	0xbd1cac6b	-0.038250368

4.weight f4 [100, 100]
0	0xbe1db936	-0.15402684
1	0x3dd5e267	0.104435734
2	0xbdc31028	-0.09524566
3	0xbe816776	-0.25274247
4	0xbd20dfa4	-0.03927578
5	0xbcefad11	-0.02925733
6	0x3df662da	0.12030573
7	0x3cf03b3a	0.029325116
8	0x3a9aa49d	0.0011798326
9	0xbe1a29cc	-0.15055007
10	0xbe24264f	-0.16030239
11	0x3db3800f	0.087646596
12	0x3dc6a8b8	0.09700149
13	0x3e31fb62	0.17381051
14	0xbd7145ca	-0.058904447
15	0x3d82d108	0.06387526
16	0xbdcba18c	-0.09942922
17	0xbe38b0cf	-0.18036197
18	0xbdfe69a7	-0.12422495
19	0x3d9fed14	0.07808891
20	0x3e346ece	0.17620394
21	0xbec30c24	-0.380952
22	0xbe4bfd4c	-0.19920844
23	0x3e3036e8	0.17208445
24	0xbc8d8ce6	-0.0172791
25	0x3cccc1b5	0.02499471
26	0x3dc9b353	0.098486565
27	0xbe0f6adf	-0.14005612
28	0x3d31dcfd	0.04342364
29	0x3cce438d	0.025178695
30	0x3e9bcf30	0.3043151
31	0x3d046e6f	0.03233188
32	0x3bfeea47	0.007779393
33	0x3d6e9e0c	0.058256194
34	0x3e4d690c	0.20059603
35	0x3d299f5d	0.041411746
36	0x3d4d0183	0.05005027
37	0x3c74e853	0.014947969
38	0x3da5307e	0.0806589
39	0x3e1d1c4e	0.15342829
40	0x3d4d69bf	0.050149675
41	0xbd7988f1	-0.060921613
42	0x3c70fada	0.014708245
43	0x3e67cd54	0.2263692
44	0xbeb5b5ac	-0.35490167
45	0xbdce9479	-0.10086913
46	0x3e239225	0.15973718
47	0x3ce97a42	0.02850068
48	0xbe282c24	-0.16423088
49	0x3c47a5fe	0.012185572
50	0x3d7f4490	0.062321246
51	0xbdb6f049	-0.089325495
52	0x3e3728b5	0.17886622
53	0xbd838012	-0.06420912
54	0x3bffde00	0.007808447
55	0x3e260c9f	0.16215752
56	0xbebed726	-0.3727352
57	0x3e1d8ac0	0.1538496
58	0x3e04ae3d	0.12957092
59	0x3dec152c	0.11527476
60	0x3ec10c15	0.3770453
61	0x3da7b8be	0.08189534
62	0x3d3b2fcb	0.045699876
63	0x3e7b3a5e	0.24533984
64	0xbe03990d	-0.12851353
65	0x3e44a4ac	0.19203442
66	0xbc6481ae	-0.013946934
67	0xbe29de87	-0.16588794
68	0xbe2404d0	-0.16017461
69	0xbe1e4879	-0.15457334
70	0x3ccac7b9	0.024753438
71	0x3d323714	0.043509558
72	0x3e0c7c02	0.1371918
73	0xbe5a6afd	-0.21329875
74	0xbdb84790	-0.089980245
75	0x3ca0c860	0.019626796
76	0xbe6079a3	-0.219214
77	0xbd459c1c	-0.04824458
78	0x3dbe97b5	0.093062796
79	0x3b85c4e4	0.004082309
80	0x3dafe391	0.08588327
81	0xbd13f0f2	-0.036118455
82	0x3e3f3cdf	0.18675564
83	0xbd788d18	-0.060681432
84	0xbdbf4b00	-0.09340477
85	0x3e040a04	0.12894446
86	0xbe0889f2	-0.13333872
87	0x3db3e230	0.08783376
88	0x3eac5859	0.33661154
89	0xbd92a9b5	-0.07161275
90	0xbe1dbcfb	-0.15404122
91	0x3e992723	0.2991267
92	0x3d751a31	0.05983943
93	0xbd95184f	-0.07280027
94	0xbe68b4f1	-0.22725274
95	0x3d6f1943	0.0583737
96	0x3c660cc0	0.014041126
97	0xbe398887	-0.18118487
98	0xbec04a69	-0.3755677
99	0x3d90e6e1	0.07075287
100	0xbe98157f	-0.297039
101	0x3e3cb815	0.18429597
102	0xbd1e278e	-0.03861194
103	0xbce0eae0	-0.027455747
104	0xbdaa0a04	-0.083026916
105	0xbcdf0cb1	-0.027227731
106	0xbed49040	-0.41516304
107	0xbd4701df	-0.04858577
108	0xbdc24b33	-0.09486999
109	0x3e16fb68	0.14744341
110	0xbe8ac63a	-0.2710436
111	0x3e34ed78	0.17668712
112	0x3e5c1a04	0.21494299
113	0xbc007811	-0.007841126
114	0xbe0543e5	-0.13014181
115	0x3d1aea6a	0.03782121
116	0x3db735a3	0.08945777
117	0x3e25ab25	0.16178568
118	0x3e1bdd47	0.1522113
119	0xbdea33b1	-0.114356406
120	0xbdab23fc	-0.08356473
121	0xbdba5afd	-0.09099386
122	0x3d0e989b	0.034813505
123	0x3e6b632c	0.2298705
124	0xbed1e60e	-0.4099583
125	0xbc91e067	-0.017807199
126	0x3d677f7f	0.056518074
127	0xbcf89d57	-0.030348463
128	0xbc4f6ca9	-0.012660184
129	0x3e7aaa40	0.24479008
130	0x3e9ebf56	0.31005353
131	0xbda97e46	-0.08276038
132	0x3e44cfce	0.19219896
133	0x3ddf3266	0.108982846
134	0xbdb109f7	-0.08644479
135	0xbe44ab9e	-0.19206092
136	0xbe0fc76b	-0.14040916
137	0xbb37232d	-0.002794455
138	0x3dbbf2db	0.091771804
139	0xbce096d3	-0.027415669
140	0xbc1b484f	-0.009477689
141	0x3db3803e	0.08764695
142	0xbdcbc3e9	-0.09949476
143	0xbde9bc07	-0.114128165
144	0xbdb7b5d0	-0.08970225
145	0x3dc08d4c	0.0940195
146	0xbe92ac18	-0.28646922
147	0xbd427d2d	-0.04748266
148	0x3e2b308b	0.16717736
149	0xb92a1b00	-0.00016222522
150	0x3dc2c372	0.095099345
151	0x3c6f0893	0.014589447
152	0x3be3ce0e	0.006952054
153	0x3e358578	0.17726696
154	0xbd36b30a	-0.04460434
155	0xbde7ef86	-0.11324982
156	0xbecd13a3	-0.40054044
157	0x3e2c33a6	0.16816577
158	0x3d00b918	0.03142652
159	0x3e6f4b6b	0.23368613
160	0x3e0df1c8	0.13861763
161	0x3e0436ea	0.12911573
162	0xbcde9343	-0.02716983
163	0x3e58f413	0.21186857
164	0xbdeadb0f	-0.11467563
165	0x3e2343bc	0.15943807
166	0xbcf86b6b	-0.030324658
167	0xbd84728e	-0.06467162
168	0x3c66121d	0.0140424045
169	0xbd244806	-0.04010775
170	0xbd1b5e12	-0.03793151
171	0xbdbd5d27	-0.09246283
172	0x3e033af7	0.12815462
173	0xbd614276	-0.054995023
174	0xbbbc4b4d	-0.0057462812
175	0xbc19c736	-0.0093858745
176	0x3e300ac7	0.17191611
177	0xbd7d754d	-0.061879445
178	0x3d9622f3	0.07330885
179	0x3bfff011	0.0078106006
180	0x3c59e12e	0.013298316
181	0x3e925bf1	0.2858577
182	0x3ce3d7ea	0.027812917
183	0xbd40a8b6	-0.047035895
184	0xbea878b3	-0.32904586
185	0x3ddfaef1	0.10922039
186	0x3e11ead7	0.1424974
187	0xbddaaa9b	-0.10677072
188	0xbe9df8e5	-0.30853954
189	0x3e2a1498	0.16609418
190	0xbe2f6151	-0.17126967
191	0x3eb47617	0.35246345
192	0x3e451b54	0.19248706
193	0x3cbc0971	0.02295372
194	0xbba8c42e	-0.0051503396
195	0xbdd97737	-0.106184416
196	0x3e87a47f	0.26492688
197	0xbd8ae37c	-0.067816705
198	0xbd82dde0	-0.063899755
199	0x3e20000a	0.15625015
200	0x3d140470	0.036137044
201	0xbbc5b3d8	-0.006033402
202	0xb8905333	-6.881952e-05
203	0xbdd06c1b	-0.101768695
204	0xbd030ea8	-0.0319964
205	0xbdb754ab	-0.08951696
206	0xbd8a6d37	-0.06759112
207	0xbd686123	-0.05673326
208	0xbdb8e143	-0.0902734
209	0xbdca6192	-0.09881891
210	0x3d03f8bd	0.032219637
211	0xbdb7c3ad	-0.08972869
212	0x3ca50cc8	0.020147696
213	0xbd6a5f37	-0.05721971
214	0xbcc2392f	-0.023708908
215	0xbe01e9b7	-0.12686811
216	0xbde8c920	-0.113664865
217	0xbddba04f	-0.10723936
218	0x3d183787	0.03716233
219	0xbdfdefe1	-0.12399269
220	0xbd917202	-0.071018234
221	0xbd96e2fc	-0.073675126
222	0x3cecb5c4	0.028895266
223	0x39986169	0.00029064275
224	0xbdd90f9c	-0.105986804
225	0xbcf5e520	-0.030016482
226	0xbd273823	-0.04082502
227	0xbdb383e3	-0.0876539
228	0x3d98498d	0.07435904
229	0xbbf30fca	-0.0074176537
230	0xbdf2c1e5	-0.11853389
231	0x3d8c40aa	0.06848271
232	0x3d8c9211	0.068637975
233	0x3ca867b2	0.020557258
234	0x3d714ecc	0.058913037
235	0xbbb85291	-0.005625077
236	0x3c52f799	0.012876415
237	0xbdbdcbe3	-0.09267404
238	0xbd8e96ad	-0.06962333
239	0xbb2b5d3c	-0.0026148101
240	0x3d00799a	0.03136597
241	0xbdb2fd3f	-0.08739709
242	0x3dc98015	0.09838883
243	0xbce3f1ee	-0.027825322
244	0xbda2dc3b	-0.07952162
245	0xbd8dc563	-0.06922414
246	0xbd9fcfa0	-0.07803273
247	0x3c147173	0.0090602515
248	0xbd1873aa	-0.03721968
249	0x3d9f26cd	0.077710725
250	0xbd07f074	-0.0331883
251	0xbc9ffb2c	-0.019528948
252	0xbde96e3a	-0.11397977
253	0xbdcb83b4	-0.0993723
254	0x3da7b618	0.081890285
255	0xbdc383f8	-0.095466554

4.bias f4 [100]
0	0x3eb94ab0	0.36189795
1	0xbdff6b1d	-0.12471602
2	0xbd827b98	-0.0637123
3	0xbc0fde44	-0.00878102
4	0x3efd50eb	0.49475798
5	0x3e801f3c	0.2502383
6	0x3dd27298	0.10275763
7	0x3cff6dac	0.031180225
8	0xbe1066ee	-0.14101765
9	0x3e9e4b12	0.3091665
10	0x3d667b0e	0.056269698
11	0x3b2d8d45	0.0026481908
12	0xbda713a9	-0.08158047
13	0xbe9c422d	-0.30519238
14	0xbe809d5c	-0.25120056
15	0x3f112724	0.5670035
16	0xbe9005c8	-0.2812941
17	0x3d6bd93f	0.05758023
18	0xbd203e4b	-0.039121907
19	0x3e69be2d	0.22826453
20	0x3ee1781c	0.4403695
21	0x3e98602f	0.29760882
22	0xbd632a5e	-0.055460326
23	0xbd8aa9d1	-0.06770671
24	0xbdae47c1	-0.0850978
25	0x3f1af551	0.60530573
26	0x3e36dd87	0.17857943
27	0xbdbb2199	-0.091372676
28	0x3ce1ea8c	0.027577661
29	0xbefdc684	-0.49565518
30	0x3de83bd6	0.11339538
31	0xbf072a9a	-0.5279938
32	0x3e357bcc	0.17723006
33	0x3e223f71	0.15844513
34	0x3d68277b	0.056678277
35	0xbeafbc30	-0.34323263
36	0xbeace9f5	-0.33772245
37	0x3ee51a83	0.4474679
38	0x3fa5a94d	1.2942291
39	0xbeb40462	-0.35159594
40	0xbe074533	-0.13209991
41	0xbcb07f09	-0.02154495
42	0x3e544f65	0.20733412
43	0x3e992b45	0.29915825
44	0x3d60a1a8	0.054841667
45	0x3e2c668c	0.16835994
46	0x3dd11eba	0.10210939
47	0xbd9beedd	-0.07613919
48	0x3f160b7f	0.5861129
49	0xbe086d63	-0.13322978
50	0xbebbd22e	-0.36683792
51	0xbed6ac3b	-0.41928276
52	0x3e1c6c21	0.15275623
53	0xbe072450	-0.13197446
54	0xbe57024e	-0.20996973
55	0x3e7fa078	0.24963558
56	0x3cae5cb6	0.021284442
57	0xbe687327	-0.22700177
58	0xbc88efa0	-0.016715825
59	0xbdfb9008	-0.12283331
60	0x3d095904	0.033532158
61	0x3e883949	0.26606205
62	0x3d697543	0.056996595
63	0xbc8429b8	-0.016133174
64	0xbec95c37	-0.39328167
65	0xbee1ba32	-0.44087368
66	0x3dae29f0	0.08504093
67	0xbbb53539	-0.0055300263
68	0xbd6e1976	-0.05812975
69	0x3c718cac	0.014743011
70	0x3e9eb846	0.30999964
71	0x3f2457fc	0.64196754
72	0xbe9cf663	-0.30656728
73	0x3cf35a09	0.029706018
74	0xbd9a906c	-0.075470775
75	0x3d903321	0.07041002
76	0xbd5802cd	-0.052737046
77	0xbccf26b2	-0.025287006
78	0xbe275ab8	-0.163432
79	0x3e3e671f	0.18594025
80	0x3e845174	0.25843394
81	0xbe0fd47b	-0.14045899
82	0xbe9c2dae	-0.305036
83	0xbf1e3ded	-0.6181324
84	0x3dc6180c	0.09672555
85	0x3cd0d8d4	0.025494017
86	0xbe0ec451	-0.13942076
87	0xbce6d5ee	-0.028178181
88	0x3dc78e8b	0.09743985
89	0x3d6f1ca3	0.05837692
90	0xbdc2b9c6	-0.0950809
91	0x3edfc464	0.43704522
92	0x3edd3b25	0.43209186
93	0xbdda659e	-0.10663913
94	0x3eb9c555	0.36283365
95	0x3f215758	0.630239
96	0x3e4db71f	0.20089386
97	0x3e3a23a3	0.18177657
98	0xbec6f4e8	-0.38858724
99	0xbe2bde76	-0.16784081

6.weight f4 [157, 100]
0	0xbe4ab959	-0.19797267
1	0x3cb7cea0	0.022437394
2	0x3b97d072	0.004633003
3	0x3d4aae04	0.04948236
4	0xbd26ef4d	-0.04075556
5	0xbdf8dc36	-0.12151377
6	0x3e2f0015	0.17089875
7	0xbd1c71b0	-0.03819436
8	0x3d9254b5	0.07145063
9	0xbe50de2a	-0.20397249
10	0xbdb7ad42	-0.08968593
11	0x3b740a91	0.0037237743
12	0xbda3e862	-0.08003308
13	0x3c92b847	0.017910136
14	0xbdef7965	-0.11693076
15	0x3de28fdb	0.110625945
16	0xbe998942	-0.29987532
17	0x3d4b96b9	0.049704287
18	0xbe35eda0	-0.17766428
19	0xbca76c46	-0.020437371
20	0x3e2f6af1	0.17130639
21	0xbec9799a	-0.39350587
22	0xbf1b37cb	-0.6063201
23	0xbe3967b5	-0.18105967
24	0x3b6a7085	0.0035772633
25	0xbe0553cc	-0.13020247
26	0x3b9363d7	0.004497986
27	0x3c9b228d	0.018937374
28	0x3cc33d53	0.023832953
29	0xbcd2e2f8	-0.025742993
30	0x3d4f9b97	0.05068549
31	0x3db2278a	0.08698948
32	0x3b390e83	0.002823741
33	0xbad97214	-0.0016589784
34	0xbdba7e9a	-0.091061786
35	0x3e803c63	0.2504607
36	0x3e01d54e	0.12679026
37	0xbea26088	-0.31714272
38	0xbdba4ed2	-0.09097065
39	0x3d81c115	0.063356556
40	0xbe174885	-0.14773758
41	0x3d202dec	0.039106295
42	0x3e35c90d	0.17752476
43	0xbe3c5380	-0.18391228
44	0x3e992f03	0.2991868
45	0xbe3c5951	-0.18393447
46	0xbe956555	-0.29178873
47	0x3d818983	0.063250564
48	0xbecf9800	-0.40545654
49	0xbdca7462	-0.098854795
50	0x3d553bf7	0.05205914
51	0x3cfa2638	0.030535802
52	0xbe9bef6f	-0.3045611
53	0x3da88c14	0.08229843
54	0xbd8f582f	-0.069992416
55	0xbe63dfd7	-0.22253357
56	0xbd112d20	-0.035443425
57	0xbe8a9a2f	-0.27070758
58	0x3e00095a	0.12503567
59	0x3d721f52	0.0591119
60	0xbcc84569	-0.02444716
61	0x3bad3f91	0.0052871187
62	0xbc9019af	-0.017590372
63	0x3da9947a	0.08280273
64	0xbc1f8b99	-0.0097378725
65	0xbd3e9bde	-0.046535365
66	0xbd853462	-0.06504132
67	0x3d83b267	0.06430512
68	0xbda8e528	-0.08246833
69	0x3d9fe1aa	0.07806714
70	0x3e5d02eb	0.21583144
71	0x3e2f6c18	0.17131078
72	0xbe0bd3e9	-0.13655056
73	0x3e1ae9a2	0.15128186
74	0xbd106854	-0.035255745
75	0x3e444a91	0.1916907
76	0x3db1a019	0.08673114
77	0xbd42fb31	-0.047602836
78	0x3ae3d13a	0.001738108
79	0xbe44f0a7	-0.19232427
80	0x3d8532a8	0.065038025
81	0xbd8a50ca	-0.067536905
82	0x3ce45c81	0.02787614
83	0x3d809af1	0.06279553
84	0x3cdbb176	0.026818018
85	0x3ded8ea5	0.11599473
86	0xbd9afbf6	-0.07567589
87	0xbd176785	-0.03696396
88	0xbd365e20	-0.04452336
89	0xbe240b3a	-0.16019908
90	0x3d34f5f3	0.044179868
91	0xbe722a14	-0.23648864
92	0x3e018c2a	0.12651125
93	0xbb488f23	-0.0030602894
94	0xbe1567cb	-0.14590375
95	0x3d246be8	0.04014197
96	0x3d428dbc	0.04749845
97	0x3e157ff4	0.14599591
98	0xbe2166f8	-0.15761936
99	0x3e41e6cc	0.18935698
100	0xbd08f056	-0.033432327
101	0x3e01cb1c	0.12675136
102	0x3c8bad6f	0.017050473
103	0xbd2f686d	-0.042824198
104	0x3e47a71c	0.19497341
105	0xbe4e1fed	-0.20129366
106	0xbe25cc05	-0.16191109
107	0xbd2eb9b2	-0.04265756
108	0x3daec4b8	0.08533615
109	0x3e467e42	0.19384101
110	0xbda3f917	-0.080064945
111	0xbd17073c	-0.036872134
112	0xbdbec0f4	-0.09314147
113	0xbeb0bc59	-0.34518698
114	0x3a888fd0	0.0010418836
115	0xbd6cbe6e	-0.057798795
116	0x3e3670ab	0.17816417
117	0xbf18023a	-0.593784
118	0x3eaee4b1	0.34158853
119	0xbb75f126	-0.003752777
120	0x3ddb8028	0.10717803
121	0x3a87748f	0.001033442
122	0x3e23e484	0.1600514
123	0xbdd0f3f0	-0.102027774
124	0x3d9f2ced	0.07772241
125	0xbf689f5f	-0.9086818
126	0xbe9cdd11	-0.3063741
127	0xbc64cb62	-0.013964506
128	0x3e1939cb	0.14963453
129	0xbe364449	-0.17799486
130	0xbdb1b7e8	-0.086776555
131	0xbe07122b	-0.13190524
132	0xbc1d5c8c	-0.009604584
133	0xbc64009a	-0.013916159
134	0xbee64921	-0.44977668
135	0xbe9dbf87	-0.30810186
136	0x3e7e8aa5	0.24857576
137	0xbe33fa32	-0.1757591
138	0xbd008165	-0.0313734
139	0xbf0b98cf	-0.5453004
140	0xbe6c4efd	-0.23077007
141	0xbd71b952	-0.059014626
142	0xbe6c6243	-0.23084359
143	0x3de39263	0.111119054
144	0x3d8c87ce	0.0686184
145	0x3e10b8ff	0.1413307
146	0xbdd45181	-0.10367108
147	0x3d0049de	0.031320445
148	0x3d07dc9e	0.03316938
149	0x3c0eb405	0.008709912
150	0xbdc884ae	-0.09790932
151	0x3e19b7f4	0.15011579
152	0xbe429e14	-0.19005615
153	0xbe9e7a94	-0.30952895
154	0x3e4a6978	0.19766796
155	0xbdafa008	-0.085754454
156	0x3c5bd5b9	0.013417655
157	0x3d4c2ab5	0.049845416
158	0xbc67891b	-0.01413181
159	0x3d088592	0.033330508
160	0x3e5eda97	0.21763073
161	0x3e1022af	0.1407573
162	0xbd35e8bb	-0.044411402
163	0xbd3fdf6c	-0.04684393
164	0x3e8d9bb1	0.27657846
165	0xbe71664b	-0.23574178
166	0x3cc6c664	0.024264522
167	0x3ddc2cee	0.10750757
168	0xbdac8f00	-0.084257126
169	0xbe0bc4d0	-0.13649297
170	0xbe49f9ba	-0.1972417
171	0x3e3a6b38	0.18204963
172	0xbe1e7b2d	-0.15476675
173	0xbdd68381	-0.10474301
174	0x3ea3313b	0.31873497
175	0xbf240646	-0.6407207
176	0x3e1f61a9	0.15564598
177	0x3e434bfd	0.19071956
178	0x3d1df0da	0.038559772
179	0xbd0bc01d	-0.03411876
180	0xbe4ba766	-0.19888076
181	0x3e137140	0.1439867
182	0x3d2de7f9	0.042457554
183	0xbc264992	-0.0101493765
184	0xbe40f9ff	-0.18845366
185	0xbc996c6a	-0.018728454
186	0xbec15ebe	-0.37767595
187	0xbb704dfc	-0.0036667576
188	0x3e2b7c35	0.167466
189	0xbd8c1fe1	-0.06842018
190	0xbd6799a5	-0.05654301
191	0x3d10d799	0.03536186
192	0x3d3c57dc	0.045982227
193	0xbdf28b64	-0.11842993
194	0xbda3f293	-0.08005252
195	0x3e17d2dd	0.14826532
196	0x3d98b1c5	0.07455782
197	0x3d2aad2d	0.04166906
198	0x3c4dde49	0.012565204
199	0xbc8f6bc2	-0.017507438
200	0xbec08f0b	-0.37609133
201	0x3d64ede2	0.055890925
202	0xbda6d693	-0.081463955
203	0xbdd4d43d	-0.10392044
204	0xbef37c70	-0.47555876
205	0x3de2ebeb	0.11080154
206	0x3d0ccecd	0.034376908
207	0x3d2f5996	0.042810045
208	0x3e1504f5	0.14552672
209	0xbe1793ef	-0.14802526
210	0x3d67c6bc	0.056586012
211	0x3d321452	0.04347641
212	0x3da0730c	0.078344434
213	0xbe80e82e	-0.2517714
214	0x3bb44ca7	0.0055023017
215	0x3d9dc750	0.077040315
216	0x3e0f1db4	0.13976175
217	0x3db48cfe	0.088159546
218	0x3dcf7238	0.101292074
219	0x3d915972	0.070971385
220	0x3c7346ba	0.0148484055
221	0x3e10f045	0.14154156
222	0x3e066c97	0.13127361
223	0xbdc170ec	-0.09445366
224	0x3db17bc0	0.086661816
225	0x3db8a64f	0.09016096
226	0x3e093c7c	0.13401979
227	0x3e21ccf5	0.15800841
228	0xbe538854	-0.20657474
229	0xbd8a5b01	-0.06755639
230	0xbdd4d1f1	-0.10391606
231	0xbc7f466f	-0.0155807575
232	0x3e1dcc42	0.1540995
233	0xbec48a4d	-0.38386765
234	0xbc6fcf28	-0.014636792
235	0x3dcdf7a9	0.10057003
236	0xbce84374	-0.028352477
237	0x3e998c38	0.2998979
238	0xbe053b38	-0.13010871
239	0x3d10cad5	0.035349686
240	0x3d29b20a	0.041429557
241	0xbd25c290	-0.040468752
242	0x3e3139a3	0.17307143
243	0x3bb4cbee	0.0055174744
244	0x3e856614	0.26054442
245	0xbd764c41	-0.060131315
246	0xbccc9422	-0.024972979
247	0xbc7dc376	-0.015488496
248	0x3de018d2	0.10942234
249	0xbe262d28	-0.16228163
250	0xbe1f65cc	-0.15566176
251	0x3dfea8dc	0.12434551
252	0x3c1db2a6	0.009625113
253	0x3cac1746	0.021007191
254	0xbe9bdc8b	-0.30441698
255	0xbdaac05f	-0.08337473

6.bias f4 [157]
0	0x3df0b80c	0.11753854
1	0xbd8c2aac	-0.068440765
2	0x3e7d617d	0.2474422
3	0xbefec2e3	-0.49758062
4	0xbdfc82f4	-0.12329665
5	0xbeb7a497	-0.3586776
6	0xbd989460	-0.07450175
7	0xbd8c5f24	-0.06854084
8	0xbd8aa7b6	-0.067702696
9	0x3e1dccf4	0.15410215
10	0xbe8335c3	-0.25626954
11	0x3d4137a7	0.047172215
12	0xbd02ea33	-0.03196163
13	0xbf13deef	-0.57762045
14	0xbf1f6fc4	-0.62279916
15	0xbdf7d819	-0.12101764
16	0x3d36d91a	0.044640638
17	0x3e8e98c4	0.27850926
18	0x3afa02f8	0.0019074371
19	0x3e9fe36c	0.31228197
20	0x3dee0227	0.11621504
21	0x3d35a5af	0.04434746
22	0xbe755e85	-0.23961838
23	0x3f1121bb	0.56692094
24	0xbe8eb350	-0.2787118
25	0x3e397e52	0.18114594
26	0xbc6aa0d4	-0.014320571
27	0x3efe79fd	0.49702445
28	0xbee0dc26	-0.4391796
29	0x3e7381bd	0.2377996
30	0xbe4d1d2b	-0.20030658
31	0xbd88550c	-0.066568464
32	0xbecf9bee	-0.40548652
33	0x3d5e35be	0.05425047
34	0x3e625a33	0.22104721
35	0x3e0f8c6e	0.14018413
36	0x3dc1df65	0.09466437
37	0x3f0c474a	0.5479628
38	0x3e6542cb	0.22388761
39	0x3d70651c	0.058690175
40	0xbed7521e	-0.42054838
41	0xbd8a5496	-0.06754415
42	0x3eb95224	0.3619548
43	0x3e0251d7	0.12726532
44	0x3dc308fa	0.095231965
45	0x3ed10569	0.4082444
46	0x3ee89203	0.45423898
47	0x3f05f598	0.5232787
48	0x3e770835	0.24124224
49	0xbeb5f414	-0.3553778
50	0xbd863b22	-0.065542474
51	0x3e187878	0.14889705
52	0xbe6d36b3	-0.23165397
53	0xbe7bd433	-0.24592666
54	0x3dba4492	0.0909511
55	0x3e023ad5	0.12717755
56	0xbed62567	-0.4182541
57	0xbdc89eab	-0.097958885
58	0x3e6eb678	0.23311794
59	0xbec6cbff	-0.38827512
60	0xbe1c8223	-0.15284018
61	0x3e7ca382	0.24671748
62	0x3f0ab85b	0.54187554
63	0x3deef9d1	0.116687424
64	0xbdfd70ab	-0.12375005
65	0xbd6d920c	-0.05800061
66	0x3e7f2eed	0.24920245
67	0xbe803c47	-0.25045988
68	0xbeaa9236	-0.33314675
69	0xbe61fcca	-0.22069088
70	0x3db0161b	0.08597966
71	0x3d5ea64e	0.05435782
72	0x3e9cd077	0.30627796
73	0xbd9aac35	-0.07552377
74	0xbe86622c	-0.26246774
75	0xbc1b75f3	-0.0094885705
76	0x3b1db05b	0.0024061415
77	0xbe4ab769	-0.19796528
78	0xbeeb9598	-0.46012568
79	0x3e003d72	0.1252344
80	0xbdf51835	-0.11967508
81	0x3a581476	0.0008242795
82	0xbd9196e5	-0.07108859
83	0x3e495705	0.19662102
84	0x3e553e64	0.20824581
85	0x3eb7bc9d	0.35886088
86	0xbe38d10a	-0.18048492
87	0x3f1a59b1	0.6029311
88	0x3ec5d4be	0.38638872
89	0xbe95187f	-0.29120252
90	0xbf07f644	-0.53110147
91	0x3f01332e	0.5046872
92	0xbdd4cc3e	-0.103905186
93	0x3ee8dba8	0.45480084
94	0x3cbba622	0.022906367
95	0xbef89663	-0.48552236
96	0x3c14e26a	0.009087184
97	0xbe9e95d7	-0.30973694
98	0xbeabcb98	-0.33553767
99	0xbcb6abc5	-0.022298703
100	0x3e8dd3d6	0.2770068
101	0x3e76927a	0.24079314
102	0xbd0820cb	-0.0332344
103	0x3e8e3d00	0.27780914
104	0x3d892b0f	0.06697666
105	0x3d9be8cb	0.07612761
106	0x3e6b93b4	0.23005563
107	0x3d1619e2	0.036645778
108	0xbdf18af2	-0.1179408
109	0x3ce59379	0.028024422
110	0xbe5535e4	-0.20821339
111	0xbe6bc468	-0.23024142
112	0x3b473d8f	0.0030401682
113	0xbd01e268	-0.03171006
114	0x3e2795c3	0.16365723
115	0xbeb9a40c	-0.3625797
116	0xbd3eda2e	-0.04659479
117	0xbe44dd3c	-0.19225019
118	0x3d9d7489	0.07688243
119	0xbdddb69a	-0.10825844
120	0x3e4f01b3	0.20215492
121	0x3f1e135a	0.6174828
122	0xbd826662	-0.06367184
123	0xbe893d46	-0.2680456
124	0x3e7f594f	0.24936412
125	0xbe91dc11	-0.2848821
126	0xbe545fdf	-0.20739697
127	0x3ea378b9	0.31928042
128	0x3f013c1a	0.5048233
129	0xbe2bb349	-0.1676761
130	0x3d0f06ea	0.034918703
131	0x3d48447a	0.04889343
132	0xbe777019	-0.24163856
133	0xbd1a8f68	-0.03773442
134	0xbe752fc3	-0.23944001
135	0xbcf93c77	-0.03042434
136	0x3e205e4b	0.1566097
137	0xbe9a6672	-0.30156285
138	0x3c96fa31	0.018429847
139	0x3e3594fa	0.17732611
140	0x3f3cebc2	0.7379724
141	0xbde32bbc	-0.11092326
142	0xbee7ab0c	-0.45247686
143	0xbdc1c0f6	-0.094606325
144	0xbdfcb20e	-0.12338649
145	0x3d1c683d	0.038185347
146	0xbf2f1069	-0.68384415
147	0x3d603c15	0.0547448
148	0x3cf90631	0.03039846
149	0x3e2c00d7	0.16797195
150	0xbe22c6e9	-0.1589619
151	0xbf07986e	-0.52966964
152	0xbe9d564e	-0.30729908
153	0xbe37fc13	-0.17967252
154	0x3cfd1ffb	0.030899039
155	0x3d3fb993	0.046807837
156	0x3e30e567	0.1727501
