neura1/bestval_e19_weights.ckpt (torch, 399055 bytes, 8 tensors)

0.weight f4 [100, 630]
000000 e9 0f 0c 3d f9 28 e6 3c 1e 0b 4e 3d 93 c9 d1 be
       0.03419486 0.02809571 0.05030357 -0.409741
000010 27 bd 2b be bd 2d ca bd 02 c0 a0 be e7 d6 bf bd
       -0.16771375 -0.09872005 -0.3139649 -0.09367161
000020 6a bd a7 be 1a 97 eb be 0c 7f f9 be 75 d8 66 bd
       -0.327617 -0.4601372 -0.48729742 -0.056358773
000030 53 53 62 3d bc 91 dc 3e 5b bf b6 bc b2 4e bc bd
       0.055255245 0.43079937 -0.022308042 -0.091946974
000040 8d e7 19 3e ae 96 05 3f bf 56 1e be 51 7b 83 3d
       0.15029736 0.52183044 -0.15462779 0.06420005
000050 38 78 74 3e 8a b2 c3 3e 78 20 76 be ba 4a 39 bd
       0.23873985 0.38222152 -0.24035823 -0.04523728
000060 3e a6 8e 3e 35 8c 0e 3f 5b 4b 01 bd 82 c7 c1 bd
       0.27861208 0.5568269 -0.031566005 -0.09461881
000070 8f 0b 99 3d 65 3d f2 be 4d 3c 1c 3c cb 71 db bc
       0.07472908 -0.47312465 0.009535861 -0.02678766
000080 b0 d4 63 3d 71 be f0 bd 72 95 27 be 81 0c 6a 3b
       0.055622756 -0.11755074 -0.16365603 0.003571302
000090 08 bd 1a be 3c fe b1 bc a0 07 1b be d6 ee 83 be
       -0.15111172 -0.021727674 -0.15139627 -0.25768155
0000a0 30 c8 8a be 37 98 15 be 68 2c f0 bc 1f 41 3f 3e
       -0.27105856 -0.14608847 -0.02931805 0.18677185
0000b0 b0 b8 15 bc b1 c1 10 bd 1f 2c d4 3c 5d 33 a7 3e
       -0.009138271 -0.03534097 0.025899945 0.32656375
0000c0 bc 73 00 be fb 94 6a 3d 39 bd db 3d e9 45 87 3e
       -0.12544149 0.057270985 0.10729451 0.26420525
0000d0 08 1d 86 be e7 63 22 bd f3 dc 2e 3e 18 79 de 3e
       -0.26194024 -0.039646056 0.17076473 0.43451762
0000e0 c8 a1 fc bd 9a 48 1d be f1 43 a2 3d 22 83 df be
       -0.12335545 -0.15359727 0.07923115 -0.43654734
0000f0 ba c5 06 3b 1f d6 7e bc c6 46 6d 3c 42 bd fc bd
       0.0020564632 -0.01555398 0.014482206 -0.123407856
000100 53 d2 46 be 81 dd cc bc 71 1d 1e be 6c bc 2c 3d
       -0.1941617 -0.025007965 -0.15440919 0.04217188
000110 7b ac 31 be ee a9 7d be 27 e7 69 be c8 28 0e be
       -0.17350952 -0.24771854 -0.22842084 -0.13882744
000120 e1 60 74 3c 1a f1 90 3e db 79 68 3d 00 b2 64 3d
       0.014915676 0.28308946 0.056756835 0.055833817
000130 36 e1 81 3d 4f 05 b2 3e 6f 13 6b bd f3 13 31 3e
       0.06341784 0.34769675 -0.05739158 0.17292766
000140 bc 98 ab 3d b9 0a 8d 3e fd 39 58 be 13 19 df 3c
       0.08378741 0.27547243 -0.21115871 0.027233636
000150 96 a9 61 3e c2 88 d1 3e 0e a0 0a be bc 77 21 be
       0.22037348 0.4092465 -0.13537619 -0.15768331
000160 87 17 69 3d a6 ff d1 be ca ba ea bc 06 05 b8 bd
       0.056907203 -0.41015357 -0.028653521 -0.08985333
000170 e6 59 10 3c ba 13 c5 bd 9e 1d 22 be 3d 5f 2c bd
       0.008810496 -0.09622903 -0.1583161 -0.042083014
000180 a0 97 24 be 1c 5d 6c 3c c1 3d 1e be 9f 8e 7f be
       -0.16073465 0.014426496 -0.15453245 -0.2495675
000190 a3 af 61 be 0f db de bd ca c7 68 ba dc 4c 99 3e
       -0.22039656 -0.10881626 -0.00088798685 0.29941452
0001a0 52 3f 68 3d 3a 46 ec 3d 18 76 b3 3d 53 01 b3 3e
       0.056701012 0.11536832 0.08762759 0.34961948
0001b0 b6 f0 87 bd b5 e3 08 3e 50 f2 0a 3e d1 00 7c 3e
       -0.06637709 0.13368113 0.13568997 0.24609686
0001c0 27 df 89 be 1f e2 76 3d 0d ce 20 3e a7 9a ac 3e
       -0.26928064 0.06027424 0.15703602 0.3371174
0001d0 cf c1 13 be b4 50 c9 bd 04 bc 50 3d 36 96 f6 be
       -0.14429401 -0.09829846 0.050960556 -0.48161477
0001e0 82 53 d5 bc 25 d9 ab bd 7b 03 8d 3c 3e f3 9e bd
       -0.026040796 -0.083910264 0.017213574 -0.077612385
0001f0 25 1f 0f be 1b 1f 99 bd de 6c 33 be 38 5a 3f 3c
       -0.13976724 -0.07476636 -0.17521998 0.011679225
000200 1c e1 28 be dd a2 85 be 2d d8 77 be a7 fb aa bd
       -0.16492122 -0.26100817 -0.24203558 -0.0834878
000210 47 33 36 3d 67 cf a5 3e a0 ce 3f 3d 46 90 df 3d
       0.044482496 0.32384798 0.046827912 0.1091619
000220 45 b2 ff 3d 8f e7 c5 3e ac 77 13 bd aa b8 35 3e
       0.12485174 0.38653228 -0.0360028 0.17746225
000230 e3 5b 40 3e 1d b4 a0 3e 5f cc 52 be b1 93 07 3e
       0.18785052 0.31387416 -0.20585774 0.13239934
000240 08 38 0a 3e 8a 16 c6 3e 68 7f 3c be d5 a9 88 bd
       0.13497937 0.3868907 -0.18407977 -0.06673018
000250 5c f9 d1 3d 43 f2 f9 be f4 63 c8 3c 8d fa 99 bd
       0.1025264 -0.48817644 0.024461724 -0.07518492
000260 d0 6c 65 3c 9f 30 dd bd c7 99 a7 bd 48 50 58 bd
       0.014002994 -0.10800289 -0.081836276 -0.052810937
000270 30 77 3e be 5d 62 ee bc bc a8 1a be 9d 8d 98 be
       -0.18600154 -0.029099638 -0.1510343 -0.29795542
000280 a9 7a 45 be ff 1c 84 bd 01 fc 98 3d 34 87 97 3e
       -0.19285072 -0.06450843 0.07469941 0.2959534
000290 73 86 80 3d 53 48 03 3e df 95 13 3e a8 d6 cd 3e
       0.06275644 0.12820558 0.1441264 0.40202832
0002a0 d9 06 c6 bd b3 d3 58 3e f5 eb 41 3e 9a c0 8a 3e
       -0.09669275 0.21174507 0.18937667 0.27100068
0002b0 e7 f5 34 be 08 23 20 3a 49 d3 63 3e ea 76 cb 3e
       -0.1767193 0.00061087357 0.22248568 0.39739162
0002c0 89 49 48 be ab 6a ea bd 05 5c 0b 3e 9b 48 de be
       -0.19559301 -0.114461266 0.13609321 -0.4341477
0002d0 85 b2 05 3d aa f4 87 bd cc aa 0e 3d dc 9b b9 bd
       0.032640953 -0.06638463 0.034830853 -0.09062931
0002e0 b0 51 78 bc ff 21 0a 3c ce 47 20 be b2 7b 04 bc
       -0.015156195 0.008430957 -0.15652391 -0.008086132
0002f0 49 ea 4d be 10 83 a8 be f1 6d 51 be 08 ae 6d bd
       -0.20108904 -0.32912493 -0.20452096 -0.058027297
000300 b6 87 55 3d e9 34 b0 3e 46 08 7f 3d 9b e4 1a 3e
       0.052131377 0.34415367 0.06226375 0.15126269
000310 41 08 24 3e f6 47 bb 3e 61 15 d0 bd a9 21 6f 3e
       0.16018774 0.3657834 -0.10160328 0.23352684
000320 46 26 51 3e 93 06 9c 3e ba a8 4f be 66 84 e8 3c
       0.20424756 0.30473766 -0.20279208 0.028383445
000330 f5 2a 73 3e 1e 1c b9 3e 9b 65 1d be e9 22 72 bd
       0.23746856 0.36154264 -0.1537079 -0.059115324
000340 60 ce dc 3d fe b3 d9 be 50 3f 91 bb a7 6d ea bc
       0.107815504 -0.42520136 -0.0044325963 -0.02861674
000350 34 ae 3b bb d2 86 95 bd dd d5 98 bd e5 04 02 bd
       -0.0028637769 -0.073011056 -0.07462666 -0.03174295
000360 23 fb 40 be 55 14 56 bd 9f b0 41 be dd 5c a8 be
       -0.18845801 -0.052265484 -0.18915032 -0.3288335
000370 ab 07 4d be e9 ae 63 bd c6 c0 5f 3d 78 78 b5 3e
       -0.20022456 -0.05558673 0.054627202 0.35443473
000380 f4 b5 71 3d 7a 1d 56 3e ac 41 33 3e 68 0d ec 3e
       0.059011415 0.20909682 0.1750552 0.46103978
000390 ba f1 00 be 3b ba 81 3e 87 c8 1d 3e 50 04 84 3e
       -0.12592211 0.25337395 0.15408526 0.2578454
0003a0 8f 1a 1f be 1a 4b 04 3e 1a 66 77 3e 70 a3 c3 3e
       -0.15537475 0.12919274 0.24160042 0.3821063
0003b0 27 5f 17 be 82 8d d7 bd 26 4a 94 3d 56 4e ad be
       -0.14782391 -0.10525037 0.07240705 -0.33848828
0003c0 d3 10 87 3c 5a 3c 59 bd 2a 11 37 3c 1a d8 ee bd
       0.016487515 -0.05303607 0.011173526 -0.11662312
0003d0 06 d2 f5 bc 1a 34 a8 bc f6 86 0c be a5 48 1c bd
       -0.030007374 -0.020532656 -0.13723359 -0.038155217
0003e0 80 74 6f be 44 01 a4 be 30 c2 4d be 90 f2 1e bb
       -0.23384285 -0.32032216 -0.20093608 -0.0024253465
0003f0 28 4c 8c 3d 1c 83 9c 3e e4 ac 0e 3e 1b 26 2e 3e
       0.06850463 0.3056878 0.1393314 0.17006724

0.bias f4 [100]
000000 19 85 46 3e 40 0c b4 3c 1a 7f d3 3b fa 7e 01 3d
       0.1938671 0.021978498 0.0064543607 0.031615235
000010 11 d6 c9 3e 34 f2 20 3e ef ba 85 3c fb e8 ab 3c
       0.39421132 0.15717393 0.016324488 0.020985117
000020 40 9d 0f bf 40 95 6d bf 08 5a 82 be 5d 0e 90 be
       -0.5609932 -0.9280586 -0.25459313 -0.28135958
000030 bb d8 83 3d d9 b1 1a bd 35 12 6a be 4c 46 dc 3e
       0.064378224 -0.037767265 -0.22858508 0.43022382
000040 be 0a 81 3b f8 1b 39 bc 65 ac 30 3f 38 d5 4c 3e
       0.003938048 -0.011298172 0.69013053 0.20003211
000050 59 a4 5e 3f 4b 0f 63 bd 34 39 73 be 97 b0 27 3f
       0.86969525 -0.055434506 -0.2375229 0.6550383
000060 8f 95 29 3e 3f 1a 31 3c cc a0 d4 3e cf ba 84 3e
       0.16560958 0.01080948 0.41528928 0.25923774
000070 0a 0d 26 be 82 70 3a be 07 2d c7 3e 21 c4 56 bd
       -0.16215912 -0.18206981 0.3890154 -0.052433137
000080 85 85 52 bc 31 f0 f1 bb c0 2a 80 3e 5a bc f2 be
       -0.012849216 -0.0073833694 0.25032616 -0.47409326
000090 97 01 d3 bc 8e b1 50 bf e6 a5 cc bc 2a 0e 0c bd
       -0.025757594 -0.81520927 -0.02498145 -0.034193195
0000a0 a1 4d 40 bc 4f 2a 82 be be 12 cd bc e7 f1 7c bc
       -0.011737258 -0.25422904 -0.025033351 -0.015438533
0000b0 34 5e b1 3c 34 2b 28 be b2 77 e6 3a 2a 24 1e bf
       0.021651365 -0.1642273 0.0017583279 -0.6177393
0000c0 11 1e ba be ad a9 8b be 90 25 98 be 2e f1 18 3f
       -0.36351064 -0.2727789 -0.29716158 0.5974301
0000d0 49 3a c9 bc 88 6e c1 3e 39 ba 8d be d3 48 72 be
       -0.024563925 0.3777964 -0.2768114 -0.23660593
0000e0 88 37 22 bd d4 96 c3 3e 51 95 ab bc 1d 3f 6d bc
       -0.03960374 0.3820101 -0.020945223 -0.014480379
0000f0 81 51 98 bb 7b 65 a9 be eb 4a 13 bf dc a9 79 bd
       -0.004648388 -0.33085236 -0.5753619 -0.060953006
000100 ab 7f 41 3a e6 9a 05 be 7e d9 43 be fb 0b 86 bc
       0.000738139 -0.1304737 -0.19125935 -0.016363135
000110 03 f0 33 bf 62 f6 f0 3e 1d bb 8b bf c7 c1 1a 3e
       -0.70288104 0.47062975 -1.0916477 0.15112983
000120 d5 85 00 bf 6b af 8d bd 68 8e bb ba 64 c2 04 be
       -0.5020421 -0.06918224 -0.0014309408 -0.12964779
000130 d7 6e b1 bc f3 a1 6e bf dc 8f ed bc 43 ce 71 be
       -0.021659298 -0.93215865 -0.028999262 -0.23613839
000140 4b aa cb 3c 2c 5a 40 3e df 83 96 3e 8f 08 86 3e
       0.024861475 0.18784398 0.29397485 0.26178405
000150 b2 c6 fa bc 95 98 e8 3e 72 7e 2a 3e f0 73 a0 be
       -0.030612323 0.4542891 0.16649798 -0.31338453
000160 a2 da fc 3b 06 12 22 3c ec e2 b4 3d b2 da e7 bc
       0.0077164927 0.009891992 0.088323444 -0.028302524
000170 03 f3 05 bf 30 92 30 3c 4f 61 26 be 6d 20 25 bf
       -0.5232393 0.010777041 -0.16248058 -0.645026
000180 8b d4 c2 bd 7b 8e e7 3e d9 5d a9 be 3e 7a 3a 3e
       -0.095131956 0.4522589 -0.33079413 0.18210694

2.weight f4 [100, 100]
000000 bc 06 4e be ca 3f b8 bd 0d ac 96 bc c7 29 52 bd
       -0.20119756 -0.08996542 -0.018392587 -0.051309373
000010 ce 8f bf bc cc 23 83 3e ae 4c 93 3d 43 b3 00 bd
       -0.023384001 0.25613248 0.0719236 -0.031420957
000020 96 19 8f 3e c5 3c bb bd b6 e0 48 39 28 b6 4a 3e
       0.27949208 -0.0914245 0.00019157198 0.1979605
000030 49 22 1d be 04 9b c8 3d 5a 71 3a bc 71 a4 f1 3c
       -0.1534511 0.09795192 -0.011379564 0.029497357
000040 aa 8a dd 3c b3 c1 f3 bb d0 75 d7 3d bd 26 cc 3d
       0.02704366 -0.007438862 0.10520518 0.09968326
000050 f6 04 05 be 5a 8c d1 3d c7 35 06 3d e9 ef 76 be
       -0.12990174 0.10231848 0.03276613 -0.24114956
000060 bd 2e 82 bd fd dc a5 3d 11 2c 2c be 80 50 62 bd
       -0.06356571 0.08098791 -0.16813685 -0.055252552
000070 fa 60 1c 3e da 3e 16 3f 96 5b 85 bd 97 aa 65 bd
       0.15271369 0.58689654 -0.06511609 -0.05607089
000080 fa 52 4d 3d 47 3f a4 bd 02 0a 14 3d 24 bc b3 bd
       0.05012796 -0.08019882 0.036142357 -0.08776119
000090 1e 79 4a be ca e1 68 3d 67 56 86 bd cd a7 0f bd
       -0.19772765 0.056855954 -0.06559449 -0.035072137
0000a0 80 30 6e 3d ab 01 e9 bd cd 3a c4 3c 57 6f c5 bd
       0.058151722 -0.11377271 0.02395382 -0.09640377
0000b0 d3 73 28 bd 19 f4 3c 3d 2d 1f bd 3c ca 63 a3 3d
       -0.041126084 0.046131227 0.023086155 0.07978018
0000c0 07 b6 6a 3e df 61 63 3d 98 93 a9 3d 1f 8a b4 3d
       0.22921 0.05551326 0.082801044 0.08815407
0000d0 cd 5d 87 bd b9 ef 3f be f2 3f f5 bc b0 5b 69 bd
       -0.06609688 -0.1874379 -0.029937718 -0.056972206
0000e0 fc 75 13 3d 16 2b 4b be 1d bc b3 bd fb ae 8a bd
       0.03600119 -0.19840655 -0.08776114 -0.06771656
0000f0 7a a9 9f 3d b7 fc 2a 3e e9 5f b3 3d 96 5b 18 be
       0.07795997 0.16697966 0.08758528 -0.14878687
000100 1e 97 8a 3e ce fe ff bd 8c b2 66 be 3a ea 72 3d
       0.27068418 -0.12499772 -0.22529048 0.059305407
000110 43 c3 80 3e c1 c5 08 3e 43 b7 07 3e d9 86 92 3e
       0.25148973 0.13356687 0.13253503 0.28618506
000120 39 e1 09 be 02 3c 35 be fa 3e b9 3d 95 e3 a6 bc
       -0.13464822 -0.17698672 0.09045215 -0.020372191
000130 67 72 90 3b 9d 70 33 bd 80 85 ec 3c 1c 78 c3 ba
       0.004408169 -0.04380857 0.028872252 -0.0014913115
000140 57 69 59 3d 4e 54 a9 3e e6 d5 e1 3d 4d 5f 2f 3e
       0.053078976 0.33072132 0.11027126 0.17126198
000150 ed 3f d3 3d c4 c1 1b 3e c2 7d 81 be fb de b5 3d
       0.10314927 0.15210634 -0.25291258 0.08880421
000160 1a 35 61 bc ad ae 73 bd b6 f5 06 bd 9d a2 3d bd
       -0.013745571 -0.059492756 -0.032949172 -0.04629766
000170 87 25 90 3e c7 2b 95 3d 47 01 57 3f 0d 57 00 3e
       0.2815363 0.072837405 0.83986324 0.12533207
000180 e3 bf 02 3d a0 7e fe be d4 1b 30 3e 8b 98 8f be
       0.03192128 -0.49705982 0.17198116 -0.2804607
000190 25 9c 4a 3d 08 f6 a0 bc 63 90 b4 bd 7e e2 b9 3d
       0.049465317 -0.019648567 -0.08816602 0.09076403
0001a0 d8 44 18 3e 5e be e6 bd 7e d4 ea 3e 32 70 cf bd
       0.14870012 -0.112667784 0.45865244 -0.101288214
0001b0 c3 5b 34 3e 04 da 3c be 51 f7 9b 3d e6 fe a3 3b
       0.1761313 -0.18442541 0.07615531 0.0050047515
0001c0 61 86 07 3c bf 54 e6 3c c7 73 cc 3d 4e cd 36 be
       0.0082717845 0.028116582 0.0998302 -0.17851755
0001d0 8e 37 95 3d 0d 47 fe bc 99 b1 eb 3d 10 cc 7a 3e
       0.07285987 -0.031039739 0.115084834 0.24491906
0001e0 d6 41 b0 be cf ee e7 3d 8f 1c b0 be bb 35 45 3e
       -0.3442523 0.11324846 -0.34396788 0.19258778
0001f0 d7 f6 a3 3d 94 e8 fe bc 3a be 39 3c 62 6c c3 3e
       0.08006065 -0.031116761 0.011336857 0.38168627
000200 2c 73 1e 3e 08 07 a5 be d0 cd ae bc 1d 27 ce 3d
       0.15473622 -0.32231927 -0.021338373 0.10066054
000210 6e 09 14 3d 9f 86 8b 3d 20 25 42 be d4 70 3d bd
       0.036141805 0.06812786 -0.18959475 -0.04625018
000220 0f 07 4b bd 00 97 ab bd 93 da fd 3c 7f f7 a3 3c
       -0.04956728 -0.0837841 0.030988013 0.020015476
000230 98 dd 66 3d fc f1 ed bc d2 23 22 bb 80 09 d4 3c
       0.056363672 -0.029046051 -0.002474059 0.025883436
000240 27 57 c9 3c 3c d3 30 be e5 82 f3 bc 13 58 16 3e
       0.02457769 -0.1726808 -0.029725501 0.14682035
000250 bf ee 45 3e d3 bb 48 be 51 5e 28 be 1d a0 22 bd
       0.19329356 -0.19602899 -0.16442229 -0.039703477
000260 55 65 1a bd 12 f5 eb 3d 3e 2c 41 3e 7e ff ee bd
       -0.037694294 0.11521353 0.18864533 -0.11669825
000270 5f 1b 53 3d f2 95 af bc e4 6d 84 3c 63 7d b2 3b
       0.051539775 -0.021433804 0.016165681 0.005447076
000280 b1 6d d5 3d 61 2e 00 3d 17 0f f3 3d 31 d8 21 3e
       0.104213126 0.03129423 0.118681125 0.15805127
000290 5a 1a 08 be 94 eb c8 bc 2e fc fe bd 6f 8f 95 3c
       -0.13291302 -0.024526395 -0.12450443 0.018256871
0002a0 ce dc 43 be d8 e2 92 bd a8 e5 31 3d df c5 81 3d
       -0.19127199 -0.07172173 0.043431908 0.06336569
0002b0 9d ad 26 3e 49 80 91 bd 1a f7 42 bd 5f 5d e8 bb
       0.16277166 -0.071045466 -0.047598936 -0.007091209
0002c0 8b 7f b9 bd 6e f9 0e 3e 7f 9f 21 bd d0 3f 76 be
       -0.0905753 0.13962337 -0.039458748 -0.2404778
0002d0 24 87 7a 3d aa e6 43 bd 11 16 20 bd 12 b6 3a be
       0.061164036 -0.0478274 -0.039083544 -0.18233517
0002e0 e2 fe a1 bd 6a dc 7d bb 33 85 27 3e af 0a f1 3c
       -0.07909943 -0.0038736113 0.16359405 0.02942404
0002f0 9e e6 0b 3c d0 cd 8d bd 80 d4 9a 3e 14 a7 7c 3d
       0.00853887 -0.06924021 0.3024025 0.061682776
000300 ee e0 cd 3c 8e b5 31 3d 55 8d ae be 5a 01 8c bc
       0.025131669 0.043386035 -0.34092203 -0.017090488
000310 fc b7 9e 3d 1a 9f 54 3e ed ea eb bc 44 31 95 3e
       0.07749936 0.20763817 -0.028798545 0.2913915
000320 dc 19 d2 bb fa 3b 9c bd ea 9a 7f 3d aa 02 b4 3d
       -0.006411774 -0.07628627 0.062403597 0.08789571
000330 7d a7 7e bd b7 26 56 bd 26 51 69 3d 90 e1 c3 bd
       -0.062171448 -0.052283015 0.056962155 -0.09564507
000340 b4 ef da 3c 24 d5 f9 bb c8 49 81 bb 29 ec fa bd
       0.026725627 -0.0076242853 -0.003945563 -0.12252075
000350 fc 57 85 bd 46 be 98 bd 84 2b 8f bd ea 8b 98 bd
       -0.06510922 -0.07458167 -0.06990722 -0.074485615
000360 9a d7 c7 bb 2b 0d 9b bd c0 39 c1 bd 1c 37 a8 3d
       -0.0060986998 -0.07570871 -0.09434843 0.08213636
000370 f8 dd 15 bd ea 9e a5 bd d8 ae c4 3d ef 6e 02 3d
       -0.03658864 -0.08086951 0.09603661 0.031844076
000380 ff 27 1c 3d 5a 5c 2b 3c c1 e9 f0 bc 1c 19 15 3d
       0.03812408 0.01045903 -0.029408338 0.0364009
000390 ec b8 2f 3d 0b fc be bd 83 1e b9 3c e5 e2 e1 3c
       0.042900965 -0.09325417 0.022597557 0.027574012
0003a0 c0 5e b5 3d 1a 85 9f bd 4d 06 d1 bd c1 a1 85 bb
       0.08855963 -0.07789059 -0.1020628 -0.0040781205
0003b0 49 b6 8c bd 2b c4 64 bd 40 ee d8 bc a3 a3 2a bd
       -0.06870706 -0.055851143 -0.026480794 -0.041659962
0003c0 5d 02 5d bd 7f 8c 05 bd a2 91 8c bd 2d d9 75 bd
       -0.053957332 -0.03260469 -0.06863715 -0.060021568
0003d0 25 b2 96 3d d0 8e da bc 45 cc a1 3d 8c 04 fe bd
       0.07358197 -0.026679426 0.079002894 -0.12403211
0003e0 e1 7a 1b bd d6 a7 1f 3b 1b 37 81 3b 1a 66 ce bc
       -0.037958983 0.0024361513 0.0039433367 -0.02519517
0003f0 5d 27 32 3d 54 f5 79 3d d4 a1 7d bd 7a 40 6c bc
       0.04349457 0.06102498 -0.06192191 -0.014419669

2.bias f4 [100]
000000 7b 05 fa bc ac 0d a2 3e 13 5e ca bd 74 57 6e 3f
       -0.030520191 0.31651056 -0.098812245 0.9310219
000010 3e 3e 14 be 26 fe 7b 3c 9a 4c a0 3d af c2 87 3e
       -0.14476869 0.015380418 0.078271106 0.2651572
000020 e6 d3 39 3e 18 4b a8 be c7 47 b7 3e e8 36 77 3e
       0.18147239 -0.32869792 0.3579695 0.24142039
000030 97 b4 9d bd 28 2a 24 3e 91 bb 29 bf 37 eb 25 be
       -0.077004604 0.16031706 -0.6630183 -0.16203009
000040 ba bf af 3e f7 00 bd 3e 05 83 db b9 d6 51 04 3e
       0.34325963 0.369148 -0.00041868552 0.12921843
000050 72 3e 16 3e 03 3c f9 bd 50 91 a8 bd 7a 70 23 3e
       0.14672258 -0.121696495 -0.08230841 0.15960875
000060 b4 70 f6 bd 79 f8 99 bd 5b f2 05 3d 0a c6 09 bf
       -0.12033215 -0.075180955 0.03270183 -0.5381781
000070 ba c1 4e bd ce 88 4c bf 21 68 57 3e ac 1f 09 be
       -0.05047772 -0.7989625 0.21035816 -0.13390988
000080 7e f6 7a be 56 de 65 bf 62 c7 2a 3f 3e cc de 3e
       -0.24508092 -0.8979238 0.66710484 0.435152
000090 6b 3c 64 bc 9e 4a e1 bd 91 16 8f bd 87 62 5b 3d
       -0.01393042 -0.1100056 -0.06986726 0.05356076
0000a0 ff d8 aa bd 2c 4a 41 bd a8 95 a6 bd 96 8b 8a 3e
       -0.0834217 -0.047189876 -0.081340134 0.2705962
0000b0 2c bb 99 be cd 53 02 3f 47 b2 f9 bd a6 70 cc bc
       -0.30025613 0.5090912 -0.12192207 -0.024956059
0000c0 4f a2 17 bf 0e b0 37 3d 82 46 1d bf 85 ac 99 be
       -0.5923204 0.044845633 -0.6143571 -0.30014434
0000d0 2c 8f 70 3f 9c f5 55 3e d8 23 8c bd 1c 76 e4 3e
       0.9396846 0.20894474 -0.06842774 0.4462136
0000e0 04 07 41 bd 27 21 71 3f 0c 89 a2 3f 01 66 0d bd
       -0.04712583 0.9419121 1.2698073 -0.034521107
0000f0 1d 26 73 3f b2 4f d1 3e a5 49 50 3f 8b ad 0f 3d
       0.9498003 0.40881115 0.8136237 0.035077613
000100 e9 f8 aa be bf 19 73 bc 55 f4 3d bc 49 bf 0a bf
       -0.33393028 -0.014837681 -0.011593898 -0.5419813
000110 f3 22 28 bf 9d 5a 94 be 46 17 9b bd fe 5b bb be
       -0.6567833 -0.28975382 -0.075727984 -0.36593622
000120 69 11 3b bf 8f 5a 08 bf 90 cc 2c bd 00 20 1a bd
       -0.7307344 -0.5326318 -0.042187274 -0.037628174
000130 a3 53 f4 3c e3 6b 60 3e 97 02 5d be 90 d8 0c 3f
       0.029825037 0.21916156 -0.21583019 0.5501795
000140 45 02 e6 be d0 64 32 be 75 c7 24 bf 25 79 c4 be
       -0.44923607 -0.1742127 -0.6436685 -0.38373676
000150 e4 3b 1b 3e f1 7b e2 3e b9 83 1d bf 28 48 3d 3e
       0.15159565 0.44235185 -0.6152912 0.18484557
000160 22 e0 00 3e 00 e0 43 bf ab af 65 bd 0b 5f 1c 3f
       0.125855 -0.7651367 -0.056075733 0.61082524
000170 d7 db 1e bf 68 1f 9b bd c0 3e ed be 85 1d dc bd
       -0.620542 -0.0757435 -0.46336937 -0.10747818
000180 98 16 91 3c ad 00 85 be cf 04 9c be 17 28 5c bd
       0.017710969 -0.25977078 -0.3047242 -0.05374917

4.weight f4 [100, 100]
000000 c7 e5 40 be 11 b9 d7 3d 28 10 c3 bd e0 35 88 be
       -0.18837653 0.105333455 -0.09524566 -0.26603603
000010 0a 25 04 bd 9e cb cf bc 39 37 05 3e 47 58 1c 3d
       -0.032261886 -0.025365647 0.13009347 0.038170125
000020 b4 29 41 bd 8e 87 32 bd 29 ee 2d be a4 66 be 3d
       -0.04715891 -0.043586306 -0.16985382 0.09296921
000030 5c 53 13 3e 8c c6 41 3e 53 be 9b bd 7d 0e f3 3d
       0.14387268 0.18923396 -0.07604661 0.11867998
000040 c8 46 f9 bd 27 b6 8c be c9 9f 0f be 1d 54 0b 3e
       -0.121717036 -0.2748272 -0.14025797 0.13606305
000050 01 76 2c 3e e0 cf d9 be 3c 08 2a be ed fb 26 3e
       0.1684189 -0.4254141 -0.16604704 0.1630704
000060 ae 3f 89 bc b5 c1 cc 3c 53 b3 c9 3d 7f b4 2c be
       -0.016753998 0.02499471 0.098486565 -0.16865729
000070 fd dc 31 3d c0 5f 7a 3c ae e2 8a 3e 6f 6e 04 3d
       0.04342364 0.015281618 0.27126068 0.03233188
000080 9f a7 e0 3c 4e 51 93 3d be cb 43 3e e6 a8 77 3d
       0.027423678 0.07193242 0.1912069 0.06046381
000090 e2 57 5e 3d 53 e8 74 3c 7e 30 a5 3d 1a 0d 2e 3e
       0.05428303 0.014947969 0.0806589 0.16997185
0000a0 bf 69 4d 3d f1 88 79 bd da fa 70 3c 39 9e 60 3e
       0.050149675 -0.060921613 0.014708245 0.21935357
0000b0 21 16 b2 be c9 45 b0 bd 56 36 3a 3e 42 7a e9 3c
       -0.34782508 -0.086070605 0.1818479 0.02850068
0000c0 e9 87 1e be fe a5 47 3c 04 34 b6 3d a3 4b bc bd
       -0.15481533 0.012185572 0.0889664 -0.09194114
0000d0 cf d8 57 3e 78 ac db bd 00 de ff 3b da 39 23 3e
       0.210788 -0.10726255 0.007808447 0.15940037
0000e0 bb 7c ca be d4 ee f0 3d 14 9f 15 3e 28 3b 10 3e
       -0.39548287 0.11764303 0.14611465 0.14085066
0000f0 56 0b d5 3e 17 53 3a bd 84 c2 d4 3a 18 92 93 3e
       0.4161021 -0.045489397 0.0016232287 0.28822398
000100 12 27 fa bd d9 8f 43 3e ae 81 64 bc 84 ea 05 be
       -0.12214483 0.19097842 -0.013946934 -0.13077742
000110 23 12 14 be 76 fa 1e be b9 c7 ca 3c 93 73 4f 3d
       -0.14460044 -0.15525231 0.024753438 0.05064733
000120 c3 0f 22 3e 0e ca 45 be 90 47 b8 bd 60 c8 a0 3c
       0.15826325 -0.19315359 -0.089980245 0.019626796
000130 b5 26 90 be e3 6d 0e bd ff b3 e8 3d e6 36 30 bb
       -0.2815453 -0.034772765 0.113624565 -0.002688819
000140 47 d7 b2 3d 51 11 c5 bd 79 ee 30 3e cc fc 8b bd
       0.08732467 -0.096224435 0.1727847 -0.068353266
000150 df 8f 43 bd e6 6b f0 3d 39 76 c4 bd 30 bf c0 3d
       -0.047744628 0.1173933 -0.09592862 0.09411466
000160 41 4d 9d 3e 03 52 b5 bd e1 48 1d be 44 69 a4 3e
       0.30723003 -0.08853533 -0.15359832 0.3211156
000170 4a d1 a9 3d 4f 18 95 bd 50 51 73 be 43 19 6f 3d
       0.08291872 -0.07280027 -0.23761487 0.0583737
000180 54 00 6c bc fa 0d 2d be 88 f6 cb be b6 ba ca 3d
       -0.014404375 -0.16899863 -0.39836526 0.098988935
000190 2f a6 9e be d4 ba 43 3e 8e 27 1e bd 6c 41 9f bc
       -0.30986163 0.19114238 -0.03861194 -0.019440375
0001a0 48 92 01 be 97 01 2d bb 22 fe e6 be 66 90 40 bd
       -0.12653458 -0.0026398653 -0.45115763 -0.04701271
0001b0 3a ef f3 bd 6d 95 32 3e d1 15 89 be cf 20 0f 3e
       -0.11910863 0.17439814 -0.26774457 0.13977359
0001c0 51 93 5b 3e 35 ed 96 3b 7a f1 e3 bd 24 f5 58 3d
       0.21442915 0.004605914 -0.111300424 0.05296816
0001d0 6d 3d b0 3d bb 94 42 3e 67 81 33 3e f9 96 36 be
       0.08605466 0.19002049 0.17529832 -0.17831029
0001e0 3b df b4 bd c7 d0 96 bd 98 1a 8a 3c 89 78 8a 3e
       -0.0883164 -0.0736404 0.016858384 0.27045086
0001f0 7c fc d8 be 67 e0 91 bc 7f 7f 67 3d b0 a3 4c bd
       -0.4238013 -0.017807199 0.056518074 -0.049960792
000200 a9 6c 4f bc a1 3f 7f 3e 5e 1c ae 3e 46 7e a9 bd
       -0.012660184 0.24926616 0.34006017 -0.08276038
000210 0a 97 43 3e 27 5a 95 3d 9f 64 c3 bd 44 ac 66 be
       0.19100586 0.07292586 -0.09540676 -0.22526652
000220 50 86 09 be 2d 23 37 bb db f2 bb 3d 24 19 84 bc
       -0.13430142 -0.002794455 0.091771804 -0.01612527
000230 4f 48 1b bc 3e 80 b3 3d e9 c3 cb bd 35 f5 81 bd
       -0.009477689 0.08764695 -0.09949476 -0.06345598
000240 76 f7 ae bd fc 0f 1a 3e 13 29 a3 be 2d 7d 42 bd
       -0.08543293 0.1504516 -0.31867275 -0.04748266
000250 09 7d 1d 3e 00 1b 2a b9 b3 91 75 3d 54 b1 55 3c
       0.15379728 -0.00016222522 0.059953403 0.013042767
000260 99 bb d0 3c c3 c0 4e 3e 0a b3 36 bd 71 d3 28 be
       0.025480079 0.2019072 -0.04460434 -0.16486908
000270 7e 08 f4 be 1a 0a 07 3e 93 a8 c9 3c 33 0d 4c 3e
       -0.4766273 0.13187447 0.024616515 0.1992691
000280 b1 02 26 3e cd ac 15 3e 8e 87 30 bd 37 7b 63 3e
       0.16211964 0.146167 -0.043098025 0.22214971
000290 13 68 c7 bd cf af fc 3d 6b 6b f8 bc 45 24 09 bd
       -0.097366475 0.1233822 -0.030324658 -0.033481855
0002a0 6d bc 44 3c 5f 4a 0b bd 12 5e 1b bd 85 e1 c2 bd
       0.012007815 -0.034006473 -0.03793151 -0.09515671
0002b0 55 82 05 3e 3b 36 b2 bd 4d 4b bc bb 36 c7 19 bc
       0.13037999 -0.0870175 -0.0057462812 -0.0093858745
0002c0 25 92 31 3e 88 8f 52 bd 11 74 d4 3d 3b 6c 47 bd
       0.17340906 -0.051406413 0.103737004 -0.0486872
0002d0 42 5d e7 bc d3 fa 88 3e 92 fc 00 3d 35 e1 6b bb
       -0.028242711 0.26753864 0.03149087 -0.0035992388
0002e0 aa f0 c5 be bb ce 1f 3e 11 7a 08 3e f3 6a 13 be
       -0.38660175 0.15606205 0.13327815 -0.14396267
0002f0 60 c2 9e be 23 9d 46 3e fe 2c 0e be f8 cc b3 3e
       -0.3100767 0.1939588 -0.1388435 0.35117316
000300 87 40 35 3e 71 09 bc 3c 5e 19 01 3c 37 77 d9 bd
       0.17700396 0.02295372 0.007879583 -0.106184416
000310 60 fc 8a 3e 33 14 97 bd e9 fb 93 bc d7 24 31 3e
       0.27145672 -0.073768996 -0.018064456 0.1729921
000320 70 04 14 3d d8 b3 c5 bb 33 53 90 b8 1b 6c d0 bd
       0.036137044 -0.006033402 -6.881952e-05 -0.101768695
000330 a8 0e 03 bd ab 54 b7 bd 37 6d 8a bd 23 61 68 bd
       -0.0319964 -0.08951696 -0.06759112 -0.05673326
000340 43 e1 b8 bd 92 61 ca bd bd f8 03 3d ad c3 b7 bd
       -0.0902734 -0.09881891 0.032219637 -0.08972869
000350 c8 0c a5 3c 37 5f 6a bd 2f 39 c2 bc b7 e9 01 be
       0.020147696 -0.05721971 -0.023708908 -0.12686811
000360 20 c9 e8 bd 4f a0 db bd 87 37 18 3d e1 ef fd bd
       -0.113664865 -0.10723936 0.03716233 -0.12399269
000370 02 72 91 bd fc e2 96 bd c4 b5 ec 3c 69 61 98 39
       -0.071018234 -0.073675126 0.028895266 0.00029064275
000380 9c 0f d9 bd 20 e5 f5 bc 23 38 27 bd e3 83 b3 bd
       -0.105986804 -0.030016482 -0.04082502 -0.0876539
000390 8d 49 98 3d ca 0f f3 bb e5 c1 f2 bd aa 40 8c 3d
       0.07435904 -0.0074176537 -0.11853389 0.06848271
0003a0 11 92 8c 3d b2 67 a8 3c cc 4e 71 3d 91 52 b8 bb
       0.068637975 0.020557258 0.058913037 -0.005625077
0003b0 99 f7 52 3c e3 cb bd bd ad 96 8e bd 3c 5d 2b bb
       0.012876415 -0.09267404 -0.06962333 -0.0026148101
0003c0 9a 79 00 3d 3f fd b2 bd 15 80 c9 3d ee f1 e3 bc
       0.03136597 -0.08739709 0.09838883 -0.027825322
0003d0 3b dc a2 bd 63 c5 8d bd a0 cf 9f bd 73 71 14 3c
       -0.07952162 -0.06922414 -0.07803273 0.0090602515
0003e0 aa 73 18 bd cd 26 9f 3d 74 f0 07 bd 2c fb 9f bc
       -0.03721968 0.077710725 -0.0331883 -0.019528948
0003f0 3a 6e e9 bd b4 83 cb bd 18 b6 a7 3d f8 83 c3 bd
       -0.11397977 -0.0993723 0.081890285 -0.095466554

4.bias f4 [100]
000000 f8 bb c7 3e 7c e4 19 be 98 7b 82 bd 78 09 a6 3c
       0.39010596 -0.15028566 -0.0637123 0.020268187
000010 ea b9 17 3f a5 b2 84 3e 42 08 a2 3d ac 6d ff 3c
       0.5926806 0.25917545 0.07911731 0.031180225
000020 df 34 1f be 5e 43 ab 3e 0e 7b 66 3d 45 8d 2d 3b
       -0.15547512 0.33449835 0.056269698 0.0026481908
000030 a0 c8 b9 bd d7 ec b8 be 5e da b2 be 89 6c 1f 3f
       -0.09071469 -0.36118194 -0.34932226 0.62274987
000040 dc 70 a5 be ff c0 83 3d 61 21 35 bd 16 a0 4c 3e
       -0.32312667 0.064332955 -0.044221286 0.19982943
000050 fb 29 e1 3e a9 4e ba 3e 71 ab b7 bd ec ab f5 bd
       0.4397734 0.36388138 -0.08968247 -0.11995682
000060 88 f4 bf bd 5d 04 45 3f 9c f6 53 3e c7 93 8e bb
       -0.093728125 0.7695978 0.20699543 -0.0043511125
000070 56 d4 5f 3c eb 77 12 bf e7 e5 ed 3d 24 fd 10 bf
       0.013661465 -0.5721423 0.11616116 -0.5663626
000080 f1 f2 87 3e d3 2e 14 3e f9 b7 1d 3d f0 49 df be
       0.26552537 0.14470987 0.038505528 -0.43611097
000090 dd fb b7 be 4a 75 07 3f 87 7f c0 3f 20 fc be be
       -0.35934344 0.52913344 1.5038918 -0.3730173
0000a0 0e 3a 49 be 09 7f b0 bc 78 27 67 3e 67 fe a4 3e
       -0.19651052 -0.02154495 0.2257365 0.32225344
0000b0 ba 86 a2 3c ee 5d 15 3e ed 0e 35 3e dd ee 9b bd
       0.019839633 0.14586613 0.17681475 -0.07613919
0000c0 6b cb 38 3f 4f ab 27 be 45 ec bc be 21 0e fd be
       0.7218539 -0.16373943 -0.3689901 -0.49424842
0000d0 a8 7c 37 3e 39 d7 80 be d5 7c 3e be 6b 47 8d 3e
       0.17918646 -0.25164202 -0.18602307 0.2759355
0000e0 b6 5c ae 3c 09 57 5f be a9 88 61 3c 08 90 fb bd
       0.021284442 -0.21810545 0.0137654925 -0.12283331
0000f0 22 95 4c 3d 39 5d 8c 3e 77 9a 16 3d b8 29 84 bc
       0.04994691 0.27414873 0.036768403 -0.016133174
000100 31 46 dc be 9f ab f6 be fb 71 81 3d a8 de 3a bd
       -0.43022302 -0.48177812 0.06320568 -0.045622498
000110 76 19 6e bd ac f6 88 bd c7 5c a1 3e 32 d5 26 3f
       -0.05812975 -0.06687674 0.31516096 0.6516906
000120 d9 92 a4 be 86 e7 80 3c e2 83 9d bd 73 31 f2 3d
       -0.32143286 0.015735399 -0.0769117 0.11825838
000130 3e 25 88 bd 89 0c 51 bd 78 c3 45 be b7 a3 5a 3e
       -0.066477284 -0.051037345 -0.19312847 0.21351515
000140 c2 81 a5 3e 1a f0 28 be 8f 5d b6 be b2 e6 34 bf
       0.3232556 -0.16497841 -0.35618255 -0.70664513
000150 ac 0f 15 3e 2a df 79 3c 03 2a 82 be ee d5 e6 bc
       0.1455676 0.01525096 -0.25422677 -0.028178181
000160 ac 94 19 3e 5e 2b 99 3d c6 b9 c2 bd a0 07 f6 3e
       0.1499812 0.07478975 -0.0950809 0.48052692
000170 46 38 e6 3e 97 50 e9 bd 02 48 c2 3e 03 a0 33 3f
       0.44964808 -0.113923244 0.37945563 0.70166034
000180 e1 e5 6e 3e 47 1d 68 3e 44 a4 f5 be 39 4f 80 be
       0.2332988 0.22667418 -0.47976887 -0.25060442

6.weight f4 [157, 100]
000000 d7 e0 53 be b4 b7 6e 3c 72 d0 97 3b da 70 a5 3d
       -0.20691238 0.014570165 0.004633003 0.08078165
000010 f4 32 94 bd b0 f4 c8 bd c5 5f 6c 3e b0 71 1c bd
       -0.07236281 -0.098122954 0.23083408 -0.03819436
000020 cb 25 90 3d 79 4b 23 be 42 ad b7 bd 91 0a 74 3b
       0.070384584 -0.1594676 -0.08968593 0.0037237743
000030 60 5f de bd a7 86 3c 3c 2a 18 f8 bd 68 65 fa 3d
       -0.10858035 0.011506713 -0.12113984 0.12226373
000040 b0 f4 9d be 21 8e 1a 3d ff 8a 43 be 94 07 9b bc
       -0.30850744 0.0377332 -0.19095992 -0.018924512
000050 93 be 34 3e d8 f9 e4 be db 9c 21 bf 01 65 3f be
       0.17650823 -0.44721866 -0.6312997 -0.18690874
000060 85 ce 14 bd cb f6 f2 bd 1e 0f 19 3c e3 47 44 3c
       -0.036329765 -0.11863478 0.009341983 0.01198003
000070 d0 b7 00 3d 01 32 20 bd cc 21 8f 3d 1d ca 04 3e
       0.031425297 -0.039110187 0.06988868 0.12967725
000080 b6 ad 93 bc d2 2b 89 3b 68 25 c4 bd ab b7 85 3e
       -0.018027168 0.004186132 -0.09577447 0.2611669
000090 02 df 15 3e aa d6 93 be 14 dc 0c be c0 e0 a8 3d
       0.14635852 -0.28874713 -0.13755828 0.08245993
0000a0 a8 66 24 be ec 2d 20 3d 50 86 51 3e 64 86 4f be
       -0.16054785 0.039106295 0.20461392 -0.2026611
0000b0 f6 2c a8 3e 91 bb 52 be 79 c6 a7 be 83 89 81 3d
       0.32846802 -0.20579363 -0.3276861 0.063250564
0000c0 5e 95 d2 be ca 60 93 bd fc a2 7a 3d fe a6 d5 3c
       -0.41129583 -0.071961954 0.06119059 0.026080605
0000d0 c6 ac 56 be 13 9d 8b 3d 1b 7a 8e bd 37 45 89 be
       -0.20964345 0.06817069 -0.069568835 -0.2681062
0000e0 20 2d 11 bd 41 5e a4 be 91 ed e1 3d 52 1f 72 3d
       -0.035443425 -0.3210316 0.1103164 0.0591119
0000f0 a5 1d b6 bc 38 f7 21 bc 1d 5b 9c 3a 7a 94 a9 3d
       -0.022230932 -0.009885602 0.0011929009 0.08280273
000100 11 7b 37 bc 2f 34 bd bd 6e 2f 8b bd 8e 7d 8d 3d
       -0.011198775 -0.09238469 -0.06796156 0.06908713
000110 28 e5 a8 bd f1 ba 7b 3d 21 e9 90 3e b9 48 42 3e
       -0.08246833 0.061457578 0.28302863 0.18973054
000120 8e 1b 03 be 84 39 13 3e 5f b4 de bc 08 c7 31 3e
       -0.1280348 0.14377409 -0.027185617 0.1736108
000130 81 17 f9 3d 15 a7 98 bd 55 cb 7b 39 21 38 28 be
       0.12162686 -0.07453743 0.00024012972 -0.16427661
000140 f0 89 81 3d aa 65 bc bd 18 26 4b 3c 85 09 ca 3d
       0.063251376 -0.091990784 0.012399219 0.09865097
000150 3b e9 98 3b 9d 04 e5 3d 23 0a a2 bd 85 67 17 bd
       0.004666475 0.111825205 -0.0791209 -0.03696396
000160 4e 41 88 bd 3a 0b 13 be f3 f5 34 3d 02 c9 8a be
       -0.06653081 -0.14359751 0.044179868 -0.27106482
000170 36 90 09 3e 40 b4 91 bb 20 49 54 be e3 99 d7 bc
       0.13433918 -0.0044465363 -0.2073102 -0.026318496
000180 ab c1 90 3d 86 33 23 3e 79 64 55 be 6b bb 4c 3e
       0.07068189 0.15937623 -0.20839109 0.1999337
000190 50 93 82 bd 85 92 2d 3e 6f ad 8b 3c fc c4 4a bd
       -0.06375754 0.16950424 0.017050473 -0.049504265
0001a0 82 67 53 3e 7a f5 32 be 91 bb 3d be b2 b9 2e bd
       0.20644954 -0.17476454 -0.18528582 -0.04265756
0001b0 13 55 c7 3d 3d 46 7d 3e 17 f9 a3 bd 3c 07 17 bd
       0.097330235 0.24733825 -0.080064945 -0.036872134
0001c0 c7 04 d6 bd 81 ae b7 be 24 65 cb bd b3 22 c6 bd
       -0.1045013 -0.35875323 -0.099314004 -0.09674587
0001d0 49 65 3c 3e 29 23 33 bf 1f 30 c0 3e ad 96 bf 3b
       0.18398012 -0.69975525 0.37536713 0.0058468194
0001e0 b6 c6 08 3e 4e 54 58 3d 88 e8 36 3e 69 a2 41 bd
       0.13357052 0.052814774 0.17862141 -0.047274027
0001f0 77 95 c5 3d fb 54 8e bf 85 c9 9a be 8e 08 88 3c
       0.09647649 -1.1119684 -0.30231872 0.016605642
000200 19 0e 0d 3e 30 d7 7c be ba ad 87 bd a0 99 1d be
       0.13774909 -0.24691463 -0.066249326 -0.15390635
000210 ab 72 46 3c f4 8f 85 bd cf c5 00 bf 69 85 a1 be
       0.0121123 -0.065215975 -0.5030183 -0.31547096
000220 35 9c 8c 3e 60 4d 20 be 79 aa 09 3d 22 60 10 bf
       0.27462927 -0.15654516 0.03360984 -0.5639669
000230 15 6e 3e be 52 b9 71 bd 49 27 6d be d0 2b d0 3d
       -0.1859668 -0.059014626 -0.23159517 0.101646066
000240 11 9c 9e 3d b4 8e 36 3e 16 4e df bd de 49 00 3d
       0.07744611 0.17827874 -0.109035656 0.031320445
000250 a6 8c 85 bb b5 ed 1a 3d 1b b8 8e bd 32 92 11 3e
       -0.0040756045 0.03782435 -0.06968709 0.14215925
000260 19 1a 57 be 67 bc bf be 8b 66 42 3e a7 6c fb bd
       -0.21006049 -0.37448427 0.1898443 -0.12276583
000270 b9 d5 5b 3c a4 2f 23 3d a3 f2 35 bd 92 85 08 3d
       0.013417655 0.039840356 -0.04442085 0.033330508
000280 5b be 4a 3e c7 f3 9f 3d b7 f6 e5 bc 6c df 3f bd
       0.19799177 0.07810169 -0.028071744 -0.04684393
000290 44 f2 9c 3e 8c 7c 6d be 32 a0 01 3c 90 1f 0f 3e
       0.30653584 -0.23192042 0.007911729 0.13976884
0002a0 00 8f ac bd 03 5d 06 be 4d 82 06 be 3d c7 54 3e
       -0.084257126 -0.13121419 -0.13135643 0.20779128
0002b0 c2 7a 45 be dd ca 17 be f1 8a 9b 3e 2f 9d 2a bf
       -0.1928511 -0.1482348 0.3037944 -0.66646093
0002c0 29 2e 4b 3e a4 d2 22 3e 75 2f a2 3d 38 b0 2e 3c
       0.19841827 0.15900666 0.07919208 0.010662131
0002d0 8a cc 58 be 7a 78 2c 3e 25 8f 47 3d db 11 8d bc
       -0.21171775 0.16842833 0.048720498 -0.017220428
0002e0 f2 75 8c be b0 08 1e bd 3e 09 b1 be fc 4d 70 bb
       -0.27433735 -0.038582504 -0.34577364 -0.0036667576
0002f0 0a 3f 4e 3e 6d 1b 0f bd a5 99 67 bd 80 01 93 3d
       0.20141235 -0.034938265 -0.05654301 0.071780205
000300 39 11 68 3d 90 8a 1e be e4 0e 1f be 8a ff 3f 3e
       0.05665705 -0.15482545 -0.15533024 0.18749824
000310 f4 71 86 3d 88 4c e3 3c f4 6e e9 39 de 79 e4 bc
       0.065647036 0.027746454 0.0004452389 -0.027890142
000320 29 e0 a6 be 24 45 a7 3d 93 d6 a6 bd 36 03 eb bd
       -0.32592896 0.081674844 -0.081463955 -0.11475222
000330 19 14 f0 be 35 a4 74 3d 16 77 26 3d 96 59 2f 3d
       -0.46890333 0.059726913 0.040640913 0.042810045
000340 7b b8 27 3e 43 a6 53 be bc c6 67 3d 52 14 32 3d
       0.16378967 -0.20668893 0.056586012 0.04347641
000350 c7 ad 5f 3c d6 89 93 be 2a 07 6a bb e3 3c 87 3d
       0.013652272 -0.28816098 -0.0035709837 0.0660341
000360 18 b8 0d 3e 2c 6c b6 3d 97 63 ba 3d 0b 69 52 3d
       0.13839757 0.08907351 0.091010265 0.051369708
000370 ff a8 90 3c d7 de 00 3e 6a 19 e2 3d ca dc 08 be
       0.017658709 0.12585007 0.110400036 -0.13365474
000380 39 28 f4 3d 09 34 81 3d ea b6 24 3e a4 ec 4d 3e
       0.11921734 0.06308753 0.16085401 0.20109802
000390 22 93 4e be fa 6b 8f bd f0 5d 48 be 05 fe 0f bb
       -0.20173314 -0.07003017 -0.19567084 -0.0021971476
0003a0 74 6e 39 3e 01 0f ca be 95 1d 8b bc 16 77 b2 3d
       0.18108541 -0.39464572 -0.01698188 0.0871412
0003b0 19 af b9 bc 61 f0 a3 3e c7 61 03 be c8 56 39 3d
       -0.0226665 0.32019332 -0.12830268 0.045248777
0003c0 8c da 5c 3d 90 c2 25 bd 45 85 28 3e bc 55 ce bb
       0.05391936 -0.040468752 0.16457088 -0.0062968414
0003d0 6c 49 8d 3e ec bb f3 bd 88 82 12 3a 76 c3 7d bc
       0.2759508 -0.11901078 0.00055889087 -0.015488496
0003e0 a1 96 0a 3e 2d 64 2c be 2a 3b 3f be 0c ab 5f 3d
       0.13534023 -0.16835089 -0.18674913 0.054606482
0003f0 b8 65 63 3d 01 79 c4 39 41 06 97 be 90 06 e3 bd
       0.05551693 0.00037474188 -0.2949696 -0.11085236

6.bias f4 [157]
000000 f2 88 00 3e 44 28 b1 bd ba 1b 8e 3e ce 10 17 bf
       0.1255224 -0.08650258 0.2775553 -0.59010017
000010 5b 03 ce bd 27 f8 c1 be 04 1f 81 bd cd ef ae bd
       -0.10059234 -0.37884638 -0.06304744 -0.08541832
000020 73 d1 94 bd bb 62 1c 3e 09 33 bd be 37 a0 02 3d
       -0.07266512 0.15272038 -0.36953 0.031891074
000030 cc 88 17 bb 4f dd 23 bf 51 11 35 bf 66 85 2b be
       -0.0023122309 -0.64009565 -0.7072955 -0.16750106
000040 c3 17 83 3d f3 24 b1 3e a4 5a b3 3c 19 29 bf 3e
       0.064010166 0.34598503 0.021893807 0.37336043
000050 74 c8 24 3e c7 ac 3e 3d 79 28 8f be 27 22 2c 3f
       0.16092092 0.046551492 -0.27960566 0.6723961
000060 aa 0f 8f be a3 84 63 3e 10 0b a3 bc 59 d4 1f 3f
       -0.27941638 0.22218566 -0.019902736 0.6243339
000070 2b e3 fa be d1 f1 4f 3e 6f e6 50 be b4 46 d8 bd
       -0.4900144 0.2030709 -0.20400403 -0.105603606
000080 5b 53 0c bf 64 50 ad 3d c8 70 8c 3e 7e 6f 45 3e
       -0.5481469 0.08462599 0.27429795 0.19280812
000090 08 4b f9 3d ab 33 1f 3f 22 f7 85 3e 19 5f 0a 3e
       0.12172514 0.62188214 0.2616511 0.1351284
0000a0 6a fa d9 be 8e 40 8d bd da 0e d9 3e 42 30 16 3e
       -0.42573863 -0.068970785 0.42394143 0.14666846
0000b0 ab d8 f1 3d 43 e4 d9 3e dc 1f 09 3f 24 ec 26 3f
       0.11808904 0.42556962 0.5356424 0.6520407
0000c0 66 a3 74 3e e2 38 0e bf 02 6c b6 bd 34 d5 00 3e
       0.23890457 -0.55555546 -0.089073196 0.1258133
0000d0 e2 b3 8e be 5c 71 b4 be 6e 10 e9 3d 4e 54 c0 3d
       -0.27871615 -0.35242736 0.11380087 0.0939108
0000e0 53 03 e6 be 47 a7 2d be 96 b0 a8 3e 1e 46 f0 be
       -0.4492441 -0.16958342 0.32947224 -0.46928495
0000f0 46 b9 7f be 14 c7 91 3e 25 90 1d 3f 18 d5 01 3e
       -0.2497302 0.28472197 0.6154807 0.12678945
000100 9d a2 d3 bd c4 3c 5a bd 4e 33 63 3e 78 eb 96 be
       -0.103337504 -0.053280607 0.2218754 -0.29476523
000110 92 51 9c be d2 b0 7b be 3c 6b e2 3d cc 6e b0 3b
       -0.30530983 -0.2457917 0.110556096 0.0053843018
000120 73 7b c8 3e c0 a1 8b bd 88 9b 9f be 63 f6 43 3d
       0.39156684 -0.06817961 -0.31173348 0.047842395
000130 ce cf 61 3d 36 67 2c be 99 0f 24 bf 72 86 3a 3e
       0.05512982 -0.16836247 -0.640863 0.1821535
000140 a0 f2 df bd bc 41 8e b9 d6 6b 3c 3c cb 21 25 3e
       -0.10934949 -0.00027133327 0.0115003195 0.16126172
000150 c2 f6 82 3e 32 f6 cc 3e 3d ea 97 be 69 b1 38 3f
       0.25578886 0.40031582 -0.29670897 0.72145706
000160 eb 82 e5 3e d9 55 ac be e0 22 20 bf c0 5f 14 3f
       0.44826445 -0.33659247 -0.62553215 0.579586
000170 ad c3 01 be 20 5b 0b 3f 84 b5 8f 3d 60 f9 0c bf
       -0.126723 0.5443592 0.07017043 -0.55068016
000180 ce c7 c0 3a c4 96 ca be 8b 5b c7 be 19 ec 8e bb
       0.0014707984 -0.3956815 -0.3893703 -0.004361641
000190 15 6a 9d 3e 8b f1 93 3e 06 a5 0e 3c 8f d4 9f 3e
       0.30744997 0.2889522 0.008706337 0.31216857
0001a0 2a b3 84 3d 39 67 bc 3d 71 5d 82 3e 95 92 b1 3d
       0.06479485 0.09199376 0.25461915 0.086705364
0001b0 c4 ee 15 be 6c b0 f4 3c 3d 48 58 be 8a b5 9d be
       -0.14641863 0.02986928 -0.21121307 -0.30802566
0001c0 82 7e c4 3a 1e 53 0b bd 2e 10 73 3e 50 f1 cd be
       0.0014991316 -0.034014814 0.23736641 -0.4022317
0001d0 3f 0a 14 bc 2e 79 99 be e8 f0 25 3e 50 f7 ce bd
       -0.009035646 -0.29975265 0.1620518 -0.10105765
0001e0 5d 17 6c 3e 62 4b 2d 3f 07 48 87 bd 1a 9c 8d be
       0.23055787 0.6769315 -0.06605535 -0.2765816
0001f0 60 f3 8d 3e 55 17 a8 be 89 aa 8d be 7d 6b bc 3e
       0.27724743 -0.328303 -0.2766917 0.36800757
000200 4f 03 1a 3f 0f 23 35 be f9 d9 a5 3d a8 fe 55 3c
       0.601613 -0.17689155 0.080982156 0.013061203
000210 cf 6f 8a be 7c 86 7d bd 8a 1c 8c be ca ed 34 bc
       -0.27038428 -0.061895832 -0.27365524 -0.011043021
000220 87 d5 58 3e b3 52 ca be 87 c3 9f 3d 06 82 2d 3e
       0.21175204 -0.3951622 0.07800966 0.16944131
000230 3c 29 51 3f 8e 26 3e be da 0f ff be a1 4b d6 bd
       0.81703544 -0.18569395 -0.4981678 -0.10463644
000240 a6 92 15 be 74 6d 01 3d 61 b5 5b bf e3 0e 83 ba
       -0.14606723 0.031598523 -0.8582364 -0.0009998943
000250 12 d8 51 3d f7 76 4b 3e 55 e4 64 be ff 6f 1d bf
       0.05123145 0.198696 -0.22352727 -0.6149902
000260 60 7c c2 be 11 f0 53 be 04 43 a5 3d f0 25 4f 3d
       -0.37985516 -0.20697047 0.08069423 0.05057329
000270 a2 e3 3b 3e
       0.18348554
