neura1/bestval_e4_weights.ckpt (torch, 399055 bytes, 8 tensors)

0.weight f4 [100, 630]
000000 67 d2 60 bc ea 0e 2a 3d 39 7f fe bc d1 6a 72 be
       -0.013722039 0.04151813 -0.031066524 -0.2367356
000010 ab 5f ac 3b d8 56 da bd b6 5a 7e be b7 8e 02 be
       0.005260428 -0.106610954 -0.24839291 -0.12749754
000020 74 ba a2 be 82 46 d7 be 3d 65 91 be 21 37 3b bd
       -0.31782877 -0.4204598 -0.2839755 -0.045706872
000030 44 d3 01 3e d6 01 f3 3e 3d d6 16 3d 27 55 5f 3e
       0.12678248 0.47462338 0.036825407 0.21809827
000040 20 6b 5a 3e 57 89 7b 3e 34 56 b8 3d 55 89 8c 3e
       0.21329927 0.2456411 0.09000817 0.27448526
000050 fd be 50 3e 27 d7 b4 3e 50 be 89 3d f4 45 1b 3e
       0.20385356 0.35320398 0.06725752 0.15163404
000060 4e 14 32 3e ef 0e 89 3e c1 c8 f3 3d 85 76 d0 3d
       0.17390558 0.26769206 0.11903525 0.10178856
000070 86 b6 3b 3e 6d 7a 07 bc 91 bc 81 bc 99 b3 1a bd
       0.18331346 -0.008268935 -0.015836986 -0.037768934
000080 3e 90 8a bb ee c2 a4 bd 1c 2a ac 3c ee f7 9d bc
       -0.004228621 -0.080449924 0.021016173 -0.019283261
000090 b1 5e c4 bd 9b 31 78 bd 85 14 1f be 96 ba 71 be
       -0.095883735 -0.060594182 -0.15535171 -0.23606333
0000a0 1b 85 55 be 53 3a 22 bd 01 25 6b 3d 50 d7 92 3e
       -0.20851557 -0.039606404 0.057408337 0.28679895
0000b0 c0 c8 6a 3c 66 f3 f9 3d d6 15 b5 3d 86 ca 25 3e
       0.014330089 0.12204628 0.088420555 0.16190538
0000c0 5b af b0 bc c4 b7 2b 3e b2 e6 87 3d 76 2d 93 3e
       -0.021567991 0.1676932 0.066357985 0.2874562
0000d0 5e ad cb bc b9 10 b2 3d 98 4e aa 3d 8e 23 32 3e
       -0.024862941 0.08694596 0.08315772 0.17396376
0000e0 1b 14 14 3d 3a 84 f5 3b 91 70 a4 3d 4a 34 67 bd
       0.036151987 0.0074925693 0.08029283 -0.05644635
0000f0 4e 38 3a 3c 84 17 5f 3c 4d 75 c3 bc d5 c0 b4 bd
       0.011365963 0.013616446 -0.023859644 -0.08825842
000100 7f 4e 87 bc bb 96 8f bb 8e 76 8e bd c9 d8 7a bc
       -0.016516922 -0.004381982 -0.06956206 -0.015310475
000110 2a 3c 23 be 99 3a 59 be f7 d5 17 be 50 25 da bc
       -0.1594092 -0.2121376 -0.14827715 -0.02662912
000120 e4 7f 71 3d e3 7e 8c 3e 7c d0 86 3d 92 b1 01 3e
       0.058959857 0.27440557 0.06582734 0.12665394
000130 05 62 75 3d 00 ce 20 3e 7a 87 b8 3c 53 f8 2a 3e
       0.05990793 0.15703583 0.022525538 0.1669629
000140 a8 5b 8e 3d 68 c6 7d 3e a5 2d 34 3d 6a 4e be 3d
       0.06951076 0.24782717 0.043988843 0.092923
000150 87 ab 0d 3e 04 5c 37 3e 9b ba 39 3b e5 46 d2 bc
       0.13834964 0.17906195 0.0028339985 -0.02566857
000160 02 06 2a 3d c2 05 d6 3b a3 f6 87 bc ae 9a 5f bd
       0.041509636 0.006531448 -0.016597098 -0.054590873
000170 45 42 f6 bb 6e 76 d9 bc 33 fa ed 3b 28 d7 d8 bc
       -0.007515224 -0.02654573 0.007262492 -0.026469782
000180 9b e7 7a bd e9 4f b2 bd b7 42 22 be 43 45 84 be
       -0.061256032 -0.08706648 -0.15845762 -0.25834092
000190 07 75 0c be 93 7d 59 bc 19 7a 08 3d 14 36 98 3e
       -0.13716517 -0.013274568 0.033319566 0.29728758
0001a0 b6 0d 40 3d 76 99 b2 3d 5a 6f 9c 3d b0 54 03 3e
       0.046888076 0.087206766 0.07638426 0.12825274
0001b0 09 fb aa bb 50 a6 05 3e 44 c4 94 3d cc 74 84 3e
       -0.005217914 0.13051724 0.07263997 0.2587036
0001c0 2c 41 85 3b e1 ef 6b 3d 0b eb fc 3d 85 82 f8 3d
       0.004066607 0.057601813 0.123495184 0.121342696
0001d0 86 19 3b 3c 08 38 0a 3d d1 fb d6 3c 75 a0 02 bc
       0.0114196595 0.03374484 0.026243122 -0.007972826
0001e0 66 74 0a bd 4a bd 34 bd 2a b4 e6 3b 87 5f 20 bd
       -0.033802412 -0.044125833 0.00704052 -0.039153602
0001f0 60 45 08 bd 9d 02 84 bd ea ca a6 bd 36 e4 8e bd
       -0.033269286 -0.06445811 -0.081441715 -0.069771215
000200 e6 c3 01 be 46 11 88 be e2 61 24 be 99 04 12 bd
       -0.12672386 -0.2657568 -0.16052964 -0.035648916
000210 24 4e 87 3d 57 3b 97 3e ee 71 97 3c 19 40 3f 3d
       0.06606701 0.2953746 0.018486943 0.046691988
000220 36 3e 7b 3d 24 67 3b 3e 51 52 0a 3d d7 64 13 3e
       0.061338626 0.18301064 0.03376991 0.14393936
000230 01 26 9e 3d af 80 85 3e 75 5c c7 3b ed 66 da 3d
       0.077220924 0.2607474 0.00608402 0.10664163
000240 1a ab 07 3e a4 5a 12 3e 24 7a 77 3c 1d 3d 11 3d
       0.13248864 0.14292389 0.015104804 0.035458673
000250 b4 06 a6 3d 01 ef 67 bc 4e 30 37 3c 58 46 21 bd
       0.08106747 -0.014156104 0.01118095 -0.039373726
000260 1b d7 ea 3b d2 7a a4 bd d4 85 08 bd f2 25 80 bd
       0.007166756 -0.080312386 -0.033330753 -0.062572375
000270 e1 c9 d3 bd da 52 9d bd 82 06 f6 bd 5f f4 80 be
       -0.1034124 -0.07681818 -0.1201296 -0.2518644
000280 22 ec 1f be c2 a9 eb bc ec f9 c8 3d 0d 75 8d 3e
       -0.15617421 -0.02876747 0.09813294 0.27628365
000290 71 cb c0 3c 86 38 30 3d ca 8a cc 3c 82 c4 46 3e
       0.023534508 0.043022655 0.024968524 0.194109
0002a0 fd ad 62 bc bd e8 15 3e d5 36 7e 3d 20 41 2c 3e
       -0.013835427 0.14639564 0.06206401 0.16821718
0002b0 e1 fa 08 3c dd 8c 63 3d b7 90 16 3e 8d 8d 18 3e
       0.008360595 0.05555426 0.14703642 0.14897747
0002c0 7a bc db bc 8b 49 6c bc bb 03 b6 3d e6 34 b0 bc
       -0.026823271 -0.014421831 0.0888743 -0.021509599
0002d0 b6 4f c8 3c 79 30 36 bd 20 a3 e2 3c bc 68 92 bd
       0.024452072 -0.04447982 0.027665675 -0.07148883
0002e0 10 e8 19 3c bd 0f 91 bb 4f 7a 9a bd 06 59 56 bd
       0.009393707 -0.004426925 -0.0754286 -0.052330993
0002f0 8c bd 31 be 97 30 9f be c2 2f 3f be 55 05 0b bd
       -0.17357463 -0.3109176 -0.18670562 -0.033940632
000300 c2 38 2c 3d 78 9f 91 3e 20 40 17 3d c9 96 af 3d
       0.042046316 0.28441978 0.03692639 0.08573682
000310 8b e0 9d 3d cd ef fe 3d 89 e3 e4 3b 35 0f 1d 3e
       0.07708844 0.12448082 0.006985132 0.15337832
000320 60 d0 f3 3d bd 75 49 3e 41 d3 de 3c 1b 61 3d 3d
       0.11904979 0.1967382 0.027200343 0.046235185
000330 08 f5 e7 3d ec 5e 22 3e 82 b1 8f bb 0f 18 44 3d
       0.11326033 0.15856522 -0.0043851743 0.047874507
000340 f0 8b 96 3d 6b 68 8a bd 65 f8 80 bc 3d 06 55 bc
       0.0735091 -0.067581974 -0.015743444 -0.013001976
000350 36 8c fc 3a c7 5b 34 bd 17 c3 37 bd 1e 35 3f bd
       0.001926786 -0.04403284 -0.044863787 -0.046681516
000360 5f fa fe bd 59 8c b4 bd 26 e7 09 be 5a 8b a0 be
       -0.12450098 -0.08815832 -0.13467082 -0.31356317
000370 1e d0 44 be b6 0f 5b bd 44 f9 57 3d a7 60 a2 3e
       -0.19220015 -0.05348178 0.052727953 0.31714365
000380 60 a1 f5 3c 2a a2 d3 3d 51 bf 6f 3d 2e 7c 53 3e
       0.029984176 0.10333665 0.058532063 0.2065284
000390 53 e3 9b bc 8a 4b 10 3e 03 2f 96 3d bb 9f 4d 3e
       -0.019029295 0.14091316 0.073331855 0.20080464
0003a0 2a bc 84 3c a2 52 e5 3d cc 82 da 3d 0d e1 54 3e
       0.016203005 0.111974016 0.10669479 0.20788975
0003b0 5f 4f 5e bd 9d 8c ae 3c 5f 49 3b 3d 2c 8c 9f bd
       -0.054274913 0.021307284 0.04572427 -0.077904075
0003c0 2d 59 88 bb 59 26 0a bd 6e 8b 2b 3c 69 3d a0 bd
       -0.004161021 -0.033727977 0.010470254 -0.07824213
0003d0 1f b7 86 bc f8 3a 00 bd 47 6b be bd 71 87 c4 bd
       -0.01644474 -0.031306237 -0.09297805 -0.09596146
0003e0 ad dd 32 be aa 12 8f be 99 e1 3b be 2a c0 ad bc
       -0.17467375 -0.27943927 -0.18347777 -0.021209795
0003f0 bb 98 6f 3d 60 bc 8b 3e 08 62 c5 3d 4e cc 93 3d
       0.058495265 0.27292156 0.096378386 0.072167024

0.bias f4 [100]
000000 51 04 90 3d 40 0c b4 3c 1a 7f d3 3b fa 7e 01 3d
       0.07032073 0.021978498 0.0064543607 0.031615235
000010 34 72 c2 3d 9f e9 bf 3d da 1d a0 bd fb e8 ab 3c
       0.09494439 0.093707316 -0.07818194 0.020985117
000020 eb f1 28 be 24 75 a7 be 35 73 dc bd c9 93 ca bd
       -0.16498534 -0.3270656 -0.107641615 -0.09891469
000030 8a 61 ba 3c 44 80 17 3d 6a 8d fc bc e4 dc 83 3d
       0.022751588 0.036987558 -0.03082915 0.06438616
000040 be 0a 81 3b f8 1b 39 bc a7 c3 47 3e 1b c0 3b 3e
       0.003938048 -0.011298172 0.19508229 0.18335001
000050 f2 4c 99 3e d1 22 92 bd 64 3f 40 bd 5e bd ad 3e
       0.29941517 -0.07135547 -0.046935454 0.33933538
000060 92 0b 86 3d 3f 1a 31 3c 70 dc d0 3c 74 28 26 3e
       0.065451756 0.01080948 0.025495738 0.16226369
000070 59 20 c5 bd be 05 ee bb 11 fd 57 3d 42 5c 08 be
       -0.096253105 -0.007263868 0.052731577 -0.13316444
000080 85 85 52 bc 31 f0 f1 bb cd 58 32 bc 9f 45 41 be
       -0.012849216 -0.0073833694 -0.01088543 -0.18874215
000090 96 19 fa bd 22 66 46 be e6 a5 cc bc 2a 0e 0c bd
       -0.122119114 -0.19374898 -0.02498145 -0.034193195
0000a0 a1 4d 40 bc 3d 35 c3 bd be 12 cd bc e7 f1 7c bc
       -0.011737258 -0.09531639 -0.025033351 -0.015438533
0000b0 34 5e b1 3c 40 15 ec bc b2 77 e6 3a db 8e 96 be
       0.021651365 -0.028818727 0.0017583279 -0.29405865
0000c0 f8 0c d4 bc e1 53 1d be 20 a8 49 be 1e 9d 39 3e
       -0.02588509 -0.15364029 -0.19693041 0.18126342
0000d0 49 3a c9 bc e0 de 4b 3e 7d ef 00 bc 5a 8f 02 be
       -0.024563925 0.19909239 -0.007869598 -0.12749997
0000e0 88 37 22 bd 0d 94 26 3e 51 95 ab bc 1d 3f 6d bc
       -0.03960374 0.16267414 -0.020945223 -0.014480379
0000f0 81 51 98 bb f2 b9 fe bd 49 44 e4 bd 2b 2a a9 bb
       -0.004648388 -0.1243781 -0.11145837 -0.0051624975
000100 31 42 16 3d 9d 7a 28 bd 80 b3 7d 3a fb 0b 86 bc
       0.03668422 -0.041132558 0.00096779317 -0.016363135
000110 85 13 98 be ef 9b 9e 3d dc 53 e2 be 8a ea 97 3c
       -0.29702392 0.07744586 -0.44204605 0.018544454
000120 b5 c7 45 be 6a 64 d6 3c 68 8e bb ba 86 a4 ba bd
       -0.19314463 0.026170928 -0.0014309408 -0.091134116
000130 d7 6e b1 bc 15 1c bc be dc 8f ed bc 50 de cb bd
       -0.021659298 -0.36740175 -0.028999262 -0.09954512
000140 4b aa cb 3c 92 0d 0c 3d da 80 0b 3e 37 e0 41 3d
       0.024861475 0.03419263 0.13623372 0.04733297
000150 b2 c6 fa bc 50 4d 14 3e 84 ef 09 3e 83 6c 09 be
       -0.030612323 0.14482617 0.13470274 -0.134203
000160 a2 da fc 3b 06 12 22 3c 15 cb e8 3d b2 da e7 bc
       0.0077164927 0.009891992 0.1136686 -0.028302524
000170 40 06 4e bd 30 92 30 3c 93 43 62 bc d0 a8 98 be
       -0.05029893 0.010777041 -0.013810056 -0.29816294
000180 44 d2 ff bd d9 f7 29 3e e6 47 03 be 93 4d 1d 3d
       -0.12491277 0.16598453 -0.12820396 0.03840406

2.weight f4 [100, 100]
000000 24 6c 1d be ca 3f b8 bd 0d ac 96 bc c7 29 52 bd
       -0.15373284 -0.08996542 -0.018392587 -0.051309373
000010 1d b5 05 3c 2b 17 fa 3d 22 ce 90 3d 43 b3 00 bd
       0.008160857 0.1221145 0.07070567 -0.031420957
000020 a6 e8 27 3e ba c8 02 3d 52 9f b7 3c b1 5a 38 3e
       0.16397342 0.03192971 0.022414837 0.18003346
000030 da 12 04 be 59 a7 1a bc f8 3e 27 bd 1f 70 04 3e
       -0.12897816 -0.009439313 -0.040831536 0.12933396
000040 aa 8a dd 3c b3 c1 f3 bb 14 1e f3 3d 8f e2 ee 3d
       0.02704366 -0.007438862 0.11870971 0.11664306
000050 9c 2b d3 bd b9 1b f7 3d f7 b9 bd 3d 8b 3e 10 be
       -0.10311052 0.120658346 0.092639856 -0.14086358
000060 6f 6b 5c 3d fd dc a5 3d 1c ba de bd 41 80 0c bc
       0.053813394 0.08098791 -0.10875341 -0.0085755
000070 da 24 12 3e 8b 29 c2 3e da ea 20 bd 37 71 20 bd
       0.1427187 0.3792232 -0.039286472 -0.03917047
000080 fa 52 4d 3d 47 3f a4 bd b1 c7 ef 3d 07 3b 88 bd
       0.05012796 -0.08019882 0.1170801 -0.066518836
000090 61 43 0d be 79 e4 ee 3c 67 56 86 bd cd a7 0f bd
       -0.13795234 0.029161679 -0.06559449 -0.035072137
0000a0 80 30 6e 3d 44 c9 f7 bd cd 3a c4 3c 57 6f c5 bd
       0.058151722 -0.12098935 0.02395382 -0.09640377
0000b0 d3 73 28 bd 24 49 16 3d 2d 1f bd 3c 6a 3c 6e 3d
       -0.041126084 0.036690846 0.023086155 0.058163084
0000c0 a5 df 2a 3e 64 bd 8e 3d df 04 32 3e 7a 88 a5 3d
       0.16686876 0.06969717 0.1738467 0.080826715
0000d0 cd 5d 87 bd 19 44 84 be 98 79 d2 bc 97 de 10 be
       -0.06609688 -0.25833204 -0.025692746 -0.14147411
0000e0 fc 75 13 3d 4f 1a 00 be 1d bc b3 bd fb ae 8a bd
       0.03600119 -0.12510036 -0.08776114 -0.06771656
0000f0 7a a9 9f 3d eb 62 07 3e 39 7d 62 3d 33 1d db bd
       0.07795997 0.13221328 0.055295203 -0.10698929
000100 e9 7d 39 3e c4 19 23 be 29 9e 4d bd 3a ea 72 3d
       0.18114437 -0.15927798 -0.05019966 0.059305407
000110 13 9d 4c 3e 8f 7d 81 3c e6 32 bf 3d f8 c1 5e 3e
       0.19981794 0.015806941 0.0933588 0.2175368
000120 d4 82 29 be ab 6a 2e be fa 3e b9 3d e1 c6 9d 3c
       -0.16553813 -0.17032878 0.09045215 0.019259872
000130 67 72 90 3b 2c a4 f8 b8 80 85 ec 3c 35 42 84 3c
       0.004408169 -0.00011856141 0.028872252 0.016144851
000140 57 69 59 3d 8f 13 4d 3e bc 7f d4 3d 8b 85 cb 3d
       0.053078976 0.20026992 0.10375926 0.09937581
000150 ed 3f d3 3d be 76 b7 3d 8c 7e 13 be 85 b7 ec 3c
       0.10314927 0.08958195 -0.14403743 0.028896103
000160 1a 35 61 bc ad ae 73 bd 56 70 14 3c 9d a2 3d bd
       -0.013745571 -0.059492756 0.009059986 -0.04629766
000170 76 28 fd 3d c7 2b 95 3d b7 f4 bc 3e 22 15 87 3d
       0.12361233 0.072837405 0.36905453 0.06595828
000180 45 52 71 3d d0 ad b3 be 11 9e 81 3e 39 16 58 be
       0.05891635 -0.35093546 0.25315908 -0.21102227
000190 02 af b2 3d 08 f6 a0 bc 63 90 b4 bd 7e e2 b9 3d
       0.08724786 -0.019648567 -0.08816602 0.09076403
0001a0 6d 20 4c 3e bc 6e e9 bd 06 a6 8f 3e 32 70 cf bd
       0.19934244 -0.11398074 0.28056353 -0.101288214
0001b0 9c 1c e6 3d 34 e3 08 bd 2e 84 80 3d 8b 47 17 bd
       0.112359256 -0.033419803 0.06275211 -0.036933463
0001c0 93 46 57 bc 95 10 56 bd e8 78 1c 3e 22 00 34 be
       -0.013139385 -0.052261908 0.15280497 -0.17578176
0001d0 8e 37 95 3d 0d 47 fe bc 09 03 05 3e 76 12 df 3d
       0.07285987 -0.031039739 0.12989439 0.10892193
0001e0 bb 3a 57 be ea ac 0e 3e a3 1a 0b be 84 cb 14 3e
       -0.21018498 0.13933149 -0.1358438 0.1453076
0001f0 57 89 4c 3d 94 e8 fe bc c2 5c 7f bd 4f ca d9 3d
       0.049935665 -0.031116761 -0.06234432 0.106342904
000200 53 1b f7 3d ce 70 93 be be 35 c0 bd 1f 0f b2 3d
       0.120657586 -0.28797 -0.093852505 0.0869429
000210 6e 09 14 3d 9f 86 8b 3d bf d1 0c bc 8d f3 e0 bc
       0.036141805 0.06812786 -0.008594929 -0.027459884
000220 1c af 83 ba 8c 98 fe bd 93 da fd 3c 7f f7 a3 3c
       -0.0010046693 -0.1243144 0.030988013 0.020015476
000230 98 dd 66 3d 16 db a2 bd d2 23 22 bb 80 09 d4 3c
       0.056363672 -0.079519436 -0.002474059 0.025883436
000240 27 57 c9 3c ef 49 10 be e5 82 f3 bc 7d 8e 8c 3d
       0.02457769 -0.14090703 -0.029725501 0.06863115
000250 1e 8d 6b 3e 7e d1 c9 bd 36 52 89 bd e4 f3 9f bd
       0.2300305 -0.098544106 -0.067051336 -0.0781019
000260 55 65 1a bd 35 65 31 3d a4 6c 0d 3e a8 4c 1f bd
       -0.037694294 0.04330941 0.13810974 -0.038891464
000270 5f 1b 53 3d 92 77 9e bc e4 6d 84 3c 63 7d b2 3b
       0.051539775 -0.019344125 0.016165681 0.005447076
000280 b1 6d d5 3d 32 31 3b bb 36 7b dd 3d c5 0b 32 3e
       0.104213126 -0.0028563258 0.10814516 0.17387302
000290 a6 e2 41 3d e5 c8 95 bd 47 16 8c 3c 6f 8f 95 3c
       0.04733529 -0.07313708 0.017100466 0.018256871
0002a0 99 55 4c be 19 7a 14 bd 94 7e 09 3c 1a 48 bb 3a
       -0.19954528 -0.036249254 0.008391995 0.0014288456
0002b0 e7 c1 c5 3d 78 d7 d1 3d 1a f7 42 bd 2c bf f2 ba
       0.096561246 0.102461755 -0.047598936 -0.0018520108
0002c0 8b 7f b9 bd fd e0 fc 3d 7f 9f 21 bd 87 95 33 be
       -0.0905753 0.123476006 -0.039458748 -0.17537509
0002d0 24 87 7a 3d 5e 40 44 bd c6 f5 a0 bd 11 1a 05 be
       0.061164036 -0.047912948 -0.078593776 -0.12998225
0002e0 e2 fe a1 bd 8d 22 a0 3d 6d 53 13 3e 39 e0 65 3c
       -0.07909943 0.0781909 0.14387293 0.01403051
0002f0 9e e6 0b 3c d0 cd 8d bd 22 ba 6c 3e 14 a7 7c 3d
       0.00853887 -0.06924021 0.23117879 0.061682776
000300 a1 61 8d 3d 8e b5 31 3d a1 8d 3d be 38 aa 12 3d
       0.06903387 0.043386035 -0.18511058 0.035806865
000310 1c b5 49 3d 63 37 67 3e 76 3a d6 bd ad fc 60 3e
       0.049244985 0.22579722 -0.10460369 0.21971388
000320 dc 19 d2 bb fa 3b 9c bd ea 9a 7f 3d aa 02 b4 3d
       -0.006411774 -0.07628627 0.062403597 0.08789571
000330 7d a7 7e bd b7 26 56 bd 26 51 69 3d 90 e1 c3 bd
       -0.062171448 -0.052283015 0.056962155 -0.09564507
000340 b4 ef da 3c 24 d5 f9 bb c8 49 81 bb 29 ec fa bd
       0.026725627 -0.0076242853 -0.003945563 -0.12252075
000350 fc 57 85 bd 46 be 98 bd 84 2b 8f bd ea 8b 98 bd
       -0.06510922 -0.07458167 -0.06990722 -0.074485615
000360 9a d7 c7 bb 2b 0d 9b bd c0 39 c1 bd 1c 37 a8 3d
       -0.0060986998 -0.07570871 -0.09434843 0.08213636
000370 f8 dd 15 bd ea 9e a5 bd d8 ae c4 3d ef 6e 02 3d
       -0.03658864 -0.08086951 0.09603661 0.031844076
000380 ff 27 1c 3d 5a 5c 2b 3c c1 e9 f0 bc 1c 19 15 3d
       0.03812408 0.01045903 -0.029408338 0.0364009
000390 ec b8 2f 3d 0b fc be bd 83 1e b9 3c e5 e2 e1 3c
       0.042900965 -0.09325417 0.022597557 0.027574012
0003a0 c0 5e b5 3d 1a 85 9f bd 4d 06 d1 bd c1 a1 85 bb
       0.08855963 -0.07789059 -0.1020628 -0.0040781205
0003b0 49 b6 8c bd 2b c4 64 bd 40 ee d8 bc a3 a3 2a bd
       -0.06870706 -0.055851143 -0.026480794 -0.041659962
0003c0 5d 02 5d bd 7f 8c 05 bd a2 91 8c bd 2d d9 75 bd
       -0.053957332 -0.03260469 -0.06863715 -0.060021568
0003d0 25 b2 96 3d d0 8e da bc 45 cc a1 3d 8c 04 fe bd
       0.07358197 -0.026679426 0.079002894 -0.12403211
0003e0 e1 7a 1b bd d6 a7 1f 3b 1b 37 81 3b 1a 66 ce bc
       -0.037958983 0.0024361513 0.0039433367 -0.02519517
0003f0 5d 27 32 3d 54 f5 79 3d d4 a1 7d bd 7a 40 6c bc
       0.04349457 0.06102498 -0.06192191 -0.014419669

2.bias f4 [100]
000000 fe 0f 8a 3d e3 1c 25 3e 13 5e ca bd b4 59 9e 3e
       0.067413315 0.161243 -0.098812245 0.30927813
000010 f6 95 a5 bd 17 e7 1a 3d d1 a7 03 3c 5c fe 6b 3e
       -0.080852434 0.03781804 0.008035616 0.23046249
000020 de 90 26 3e 5e 94 31 bd 53 ad 73 3e d8 e6 08 3e
       0.162662 -0.043354385 0.23796587 0.1336931
000030 39 d1 21 3e de fa b7 3c 32 bc a6 be c9 e5 46 bd
       0.15802468 0.02245849 -0.32565457 -0.048558984
000040 d0 2d 83 3e e4 13 19 3e 15 e1 84 bc 3b ab 8b 3d
       0.2562089 0.14948994 -0.016220609 0.06819769
000050 70 c0 39 3d 50 64 d5 bd 2d 96 c2 bc 99 11 b9 3d
       0.04534954 -0.10419524 -0.02375325 0.090365596
000060 25 35 07 bd be fe 6d bd 59 a5 18 3d 4a be 6d be
       -0.033009667 -0.05810427 0.037267063 -0.23217121
000070 82 79 fd bc 87 5d 9a be 3d ec cb 3d ac 1f 09 be
       -0.030941729 -0.3014948 0.09957168 -0.13390988
000080 49 9d ec bd 45 5f 97 be 72 f0 b2 3e 28 36 40 3e
       -0.11553437 -0.29564872 0.3494907 0.18770659
000090 96 6f 1b bc 9e 4a e1 bd 91 16 8f bd 76 de 88 3d
       -0.009487053 -0.1100056 -0.06986726 0.06683056
0000a0 ff d8 aa bd 2c 4a 41 bd a8 95 a6 bd c2 01 38 3e
       -0.0834217 -0.047189876 -0.081340134 0.1796942
0000b0 15 7f 44 be 01 28 5f 3e 29 65 00 be a6 70 cc bc
       -0.19189103 0.21792604 -0.1253859 -0.024956059
0000c0 46 62 76 be 0e b0 37 3d a0 cb b3 be 49 b3 f5 bd
       -0.24060926 0.044845633 -0.3511629 -0.119970866
0000d0 de a9 da 3e 6b 33 07 3e d8 23 8c bd 37 4a 61 3e
       0.42707723 0.13203208 -0.06842774 0.22000967
0000e0 97 bb 14 be b0 8a a9 3e 46 4c 2b 3f 34 9e ad 3c
       -0.14524685 0.33113623 0.6691326 0.021193601
0000f0 79 e0 0e 3f c1 b5 8a 3e ef 2a 73 3e 00 ac ac bc
       0.5581127 0.27091792 0.23746847 -0.02107811
000100 ba 70 f4 bd fa c8 12 be ed d1 98 3c e9 1f 8e be
       -0.119355634 -0.14334479 0.018654788 -0.2775872
000110 a7 96 56 be a4 32 49 be 46 17 9b bd d8 07 72 be
       -0.20955907 -0.19648224 -0.075727984 -0.23635805
000120 ff be 8b be b4 4a 92 be 90 cc 2c bd 9c 6e d9 bb
       -0.27294156 -0.2857262 -0.042187274 -0.0066355
000130 74 07 c5 3c e1 bf 4d 3d 8d ff 99 bd 56 ad 9a 3e
       0.024051405 0.050231818 -0.075194456 0.3021037
000140 8e f7 78 be d9 5c 01 be 7b f2 a2 be dc 15 12 be
       -0.24313185 -0.12633075 -0.31825623 -0.14266151
000150 4e d9 a9 3d a9 33 8d 3e 35 87 a2 be 46 93 3c 3d
       0.08293401 0.27578476 -0.3174378 0.04603889
000160 ed 2d df 3d a9 31 8f be cf 30 86 3c 43 d2 f4 3e
       0.108974315 -0.27967575 0.016380696 0.47816667
000170 ae 3b 9f be 68 1f 9b bd 50 78 a5 bd 85 1d dc bd
       -0.3110022 -0.0757435 -0.080795884 -0.10747818
000180 0b cb 04 3e 35 96 c9 bd 62 59 1c be 47 e8 14 bd
       0.1296808 -0.09843103 -0.15268472 -0.03635433

4.weight f4 [100, 100]
000000 65 cb e8 bd 3b 40 f0 3d 28 10 c3 bd 8f 40 90 be
       -0.113669194 0.11731001 -0.09524566 -0.28174254
000010 52 15 34 bd 11 ad ef bc 82 6f d1 3d c6 2e ca 3d
       -0.043965645 -0.02925733 0.102263466 0.098722026
000020 6c ae fe 3c 18 8c 55 be c7 66 d4 bd cc af 2a 3d
       0.03108903 -0.20854223 -0.10371166 0.04167156
000030 8a a7 86 bd 78 4d e7 3d 3c 92 41 bd b2 d5 d9 3c
       -0.06574924 0.11294073 -0.0472586 0.026591156
000040 c5 fb 90 bd 49 72 05 be 29 c1 fb bd 63 f7 6b bd
       -0.07079271 -0.13031878 -0.12292702 -0.057608973
000050 72 f7 f4 3d 86 7d a2 be 53 09 54 be 0f b6 db 3d
       0.11961259 -0.31736392 -0.20706682 0.10728084
000060 8e a7 72 3d b5 c1 cc 3c 65 7e 90 3d a1 46 68 bd
       0.059241824 0.02499471 0.07055358 -0.056707982
000070 7d 89 52 3d fe 4d e6 3d 2d 63 86 3e 6f 6e 04 3d
       0.05140065 0.112453446 0.2624754 0.03233188
000080 1c cf 83 bc ba 9b 47 3d c7 ef 30 3e a5 91 c8 3d
       -0.016089968 0.048732497 0.17278968 0.097934045
000090 01 9e e1 3d 53 e8 74 3c 7e 30 a5 3d e1 da 30 3e
       0.11016465 0.014947969 0.0806589 0.17270996
0000a0 bf 69 4d 3d f1 88 79 bd da fa 70 3c 51 c6 31 3e
       0.050149675 -0.060921613 0.014708245 0.17360808
0000b0 7a 7d 8b be a9 51 06 bd 41 97 2d 3e 42 7a e9 3c
       -0.2724417 -0.03279272 0.1695223 0.02850068
0000c0 6f 70 7b be fe a5 47 3c 42 b2 ea 3b 7a 37 cd bd
       -0.24554609 0.012185572 0.0071623633 -0.10020347
0000d0 7e 6b d8 3d 7c f1 80 bd 00 de ff 3b 06 2d 0a 3e
       0.105673775 -0.062960595 0.007808447 0.13493738
0000e0 87 06 df bd e7 7b 1d 3e e8 6d 85 3d de b9 7a 3d
       -0.10889917 0.15379296 0.065151036 0.061212413
0000f0 84 5b 6b 3e f4 82 4e 3e 31 3c d1 3d 6c ae e2 3d
       0.22984129 0.20167142 0.10216559 0.110684246
000100 21 a4 07 be 55 78 16 3e a0 f6 2c bd 51 02 58 be
       -0.13246204 0.1469434 -0.042227387 -0.21094634
000110 5f f2 14 be c0 9b 1b be b9 c7 ca 3c 0d cb 05 bd
       -0.14545582 -0.15196133 0.024753438 -0.032664347
000120 62 2d cf 3d d4 e0 13 be 90 47 b8 bd a7 43 1c 3c
       0.10116078 -0.14441234 -0.089980245 0.009537614
000130 eb 9b cd bd 61 2e ba bd 1e 6c 23 bd fb 66 f8 3c
       -0.100395046 -0.09090877 -0.03989803 0.030322542
000140 0c bd 05 3e 91 22 64 3d e3 fb 23 3e 1f 49 33 be
       0.13060397 0.055697028 0.16014056 -0.17508362
000150 74 ae 81 3d 84 4b fe 3d 78 a4 ed bd b9 c4 ea 3d
       0.063321024 0.12416747 -0.116036355 0.11463303
000160 29 e1 ba 3e 9f 2f 0e be b5 64 41 bd 1f 64 86 3e
       0.3649991 -0.13885354 -0.047215182 0.2624826
000170 e7 d3 18 3d 4f 18 95 bd e1 76 f6 bd 43 19 6f 3d
       0.03731146 -0.07280027 -0.12034393 0.0583737
000180 14 52 a4 3b 09 dc 54 be b9 de a3 be d3 18 0d bd
       0.0050146673 -0.20787062 -0.3200586 -0.034447502
000190 8e 11 2d be a5 41 14 3e 8e 27 1e bd a7 90 19 be
       -0.16901228 0.14478166 -0.03861194 -0.14996587
0001a0 8e bc 2b 3c b1 0c df bc 6e d7 9d be 35 81 8a bb
       0.010481967 -0.027227731 -0.30828422 -0.0042268285
0001b0 a4 15 92 bd ff 58 72 3d 27 d1 3e be d0 50 0c 3e
       -0.07133034 0.059166905 -0.18634473 0.13702703
0001c0 b7 39 fc 3d 78 ea eb 3c 8c b2 10 be 8b 47 1d 3d
       0.12315696 0.028798327 -0.1413061 0.038398307
0001d0 10 2c a8 3d ec 0e db 3d 9f de 81 3d 8a 66 49 bd
       0.08211529 0.106962055 0.0634129 -0.049170054
0001e0 2c 8a a7 bd bd cf 20 bd fb b3 c1 3d 5b b5 e6 bb
       -0.08180651 -0.039260615 0.09458157 -0.007040662
0001f0 60 c3 8e be 67 e0 91 bc fd 36 26 3d 91 92 4c 3c
       -0.27883434 -0.017807199 0.040579785 0.012486116
000200 d7 55 42 bd 9e e7 25 3e a5 7e 50 3e 46 7e a9 bd
       -0.047445145 0.16201636 0.20360811 -0.08276038
000210 7a 29 00 3e 71 12 0b 3e b4 df 64 bd 9f a3 1d bd
       0.12515822 0.13581254 -0.055877402 -0.03848612
000220 29 11 fa bc 2d 23 37 bb db f2 bb 3d 81 29 5e 3d
       -0.03052576 -0.002794455 0.091771804 0.0542388
000230 4f 48 1b bc 3e 80 b3 3d e9 c3 cb bd f4 e4 da bd
       -0.009477689 0.08764695 -0.09949476 -0.106882006
000240 7c 82 d7 bd 60 e7 5a bd 23 cd 2b be 2d 7d 42 bd
       -0.10522935 -0.053443313 -0.16777472 -0.04748266
000250 9d 93 09 3e 00 1b 2a b9 8c 03 46 3e 03 97 9e 3b
       0.13435216 -0.00016222522 0.1933729 0.0048397793
000260 ea 77 f2 bc 85 a5 10 3e 0a b3 36 bd 09 b7 ac bb
       -0.029598195 0.1412564 -0.04460434 -0.005270843
000270 45 55 30 be 72 b4 7c 3e 50 0b 0a bc c2 4a 8b 3e
       -0.17220028 0.2467821 -0.008425549 0.27205473
000280 4f 03 1e 3d 05 0a 21 3d d7 eb 92 bd 36 88 f0 3d
       0.038577374 0.039316196 -0.07173889 0.1174473
000290 da c4 c9 bd 92 80 43 3e cd 7a da bb 23 16 90 bd
       -0.098519996 0.19092014 -0.006667471 -0.07035472
0002a0 25 15 9a 3c 58 a2 ee bc 12 5e 1b bd 54 d3 81 bb
       0.01880891 -0.029130146 -0.03793151 -0.00396196
0002b0 bf 08 56 3d 43 82 76 3b 4d 4b bc bb 36 c7 19 bc
       0.052254435 0.0037614263 -0.0057462812 -0.0093858745
0002c0 b7 11 f0 3d 30 8f 4c bd cc 15 75 bd 56 47 aa 3d
       0.11722129 -0.04994124 -0.05983524 0.083143875
0002d0 d0 d9 c0 3d 8f f5 05 3e 06 b5 9a bd ef f2 a7 bd
       0.094165444 0.13081954 -0.07554059 -0.08200633
0002e0 09 5d 95 be 53 7d 7c bd 26 6b 1b 3e b9 d3 e6 bc
       -0.29172543 -0.061642956 0.15177593 -0.02817713
0002f0 05 4c 59 be d6 c8 b3 3d 98 24 2e be 8a b4 c6 3e
       -0.21220405 0.08778541 -0.17006147 0.38809615
000300 5a 45 27 3e 71 09 bc 3c e6 56 b5 b9 37 77 d9 bd
       0.1633505 0.02295372 -0.00034587755 -0.106184416
000310 7d 2c 27 3e 9c 7b 46 bc d9 c1 6c bd 62 19 b4 3d
       0.16325565 -0.012114432 -0.057802055 0.08793904
000320 70 04 14 3d d8 b3 c5 bb 33 53 90 b8 1b 6c d0 bd
       0.036137044 -0.006033402 -6.881952e-05 -0.101768695
000330 a8 0e 03 bd ab 54 b7 bd 37 6d 8a bd 23 61 68 bd
       -0.0319964 -0.08951696 -0.06759112 -0.05673326
000340 43 e1 b8 bd 92 61 ca bd bd f8 03 3d ad c3 b7 bd
       -0.0902734 -0.09881891 0.032219637 -0.08972869
000350 c8 0c a5 3c 37 5f 6a bd 2f 39 c2 bc b7 e9 01 be
       0.020147696 -0.05721971 -0.023708908 -0.12686811
000360 20 c9 e8 bd 4f a0 db bd 87 37 18 3d e1 ef fd bd
       -0.113664865 -0.10723936 0.03716233 -0.12399269
000370 02 72 91 bd fc e2 96 bd c4 b5 ec 3c 69 61 98 39
       -0.071018234 -0.073675126 0.028895266 0.00029064275
000380 9c 0f d9 bd 20 e5 f5 bc 23 38 27 bd e3 83 b3 bd
       -0.105986804 -0.030016482 -0.04082502 -0.0876539
000390 8d 49 98 3d ca 0f f3 bb e5 c1 f2 bd aa 40 8c 3d
       0.07435904 -0.0074176537 -0.11853389 0.06848271
0003a0 11 92 8c 3d b2 67 a8 3c cc 4e 71 3d 91 52 b8 bb
       0.068637975 0.020557258 0.058913037 -0.005625077
0003b0 99 f7 52 3c e3 cb bd bd ad 96 8e bd 3c 5d 2b bb
       0.012876415 -0.09267404 -0.06962333 -0.0026148101
0003c0 9a 79 00 3d 3f fd b2 bd 15 80 c9 3d ee f1 e3 bc
       0.03136597 -0.08739709 0.09838883 -0.027825322
0003d0 3b dc a2 bd 63 c5 8d bd a0 cf 9f bd 73 71 14 3c
       -0.07952162 -0.06922414 -0.07803273 0.0090602515
0003e0 aa 73 18 bd cd 26 9f 3d 74 f0 07 bd 2c fb 9f bc
       -0.03721968 0.077710725 -0.0331883 -0.019528948
0003f0 3a 6e e9 bd b4 83 cb bd 18 b6 a7 3d f8 83 c3 bd
       -0.11397977 -0.0993723 0.081890285 -0.095466554

4.bias f4 [100]
000000 ee b8 88 3e 0f 68 55 bc 98 7b 82 bd 11 95 42 bc
       0.2670359 -0.013025298 -0.0637123 -0.0118763605
000010 16 7a 30 3e 70 ea fa 3d 65 14 f6 3d 79 98 59 3d
       0.17234072 0.12251747 0.12015609 0.053123925
000020 f7 9c bf bd 75 fb 35 3e 8a 7f 73 3d 45 8d 2d 3b
       -0.093561105 0.17771704 0.059447803 0.0026481908
000030 84 b4 bd bd b4 0c 09 bd 62 c8 30 bc 13 90 aa 3e
       -0.09262946 -0.03345938 -0.0107899625 0.33313045
000040 99 dc 11 be 48 21 b1 3b d8 73 8d bd 80 b6 e7 3d
       -0.14244308 0.0054055788 -0.06906861 0.11314106
000050 e3 73 ba 3e 42 f7 8f 3d 22 ef b0 3c 4f 11 c2 3a
       0.3641654 0.070295826 0.021598402 0.0014806184
000060 20 84 bd bc 4a b0 05 3e 0d d9 f0 3d 79 e1 2e be
       -0.023134291 0.1305553 0.11760149 -0.17078198
000070 75 0d ef 3c 67 8f 74 be 75 83 e2 3d 2a 96 b4 be
       0.029181222 -0.23882829 0.1106023 -0.35270816
000080 1a ce 23 3c e2 61 66 3e 9d db 09 3e 78 90 08 be
       0.009997869 0.22498277 0.13462682 -0.1333636
000090 ed 7b 8c be 6e 32 7e 3e 2f 67 25 3f b0 9e 44 be
       -0.27438298 0.24823925 0.6461057 -0.1920116
0000a0 3f f6 03 3c 09 7f b0 bc be 44 c5 3d 8a 26 31 3e
       0.008054315 -0.02154495 0.09632252 0.17299858
0000b0 78 29 0c 3e 04 ad 0a 3e d3 8a 1b bd dd ee 9b bd
       0.13687694 0.13542563 -0.03797419 -0.07613919
0000c0 c7 32 87 3e bb 48 7a bd a8 03 8c be 5e ba f3 bd
       0.26405928 -0.061104517 -0.2734654 -0.11900781
0000d0 41 2f b1 3d ba 25 f1 3d c3 3d 1d be 65 3b 35 3e
       0.08651591 0.11774774 -0.15355591 0.17698438
0000e0 b6 5c ae 3c 85 ea 2f be b3 27 ba bd 08 90 fb bd
       0.021284442 -0.17179306 -0.09089603 -0.12283331
0000f0 1f 3a c0 bc ea c0 8e 3d f2 48 cf 3d b8 29 84 bc
       -0.023465214 0.06970389 0.10121335 -0.016133174
000100 c3 9b 4e be 6f b1 80 be 99 4c d1 3d a1 67 e8 3d
       -0.20176606 -0.2513537 0.10219688 0.11347891
000110 76 19 6e bd fe 49 35 3e 86 10 50 3e 70 c0 e5 3e
       -0.05812975 0.17704007 0.20318803 0.4487338
000120 e1 5f 7a be b5 54 49 3d 72 82 e7 3c e0 dc bc bd
       -0.24450637 0.04915305 0.028260443 -0.09221816
000130 c6 bb 39 bd 7b c6 00 3c 16 f9 0a be cb 46 13 3e
       -0.04534509 0.007859821 -0.13571581 0.14382474
000140 23 fe 17 3e e7 46 cf bd df a8 cd bd 4b c1 9d be
       0.14843039 -0.101209454 -0.10041975 -0.30811533
000150 24 21 9e 39 82 54 8e bb 02 78 00 3e ee d5 e6 bc
       0.000301608 -0.00434357 0.1254578 -0.028178181
000160 f6 23 13 3d 2b fa 7e 3b 5d 4f 9e bd b6 14 ad 3e
       0.035922967 0.0038906436 -0.07729981 0.33804864
000170 89 0a ae 3e 83 9f 61 bd 92 f5 97 3e 78 d9 a9 3e
       0.33992413 -0.055083763 0.29679543 0.33173728
000180 84 25 f6 3d 19 cd a2 3d 5a 58 2f be 3a a7 76 bc
       0.12018874 0.079492755 -0.17123547 -0.015054518

6.weight f4 [157, 100]
000000 9c e0 14 be a5 07 8b 3d 72 d0 97 3b bd 9d 3f bc
       -0.14538807 0.067885675 0.004633003 -0.011695323
000010 74 11 00 3d 4d 03 66 bd f1 ec 36 ba 16 89 5d bd
       0.031266645 -0.05615549 -0.0006978056 -0.054085813
000020 90 2d 87 3d 34 05 93 bd 2f ad b7 bd 91 0a 74 3b
       0.06600487 -0.07178727 -0.08968579 0.0037237743
000030 90 e6 7e 3b 12 fc 6f 3d e4 72 c7 bc 19 a9 46 3d
       0.003889475 0.058590002 -0.024346776 0.048501108
000040 15 dc 7b be da f5 8f 3d f8 b0 bb bd c0 01 f5 bc
       -0.24595673 0.07029314 -0.091646135 -0.029908061
000050 80 b5 9b 3d a2 5e 60 be 2f ac f9 be 0a 66 0a be
       0.07602978 -0.219111 -0.48764178 -0.13515487
000060 4a da 1e bd eb 0a c2 be c9 bf e2 bb 2a 1a 61 3d
       -0.038782395 -0.37898955 -0.006919835 0.054956593
000070 19 65 52 3c e7 a0 d2 bb a1 85 5d 3d 03 c3 00 bc
       0.012841486 -0.0064278725 0.054082517 -0.007858994
000080 b5 cb c8 3a 28 35 3b be 9a 25 ef bd 2c d0 42 3e
       0.0015319498 -0.18281996 -0.11677094 0.19024724
000090 89 c5 ef 3d 28 e4 93 be 56 e0 14 3b 1d 4c 96 3d
       0.11707599 -0.28885007 0.0022716722 0.07338736
0000a0 d4 3a a0 3a ec 2d 20 3d c1 cc a6 3c 88 6e 0f be
       0.0012224563 0.039106295 0.020361306 -0.14007008
0000b0 ed 16 8b 3d 56 65 09 be b2 9e dc 3c 83 89 81 3d
       0.06791482 -0.13417563 0.02693114 0.063250564
0000c0 e8 8f 8c be 05 33 fe bd dc dc 16 bc 62 49 b0 3d
       -0.27453542 -0.12412075 -0.00920793 0.08607747
0000d0 53 8a 06 bc ce af c6 bc a5 b6 79 bd 48 30 84 be
       -0.00821169 -0.024253752 -0.0609652 -0.25818086
0000e0 20 2d 11 bd ed 92 f0 bd 2d 48 8a 3e 52 1f 72 3d
       -0.035443425 -0.11746774 0.2700819 0.0591119
0000f0 8d 11 ee bc f0 16 95 3d df a8 1e 3c 7a 94 a9 3d
       -0.029061103 0.072797656 0.009683817 0.08280273
000100 6a eb 92 bd 67 29 c9 bb a3 c5 1d 3c 4c c5 17 3d
       -0.07173808 -0.0061389687 0.00962964 0.03705339
000110 28 e5 a8 bd a3 d1 13 3e 6b df 94 3d 94 62 09 3d
       -0.08246833 0.14435439 0.07269176 0.033541277
000120 31 f7 9d bd 4a 46 28 3e 02 84 41 bd b5 95 8f 3d
       -0.07713164 0.16433063 -0.047245033 0.07010976
000130 bb 35 f4 bc 1b 78 87 bd 7b 52 90 bc 90 99 30 be
       -0.029810777 -0.06614705 -0.017617455 -0.1724608
000140 00 b9 f2 bb 8d c2 ab bd b4 f6 8d 3d ac 10 a5 3c
       -0.0074073076 -0.08386717 0.069318205 0.020149551
000150 fb c0 9c 3d 6e 55 cb 3d aa de 7c 3d 85 67 17 bd
       0.076539956 0.09928404 0.061735786 -0.03696396
000160 0a 7e 6a bd de 88 bb bd a8 4f 3d 3d 05 f2 0e be
       -0.057249106 -0.09156965 0.046218544 -0.1395951
000170 52 a3 9c 3d bc 37 67 3c 03 2c 05 bd 2b 3f 54 3e
       0.076483384 0.014112409 -0.032512676 0.20727222
000180 c2 5d 5c bb 08 04 c1 3d 0c ff a2 bc af 61 de 3d
       -0.003362522 0.09424597 -0.019897006 0.108584754
000190 1b 57 4f 3d 20 e1 7e 3b 6f ad 8b 3c 56 61 95 bd
       0.05062018 0.003889151 0.017050473 -0.07293956
0001a0 66 77 22 3e 06 5e 16 be 04 47 6f be b2 35 a3 bb
       0.1586586 -0.14684305 -0.23366934 -0.004980766
0001b0 f5 7a c3 bd 10 03 29 3e 96 3d a3 bd 3c 07 17 bd
       -0.095449366 0.16505075 -0.07970731 -0.036872134
0001c0 1d a9 cd bd f3 98 2d be 1a 5e aa 3d 14 d0 08 3c
       -0.100420214 -0.16952877 0.0831873 0.008350391
0001d0 a6 6b 0d 3e dc 9a 8c be 20 14 7b 3e 3e 1d 0f 3d
       0.13810596 -0.27461898 0.24519396 0.034939997
0001e0 e6 26 ae 3d b8 d1 ab bc d6 e6 16 3e 81 ba 9f bd
       0.08503513 -0.020974025 0.14736494 -0.07799245
0001f0 f1 59 bb 3d 7d bb d4 be f8 4a ba be 61 81 83 3d
       0.09148014 -0.41549292 -0.36385322 0.064211614
000200 88 3b d0 3d 46 ea 59 bd e7 fb a0 bd f8 fa 09 be
       0.10167605 -0.053201936 -0.078605466 -0.13474643
000210 f4 16 75 ba 6f 98 cc 3c f2 f3 bd be de e3 bb bd
       -0.00093494286 0.02497503 -0.37100178 -0.091743216
000220 a6 a6 01 3e 54 2d db bd fa d0 6b be 2c b8 f3 be
       0.12661228 -0.10702005 -0.23028937 -0.4760145
000230 7d 45 21 be 52 b9 71 bd f3 cc b8 be a0 45 f8 3d
       -0.15749164 -0.059014626 -0.36093864 0.12122655
000240 52 5f 83 bc 41 74 99 3d 12 33 32 3b de 49 00 3d
       -0.016036663 0.07492877 0.0027191085 0.031320445
000250 e6 11 ac 3d 34 f6 50 bc 5e 8c 02 be 96 28 d5 3d
       0.08401851 -0.012754012 -0.12748858 0.10408132
000260 85 22 2e 3d c4 f7 ca be e2 d1 f2 3d 09 dd fa 3c
       0.04251339 -0.39642155 0.11856438 0.030622976
000270 b9 d5 5b 3c 48 5a 9a 3d db 1c 6f bd 92 85 08 3d
       0.013417655 0.07536751 -0.058377128 0.033330508
000280 7f f0 4b 3e 36 96 03 3e 77 7d b6 bd 6c df 3f bd
       0.1991596 0.1285027 -0.08910649 -0.04684393
000290 ad f7 77 3e c8 19 77 be 3a 68 b0 bc 9f 4d 0a 3e
       0.24215575 -0.24130929 -0.021534074 0.13506173
0002a0 00 8f ac bd 44 45 75 bd 98 a7 92 be d3 fe 68 3e
       -0.084257126 -0.05988051 -0.2864349 0.22753458
0002b0 98 b4 42 3d 70 8c 32 be 3b 32 43 3d b4 85 3c bd
       0.04753551 -0.17436385 0.047655325 -0.046025947
0002c0 13 a7 c3 3d 32 32 d1 3d 3a 7e be bc 8a 47 2b 3e
       0.09553351 0.10214652 -0.023253549 0.16726509
0002d0 7d 7e a8 be 3f 75 04 3e f6 25 f0 39 a9 70 43 bc
       -0.32909003 0.12935351 0.0004580465 -0.011928716
0002e0 84 1c 89 3d 80 dc 0e bb 0d 75 c3 be fc 4d 70 bb
       0.06694892 -0.0021798909 -0.3817524 -0.0036667576
0002f0 90 d1 f8 3d 6a 42 72 bb 0f ef 66 bd 98 5f 53 3d
       0.12149346 -0.0036965855 -0.056380328 0.051604837
000300 33 c6 58 bc c9 ce 9c bd 8a 92 bd 3c e2 79 f2 3d
       -0.013230848 -0.07656629 0.023141164 0.118396536
000310 45 9e f7 3d bc f7 4d 3d c7 67 5a bb 02 a4 f5 bb
       0.120907344 0.050285086 -0.0033326016 -0.007496358
000320 b7 ae bd be 45 cd 84 3b 93 d6 a6 bd 00 80 fd bb
       -0.3704736 0.0040527903 -0.081463955 -0.007736206
000330 30 22 e4 be e3 af 94 3e 44 0e 27 3d 4b 52 11 3c
       -0.44557333 0.2904044 0.04078509 0.008869718
000340 58 c2 88 3d 4c 91 8d bd ab 0b 68 3d 52 14 32 3d
       0.06677693 -0.06912479 0.056651752 0.04347641
000350 60 ef 27 3e f0 d9 8a be 84 23 57 3d 5b bf e4 3c
       0.16399908 -0.27119398 0.052524105 0.027923277
000360 46 9e 70 3d 32 7d e0 3d 7f 36 c4 bb c9 90 d1 3d
       0.05874469 0.10961379 -0.0059879418 0.10232694
000370 93 17 70 bb 3f d5 01 3e 75 e6 86 3d 43 50 e7 ba
       -0.0036635145 0.12679003 0.06586925 -0.0017647821
000380 54 14 19 bc d1 2a 48 bc 28 80 6c 3d 4e 6c 90 3c
       -0.0093432255 -0.0122172395 0.057739407 0.017629769
000390 6a 1c a4 bc c0 12 4e 3d 9b a9 43 bd de a1 8c 3b
       -0.02003308 0.05031085 -0.04776917 0.004291757
0003a0 0c 7a 3c 3c 83 11 8c be bc e7 73 bd 52 72 0d 3e
       0.011503708 -0.2735711 -0.05954717 0.13813141
0003b0 8a 0e d3 bc 50 9d 59 3e 6c 94 8e bd 41 d1 65 bd
       -0.025763769 0.21251416 -0.06961903 -0.056107763
0003c0 22 7b 07 bd 90 c2 25 bd 39 4a 2b 3e 72 d0 f8 bd
       -0.033076413 -0.040468752 0.16727532 -0.12149133
0003d0 41 46 34 3e 60 b0 78 bc d8 0d 53 3c 76 c3 7d bc
       0.17604925 -0.01517877 0.012881719 -0.015488496
0003e0 db d3 93 3d 35 e9 43 be bd 38 1e bd 85 98 06 3e
       0.072181426 -0.1913193 -0.03862833 0.13144119
0003f0 95 ae 8f 3d 40 0c 91 3d 20 e0 fa bd 26 cd c3 bc
       0.07015721 0.070824146 -0.1224978 -0.023901533

6.bias f4 [157]
000000 a8 ae a4 3d 55 0e a6 bd 3d 79 e7 3d a6 b5 68 be
       0.080411255 -0.08108202 0.11302421 -0.22725543
000010 2f 2c bf bd 0f 75 65 be 78 d4 2b bd 38 1a c4 3c
       -0.09334599 -0.22407936 -0.041950673 0.023938283
000020 7b 79 73 bd f8 58 d1 3d 78 fa d7 bd 29 5a d9 3c
       -0.059442025 0.102220476 -0.1054582 0.02653225
000030 db 5f 3b bd d3 24 96 be 00 50 bf be 2a 4e eb 3c
       -0.04574571 -0.2932497 -0.37365723 0.028723795
000040 2c c8 1b bd 23 8b 26 3e 0c 4a 42 bd 3a 49 27 3e
       -0.038032696 0.16264014 -0.047433898 0.16336527
000050 80 fc ab 3c b9 fb 3c 3d 7c cb 27 be f5 aa 93 3e
       0.020994425 0.0461385 -0.16386217 0.28841367
000060 32 49 71 be 88 c8 05 3e 9d 62 07 bc 49 9e 4e 3e
       -0.23563078 0.13064778 -0.008263257 0.20177568
000070 9f f1 7d be 33 77 30 3e 90 d1 45 be cd 95 b7 bc
       -0.24799202 0.17232971 -0.19318223 -0.022410298
000080 60 ad e3 bd 64 2c 42 bd f9 c3 72 3d ad 94 fa 3d
       -0.11117053 -0.047405615 0.059268925 0.12235389
000090 66 d2 05 3d 8b 5d 91 3e 58 d3 7c 3d 4e 8d 84 bd
       0.032671355 0.2839168 0.06172499 -0.06472264
0000a0 1f 21 84 be 59 16 f8 bd 28 ff 07 3e b7 83 86 3d
       -0.2580652 -0.121136375 0.13280928 0.06568091
0000b0 d6 36 99 3c 02 99 82 3e ca 98 41 3e 2c 5f 34 3e
       0.018702906 0.2550736 0.1890594 0.1761443
0000c0 3c b5 09 3e b4 8c 50 3d aa 35 39 3c e7 d6 6b 3e
       0.13448042 0.050915435 0.011304298 0.23031197
0000d0 8e 8d 7c bc f7 1a b0 bc 58 22 a8 3d ea 5e d7 3d
       -0.015414609 -0.021497233 0.082096756 0.1051615
0000e0 79 88 8b be 72 4d 3e 3d 2b 9a 1f bd 8d 6b 03 be
       -0.27252558 0.046460576 -0.038965385 -0.12833996
0000f0 81 14 ba 3c 89 1b 36 3e bd a7 80 3e b8 15 a8 3d
       0.022714855 0.17783941 0.25127974 0.082072675
000100 10 7b bb bd 94 a4 1a bd ef d5 72 3e be 7b b4 bd
       -0.09154332 -0.03775461 0.23714422 -0.088126644
000110 91 d6 87 be bf f9 72 bd b2 65 74 3b 12 a2 0a 3e
       -0.2653089 -0.059320208 0.003729206 0.13538387
000120 0a 42 33 3e ea ad 4d bd a5 bf bd bd 55 5f 93 bd
       0.1750566 -0.050214685 -0.09265069 -0.071959175
000130 60 0d f2 bd 1f fe 21 be 45 2d 5a bd 6b 3b c4 bc
       -0.11818957 -0.15819596 -0.05326583 -0.023954114
000140 45 bd b7 bd 75 9a 63 bd 31 13 59 be 0a 43 d0 3d
       -0.08971647 -0.055567224 -0.21198727 0.10169037
000150 69 08 e1 3d fe 1a 2a 3e be 6b 7b 3d dd 0d 82 3e
       0.10987932 0.16611859 0.061382048 0.25401202
000160 9e da 5f 3e d1 f3 f5 bd dc b5 89 be d4 dc 90 3e
       0.2186074 -0.12009395 -0.2689656 0.28293478
000170 2e f5 a1 bc 46 9c 40 3e 44 9b 73 bd 41 87 83 be
       -0.019770231 0.18809614 -0.059474245 -0.25689128
000180 8e 95 1f 3d 86 24 8d bd ee e7 35 be fa 0f 51 bd
       0.038960986 -0.06891732 -0.17764255 -0.051040627
000190 e4 6b 06 3e 62 e6 b7 3d 99 c1 e4 bd 87 e0 42 3e
       0.13127095 0.08979489 -0.11169738 0.19030963
0001a0 eb 23 14 3d a3 36 9d 3c d3 9c 15 3e d4 d5 81 bd
       0.036167067 0.019191092 0.14610605 -0.063396126
0001b0 a3 02 ba bd 78 26 d9 bc 5b 7d 35 be 2a 8c e1 bd
       -0.09082534 -0.026507601 -0.177236 -0.11013062
0001c0 e1 f1 55 3d a3 36 00 bd 93 a9 98 3d fb 31 40 be
       0.052232627 -0.031302106 0.07454219 -0.18769066
0001d0 38 9a 6d bd d1 eb f0 bb e4 f2 45 bd 9c 47 91 bd
       -0.058008403 -0.0073523303 -0.04832734 -0.070937365
0001e0 aa 0e e2 3d ff 0f cc 3e 08 5a 03 bd 7c 41 37 be
       0.11037953 0.39855954 -0.032068282 -0.17896074
0001f0 55 2f 0e 3e 83 5b 1b be 36 c7 74 bd ef c8 01 3e
       0.13885243 -0.15171628 -0.059760295 0.12674306
000200 32 21 2d 3e 56 f0 e6 bd 92 7e 3e bd aa 8e ad bc
       0.16907194 -0.11276309 -0.046507426 -0.021186192
000210 a5 2a 33 be 8d 36 34 bd 2a da af bd f6 ef da bd
       -0.17496736 -0.043997336 -0.08586533 -0.106903
000220 89 80 73 3d 9a 88 e2 bd 39 a3 89 bc 77 53 ed 3d
       0.059448753 -0.11061211 -0.016801463 0.11588185
000230 2b d6 d6 3e 39 85 81 3d 78 e4 80 be 45 f5 28 3d
       0.41960272 0.06324238 -0.25174308 0.041249532
000240 90 97 4a bd 1b be 93 3d 67 55 69 be cb 33 f5 3d
       -0.049460948 0.07213994 -0.22786485 0.11972769
000250 e6 77 3a bc 89 26 e0 3d b6 4b 59 bd 41 1c 91 be
       -0.011381125 0.1094485 -0.05305072 -0.2834187
000260 15 c3 40 be 5c d1 e2 bd ef 53 94 bb cd 4b a2 3d
       -0.18824418 -0.110750884 -0.004526607 0.07924614
000270 bf 81 f3 3d
       0.118899815
