neura1/bestval_e6_weights.ckpt (torch, 399055 bytes, 8 tensors)

0.weight f4 [100, 630]
0	0xbc47ab61	-0.012186856
1	0x3cda34bf	0.02663648
2	0xbcdcadae	-0.026938286
3	0xbe868954	-0.26276648
4	0xbd3f729e	-0.046740167
5	0xbe3344a6	-0.17506656
6	0xbe871904	-0.26386273
7	0xbdbbe289	-0.091740675
8	0xbe9f4050	-0.31103754
9	0xbef478f2	-0.47748524
10	0xbeaeaea8	-0.34117627
11	0xbc1e4ff3	-0.009662616
12	0x3def11b1	0.11673296
13	0x3efaf226	0.4901287
14	0x3c9f75ea	0.019465405
15	0x3e0e096a	0.13870779
16	0x3e578059	0.21045054
17	0x3e997e63	0.29979238
18	0x3ced5150	0.028969437
19	0x3e81f9ae	0.25385803
20	0x3e548954	0.20755512
21	0x3ec6ec8e	0.38852352
22	0x3c9b2327	0.01893766
23	0x3dfb27d6	0.122634575
24	0x3e4b7eba	0.19872561
25	0x3eb061a3	0.3444949
26	0x3dfc2adf	0.123128645
27	0x3dcb5332	0.099279776
28	0x3e2286c1	0.15871717
29	0xbda9afe1	-0.08285499
30	0xbc53723d	-0.0129056545
31	0xbd4697d0	-0.048484623
32	0x3c8aba5c	0.016934566
33	0xbd9e78d7	-0.07737892
34	0xbceedcaf	-0.029157965
35	0xbd9aa3f2	-0.07550801
36	0xbde1b0b9	-0.11020035
37	0xbcd25240	-0.025673985
38	0xbe04cf66	-0.12969741
39	0xbe8fdb42	-0.28096968
40	0xbe6f7f86	-0.2338849
41	0xbd1b8080	-0.037964344
42	0x3d396412	0.04526145
43	0x3e8360c1	0.25659755
44	0xbc0751de	-0.008259265
45	0x3d530ead	0.051527668
46	0x3daa5712	0.083173886
47	0x3e5c21aa	0.21497217
48	0xbd50d786	-0.05098679
49	0x3e14e179	0.14539136
50	0x3da14978	0.07875341
51	0x3ea808af	0.32819125
52	0xbd675123	-0.056473862
53	0x3d835605	0.06412891
54	0x3dd8991a	0.10576077
55	0x3e7a06af	0.24416612
56	0x3d00b889	0.031425986
57	0xbbe90b35	-0.0071119317
58	0x3d6e4075	0.05816694
59	0xbdff80e9	-0.124757595
60	0x3c540791	0.012941257
61	0xb9a143d8	-0.0003075886
62	0xbab8572a	-0.0014064063
63	0xbdbc64bf	-0.09198903
64	0xbd7ce2af	-0.06173962
65	0xbd5e6630	-0.054296672
66	0xbdaeaf8e	-0.08529578
67	0xbb169007	-0.002297403
68	0xbe1729d2	-0.14762047
69	0xbe7b8719	-0.24563254
70	0xbe33fcd1	-0.1757691
71	0xbd0f48b7	-0.034981456
72	0x3d5c1468	0.0537304
73	0x3e8ceace	0.27522892
74	0x3d3bc426	0.04584136
75	0x3d7ed94c	0.06221895
76	0x3d900740	0.07032633
77	0x3e57f8c5	0.21090992
78	0xbc7e01f0	-0.015503392
79	0x3e28d403	0.16487126
80	0x3d9ba904	0.076005965
81	0x3e9ad7ea	0.30242854
82	0x3c301527	0.010747231
83	0x3d8207d2	0.06349148
84	0x3e15607b	0.14587586
85	0x3e76a138	0.24084938
86	0x3aeb0fd4	0.0017933794
87	0xbd0e68b9	-0.03476784
88	0x3c8d46ef	0.017245738
89	0xbd9d68c0	-0.07685995
90	0xbc6e1c1c	-0.014533069
91	0xbd8e36c9	-0.06944043
92	0x3c0e2894	0.008676667
93	0xbd099483	-0.033588897
94	0xbcc7ebfa	-0.024404515
95	0xbd55bcd0	-0.05218202
96	0xbd9b8054	-0.07592836
97	0xbd8ace81	-0.06777669
98	0xbe164913	-0.14676313
99	0xbe92a805	-0.28643814
100	0xbe2ea669	-0.17055668
101	0xbcbe85c3	-0.023257142
102	0x3d0e8c07	0.03480151
103	0x3e9e7fed	0.30956975
104	0x3d0b70a6	0.034042977
105	0x3d1662d4	0.036715344
106	0x3d9ebfa8	0.07751399
107	0x3e324e2c	0.17412633
108	0xbd245b1a	-0.040125944
109	0x3df0fca5	0.11766938
110	0x3db48753	0.088148735
111	0x3e98e1ee	0.2985987
112	0xbcd51c08	-0.026014343
113	0x3d3e92bd	0.04652666
114	0x3df65ee0	0.12029815
115	0x3e2e66c6	0.17031392
116	0x3bec628f	0.0072138975
117	0xbb3be648	-0.0028671194
118	0x3a5463d5	0.00081020343
119	0xbdacb225	-0.08432416
120	0xbcd9bc4b	-0.026579043
121	0xbd69acba	-0.05704949
122	0x3cb68668	0.022280887
123	0xbd58983b	-0.052879553
124	0xbd769d5a	-0.060208656
125	0xbdae11cb	-0.084994875
126	0xbdd60b6d	-0.10451398
127	0xbd5ed66a	-0.0544037
128	0xbdfb40ff	-0.122682564
129	0xbe93937a	-0.28823453
130	0xbe45c973	-0.19315128
131	0xbd0c0d82	-0.03419257
132	0x3d9e487d	0.0772867
133	0x3ea18b73	0.31551704
134	0x3c25ff28	0.010131635
135	0x3c9d949e	0.019235905
136	0x3d89322f	0.06699025
137	0x3e73eafe	0.23820111
138	0xbc5a1be1	-0.013312311
139	0x3e092dce	0.1339638
140	0x3dbc4a49	0.09193856
141	0x3e987778	0.29778647
142	0xbc7ede62	-0.01555595
143	0x3dd0c953	0.101946495
144	0x3deeeece	0.11666642
145	0x3e313d12	0.17308453
146	0x3c2c82e3	0.010529253
147	0x3c82f8e8	0.015987828
148	0x3d54cd4c	0.0519536
149	0xbdb9ce0e	-0.09072505
150	0x3cb4fc4c	0.02209296
151	0xbd4fc354	-0.05072339
152	0x3c5b39a2	0.01338044
153	0xbdc363d2	-0.095405236
154	0xbd785f07	-0.0606375
155	0xbda32ee1	-0.07967926
156	0xbdf7afdb	-0.12094089
157	0xbd946af4	-0.07246962
158	0xbde33e40	-0.110958576
159	0xbe8d7106	-0.27625293
160	0xbe41d4d6	-0.18928847
161	0xbcf89388	-0.030343786
162	0x3dd76f20	0.10519242
163	0x3e980232	0.29689175
164	0x3cd907eb	0.026493033
165	0x3c89475f	0.016757665
166	0x3d20c47f	0.039249893
167	0x3e7cac4c	0.24675101
168	0xbd7eb732	-0.062186427
169	0x3e23797a	0.15964308
170	0x3dd0017e	0.101565346
171	0x3e556e9c	0.20842975
172	0xbc665eb5	-0.014060666
173	0x3d50a942	0.050942667
174	0x3e0cca3d	0.13749023
175	0x3e371946	0.17880735
176	0xbd1fcd50	-0.03901416
177	0xbd4f075f	-0.05054414
178	0x3d4c0118	0.04980573
179	0xbdc68ba7	-0.09694605
180	0x3d0f7e25	0.03503241
181	0xbd57d77b	-0.052695733
182	0x3d23998b	0.03994135
183	0xbdb52408	-0.08844763
184	0xbc8b7631	-0.017024131
185	0xba8ef1e6	-0.0010905832
186	0xbdb09dcf	-0.086238496
187	0xbd38ef48	-0.04515007
188	0xbe2e2a90	-0.17008424
189	0xbea9e91a	-0.33185655
190	0xbe598c4e	-0.21244928
191	0xbd1b26db	-0.037878852
192	0x3d7c99e3	0.061670195
193	0x3e9b24db	0.30301556
194	0x3cf092ef	0.029366938
195	0x3d519256	0.051164947
196	0x3db50bc1	0.088401325
197	0x3e298351	0.16554
198	0xbcd90f04	-0.026496418
199	0x3e39ba8c	0.18137568
200	0x3e1c2628	0.1524893
201	0x3e85082a	0.2598279
202	0xbcac859f	-0.02105981
203	0x3d53621c	0.051607236
204	0x3df3c4d9	0.1190278
205	0x3e4d6e62	0.20061639
206	0xbcd85fec	-0.026412927
207	0x3b660234	0.0035096528
208	0x3cd9810a	0.026550788
209	0xbe128d8a	-0.14311805
210	0xbb8b19f2	-0.0042450363
211	0xbcb4c4f3	-0.022066569
212	0x3c6f03a3	0.014588269
213	0xbd6c8cd9	-0.05775151
214	0xbd8bf8e9	-0.06834585
215	0xbd59d988	-0.05318597
216	0xbe069136	-0.13141331
217	0xbdb61a5f	-0.08891749
218	0xbe0ca860	-0.13736105
219	0xbea92a04	-0.33039868
220	0xbe5c123e	-0.21491334
221	0xbd37ac5d	-0.044842113
222	0x3d95444b	0.072884165
223	0x3eaaa3c6	0.33328074
224	0x3d173b9c	0.036922082
225	0x3d984a3d	0.07436035
226	0x3da9cc53	0.08290925
227	0x3e84c5d3	0.25932178
228	0xbd2b95ef	-0.041891035
229	0x3e168126	0.14697704
230	0x3de1fa8d	0.11034117
231	0x3e7d886b	0.2475907
232	0x3b740f83	0.003724069
233	0x3de6f081	0.11276341
234	0x3de8befe	0.11364554
235	0x3e830348	0.2558844
236	0xbd8d2fd0	-0.06893885
237	0xbce63140	-0.028099656
238	0xbcd54830	-0.026035398
239	0xbe0500f4	-0.12988645
240	0x3c1b3346	0.009472674
241	0xbd3788e7	-0.044808295
242	0x3caba441	0.020952346
243	0xbdbb9048	-0.09158379
244	0xbd06777c	-0.032828793
245	0xbd56788d	-0.05236106
246	0xbdcc24fd	-0.099679925
247	0xbdbc74ab	-0.0920194
248	0xbe2b41cd	-0.1672432
249	0xbe9d1c85	-0.3068582
250	0xbe52d9d2	-0.20590904
251	0xbc5430b1	-0.012951062
252	0x3da7b007	0.081878714
253	0x3e9cec0f	0.30648848
254	0x3ddb88fe	0.107194886
255	0x3d78f035	0.060775954

0.bias f4 [100]
0	0x3dbcc62a	0.09217484
1	0x3cb40c40	0.021978498
2	0x3bd37f1a	0.0064543607
3	0x3d017efa	0.031615235
4	0x3e13ee21	0.14446308
5	0x3dd19f14	0.1023542
6	0xbd9825fd	-0.07429121
7	0x3cabe8fb	0.020985117
8	0xbe7503ad	-0.23927183
9	0xbee23c6c	-0.44186723
10	0xbdf62c2f	-0.12020146
11	0xbe028905	-0.12747581
12	0x3cec72fe	0.028863426
13	0x3cf2c9b5	0.029637197
14	0xbd6f9e38	-0.0585005
15	0x3de66e89	0.11251552
16	0x3b810abe	0.003938048
17	0xbc391bf8	-0.011298172
18	0x3e8c361c	0.27385032
19	0x3e4ec5f8	0.20192707
20	0x3ecdfe2c	0.4023298
21	0xbd9d7f70	-0.076903224
22	0xbd9a8584	-0.07544997
23	0x3ecf8644	0.40532124
24	0x3d9ad69c	0.07560465
25	0x3c311a3f	0.01080948
26	0x3d8cb460	0.06870341
27	0x3e47c023	0.19506888
28	0xbdd8aff4	-0.105804354
29	0xbcbf2956	-0.02333514
30	0x3de3d9b2	0.111255065
31	0xbe104012	-0.14086941
32	0xbc528585	-0.012849216
33	0xbbf1f031	-0.0073833694
34	0x3ca3359b	0.019923022
35	0xbe6e5651	-0.23275115
36	0xbddb8f2d	-0.10720668
37	0xbe8e611d	-0.27808467
38	0xbccca5e6	-0.02498145
39	0xbd0c0e2a	-0.034193195
40	0xbc404da1	-0.011737258
41	0xbe01cbde	-0.12675425
42	0xbccd12be	-0.025033351
43	0xbc7cf1e7	-0.015438533
44	0x3cb15e34	0.021651365
45	0xbd639f9a	-0.05557213
46	0x3ae677b2	0.0017583279
47	0xbeb89103	-0.36048135
48	0xbd7129b3	-0.058877658
49	0xbe30fe9e	-0.17284629
50	0xbe6d5571	-0.23177125
51	0x3e6ddc0e	0.23228475
52	0xbcc93a49	-0.024563925
53	0x3e714877	0.235628
54	0xbd39b972	-0.04534287
55	0xbe28fc8a	-0.16502586
56	0xbd223788	-0.03960374
57	0x3e39a39c	0.18128818
58	0xbcab9551	-0.020945223
59	0xbc6d3f1d	-0.014480379
60	0xbb985181	-0.004648388
61	0xbe29ec2c	-0.16593999
62	0xbe471e2d	-0.19445105
63	0xbcc9dada	-0.02464049
64	0x3d6338bd	0.05547403
65	0xbd892f0d	-0.06698427
66	0xbc9bc7f1	-0.019016238
67	0xbc860bfb	-0.016363135
68	0xbeb8fe43	-0.36131486
69	0x3e0fd604	0.14046484
70	0xbf1030c8	-0.56324434
71	0x3cd619c7	0.026135338
72	0xbe836dfe	-0.25669855
73	0x3c9cdcf9	0.019148337
74	0xbabb8e68	-0.0014309408
75	0xbdb0fea4	-0.08642319
76	0xbcb16ed7	-0.021659298
77	0xbef62cb7	-0.4808099
78	0xbced8fdc	-0.028999262
79	0xbe0ae804	-0.1356507
80	0x3ccbaa4b	0.024861475
81	0x3d98b064	0.07455519
82	0x3e2d6d1f	0.16936158
83	0x3d6d10c6	0.057877325
84	0xbcfac6b2	-0.030612323
85	0x3e2c9d6b	0.16856925
86	0x3e11b142	0.14227775
87	0xbe3597a3	-0.17733626
88	0x3bfcdaa2	0.0077164927
89	0x3c221206	0.009891992
90	0x3e009ef2	0.12560633
91	0xbce7dab2	-0.028302524
92	0xbdf0c568	-0.11756402
93	0x3c309230	0.010777041
94	0xbce3e74a	-0.027820248
95	0xbec43d1a	-0.38327867
96	0xbde49006	-0.11160283
97	0x3e5f91f8	0.21833026
98	0xbe23b9bb	-0.1598882
99	0x3d235b8d	0.03988223

2.weight f4 [100, 100]
0	0xbe2b8589	-0.16750158
1	0xbdb83fca	-0.08996542
2	0xbc96ac0d	-0.018392587
3	0xbd5229c7	-0.051309373
4	0xbaaa0b69	-0.0012973371
5	0x3e139e5f	0.14415883
6	0x3da8941a	0.08231373
7	0xbd00b343	-0.031420957
8	0x3e34ca67	0.17655335
9	0x3cc0bd09	0.023527639
10	0x3c9e657c	0.0193355
11	0x3e427065	0.18988188
12	0xbe064be8	-0.13114893
13	0x3cdad371	0.026712151
14	0xbd0b1e7a	-0.03396461
15	0x3df3dafd	0.11907003
16	0x3cdd8aaa	0.02704366
17	0xbbf3c1b3	-0.007438862
18	0x3df743b2	0.12073459
19	0x3e0b0e04	0.13579565
20	0xbdda0871	-0.10646141
21	0x3dda7cf2	0.10668363
22	0x3d891e00	0.06695175
23	0xbe3378ec	-0.17526597
24	0x3d103fc8	0.035217077
25	0x3da5dcfd	0.08098791
26	0xbe00ea13	-0.12589292
27	0xbcba62e2	-0.02275223
28	0x3e0ac164	0.13550335
29	0x3ebbf913	0.36713466
30	0xbd8fabd9	-0.07015199
31	0xbd459c3d	-0.048244704
32	0x3d4d52fa	0.05012796
33	0xbda43f47	-0.08019882
34	0x3dfae0ff	0.12249946
35	0xbd995d83	-0.07488539
36	0xbe24d0b2	-0.16095236
37	0x3d070442	0.032963045
38	0xbd865667	-0.06559449
39	0xbd0fa7cd	-0.035072137
40	0x3d6e3080	0.058151722
41	0xbdff53c8	-0.12467152
42	0x3cc43acd	0.02395382
43	0xbdc56f57	-0.09640377
44	0xbd2873d3	-0.041126084
45	0x3d18fa1a	0.03734789
46	0x3cbd1f2d	0.023086155
47	0x3d86fa33	0.065906905
48	0x3e33e4f4	0.17567807
49	0x3d44d06c	0.04805033
50	0x3e1ce93c	0.15323347
51	0x3dc09fa6	0.094054505
52	0xbd875dcd	-0.06609688
53	0xbe77f8e4	-0.24216038
54	0xbd0ffaf9	-0.035151456
55	0xbe0e3907	-0.13888942
56	0x3d1375fc	0.03600119
57	0xbe0fdddc	-0.14049476
58	0xbdb3bc1d	-0.08776114
59	0xbd8aaefb	-0.06771656
60	0x3d9fa97a	0.07795997
61	0x3e0656d3	0.13119058
62	0x3d6af1b1	0.0573594
63	0xbddd4b88	-0.10805422
64	0x3e648063	0.223146
65	0xbe13ed2b	-0.14445941
66	0xbdbb0de1	-0.091335066
67	0x3d72ea3a	0.059305407
68	0x3e5f2a08	0.21793377
69	0x3cb70fa8	0.022346333
70	0x3dd945f1	0.106090434
71	0x3e68c635	0.2273186
72	0xbe210e92	-0.15728214
73	0xbe4d3db3	-0.20043068
74	0x3db93efa	0.09045215
75	0x3c5666b6	0.013086012
76	0x3b907267	0.004408169
77	0xbc5bc02e	-0.013412518
78	0x3cec8580	0.028872252
79	0x3b33ce74	0.0027436288
80	0x3d596957	0.053078976
81	0x3e6c1812	0.23056057
82	0x3de585d7	0.112071685
83	0x3dd7efbb	0.10543772
84	0x3dd33fed	0.10314927
85	0x3d9c6272	0.076359645
86	0xbe21d872	-0.15805224
87	0x3d65945a	0.056049682
88	0xbc61351a	-0.013745571
89	0xbd73aead	-0.059492756
90	0xba6b05fd	-0.0008965431
91	0xbd3da29d	-0.04629766
92	0x3e1bdc1c	0.15220684
93	0x3d952bc7	0.072837405
94	0x3ef7c55a	0.48392755
95	0x3d93882f	0.07203709
96	0x3d7e4e7e	0.062086575
97	0xbec83e5b	-0.39110073
98	0x3e8008af	0.25006625
99	0xbe758a41	-0.23978521
100	0x3d88dc8b	0.0668269
101	0xbca0f608	-0.019648567
102	0xbdb49063	-0.08816602
103	0x3db9e27e	0.09076403
104	0x3e53e7f7	0.20693956
105	0xbdf1892d	-0.11793742
106	0x3e9e9e64	0.30980217
107	0xbdcf7032	-0.101288214
108	0x3df5fc11	0.120109685
109	0xbd8c18ea	-0.068406895
110	0x3d953c86	0.072869346
111	0xbd17405f	-0.036926623
112	0xbc61ef66	-0.013789987
113	0xbd324ec7	-0.04353216
114	0x3e20ebf3	0.15715007
115	0xbe26e5a5	-0.1629854
116	0x3d95378e	0.07285987
117	0xbcfe470d	-0.031039739
118	0x3e0dc33d	0.13844009
119	0x3e1e2bf6	0.15446457
120	0xbe689307	-0.22712336
121	0x3e184daf	0.14873384
122	0xbe4e43bb	-0.20143025
123	0x3e0ec91a	0.13943902
124	0x3d5e8d3e	0.054333918
125	0xbcfee894	-0.031116761
126	0xbd95f24c	-0.07321605
127	0x3e32cc08	0.17460644
128	0x3e03a26b	0.12854926
129	0xbea70e82	-0.32628256
130	0xbd957c9e	-0.072991595
131	0x3dc570f2	0.09640683
132	0x3d14096e	0.036141805
133	0x3d8b869f	0.06812786
134	0xbcc191c3	-0.023629075
135	0xbcff2b8f	-0.0311487
136	0xb9ff377a	-0.00048678723
137	0xbe025c8b	-0.12730615
138	0x3cfdda93	0.030988013
139	0x3ca3f77f	0.020015476
140	0x3d66dd98	0.056363672
141	0xbd7b127a	-0.061296917
142	0xbb2223d2	-0.002474059
143	0x3cd40980	0.025883436
144	0x3cc95727	0.02457769
145	0xbe139faf	-0.14416383
146	0xbcf382e5	-0.029725501
147	0x3d9a2e97	0.075284176
148	0x3e5f3475	0.21797355
149	0xbddd227b	-0.10797592
150	0xbd9a9219	-0.07547397
151	0xbda85310	-0.08218968
152	0xbd1a6555	-0.037694294
153	0x3d71f035	0.05906697
154	0x3e12bebe	0.14330575
155	0xbd5b6441	-0.053562406
156	0x3d531b5f	0.051539775
157	0x3b901561	0.00439708
158	0x3c846de4	0.016165681
159	0x3bb27d63	0.005447076
160	0x3dd56db1	0.104213126
161	0x3c29e990	0.010370627
162	0x3dde2d7a	0.10848518
163	0x3e2d2d1f	0.16911744
164	0x3b57c76d	0.0032925264
165	0xbd6c68e2	-0.05771721
166	0xbc4b24d3	-0.012398916
167	0x3c958f6f	0.018256871
168	0xbe4e5ed9	-0.20153369
169	0xbd046af3	-0.032328557
170	0x3c8280c0	0.015930533
171	0x3cd91618	0.026499793
172	0x3de124a3	0.10993316
173	0x3d387424	0.045032635
174	0xbd42f71a	-0.047598936
175	0xbd0a71a6	-0.03379979
176	0xbdb97f8b	-0.0905753
177	0x3dffe1c0	0.1249423
178	0xbd219f7f	-0.039458748
179	0xbe3b5ba0	-0.18296671
180	0x3d7a8724	0.061164036
181	0xbd8108e9	-0.063005276
182	0xbd95b6aa	-0.07310231
183	0xbe043613	-0.12911253
184	0xbda1fee2	-0.07909943
185	0x3da83bb9	0.08214516
186	0x3e167385	0.14692505
187	0x3cf79800	0.030223846
188	0x3c0be69e	0.00853887
189	0xbd8dcdd0	-0.06924021
190	0x3e85808a	0.2607463
191	0x3d7ca714	0.061682776
192	0x3d8c2ea3	0.06844833
193	0x3d31b58e	0.043386035
194	0xbe81b11c	-0.25330436
195	0x3cbd5717	0.023112817
196	0x3d6ae71a	0.057349302
197	0x3e5c0af1	0.21488549
198	0xbdff9183	-0.12478926
199	0x3e7f74bc	0.24946874
200	0xbbd219dc	-0.006411774
201	0xbd9c3bfa	-0.07628627
202	0x3d7f9aea	0.062403597
203	0x3db402aa	0.08789571
204	0xbd7ea77d	-0.062171448
205	0xbd5626b7	-0.052283015
206	0x3d695126	0.056962155
207	0xbdc3e190	-0.09564507
208	0x3cdaefb4	0.026725627
209	0xbbf9d524	-0.0076242853
210	0xbb8149c8	-0.003945563
211	0xbdfaec29	-0.12252075
212	0xbd8557fc	-0.06510922
213	0xbd98be46	-0.07458167
214	0xbd8f2b84	-0.06990722
215	0xbd988bea	-0.074485615
216	0xbbc7d79a	-0.0060986998
217	0xbd9b0d2b	-0.07570871
218	0xbdc139c0	-0.09434843
219	0x3da8371c	0.08213636
220	0xbd15ddf8	-0.03658864
221	0xbda59eea	-0.08086951
222	0x3dc4aed8	0.09603661
223	0x3d026eef	0.031844076
224	0x3d1c27ff	0.03812408
225	0x3c2b5c5a	0.01045903
226	0xbcf0e9c1	-0.029408338
227	0x3d15191c	0.0364009
228	0x3d2fb8ec	0.042900965
229	0xbdbefc0b	-0.09325417
230	0x3cb91e83	0.022597557
231	0x3ce1e2e5	0.027574012
232	0x3db55ec0	0.08855963
233	0xbd9f851a	-0.07789059
234	0xbdd1064d	-0.1020628
235	0xbb85a1c1	-0.0040781205
236	0xbd8cb649	-0.06870706
237	0xbd64c42b	-0.055851143
238	0xbcd8ee40	-0.026480794
239	0xbd2aa3a3	-0.041659962
240	0xbd5d025d	-0.053957332
241	0xbd058c7f	-0.03260469
242	0xbd8c91a2	-0.06863715
243	0xbd75d92d	-0.060021568
244	0x3d96b225	0.07358197
245	0xbcda8ed0	-0.026679426
246	0x3da1cc45	0.079002894
247	0xbdfe048c	-0.12403211
248	0xbd1b7ae1	-0.037958983
249	0x3b1fa7d6	0.0024361513
250	0x3b81371b	0.0039433367
251	0xbcce661a	-0.02519517
252	0x3d32275d	0.04349457
253	0x3d79f554	0.06102498
254	0xbd7da1d4	-0.06192191
255	0xbc6c407a	-0.014419669

2.bias f4 [100]
0	0x3d57b30b	0.052660983
1	0x3e4fd698	0.20296705
2	0xbdca5e13	-0.098812245
3	0x3edc5bde	0.4303884
4	0xbdc14021	-0.0943606
5	0x3d1ae717	0.03781804
6	0x3cc59242	0.024117593
7	0x3e810473	0.25198707
8	0x3e3c1938	0.18368995
9	0xbda04a8a	-0.07826717
10	0x3e870519	0.26371077
11	0x3e15300d	0.14569111
12	0x3e184387	0.1486951
13	0x3c841fed	0.016128505
14	0xbecb1f5f	-0.39672372
15	0xbd6e2dfa	-0.058149315
16	0x3e8e6f54	0.27819312
17	0x3e2714fb	0.16316597
18	0xbcc51fa8	-0.024062946
19	0x3d7e711d	0.062119592
20	0x3d78c55c	0.06073509
21	0xbe024c08	-0.12724316
22	0xbce15286	-0.02750517
23	0x3dd3740e	0.1032487
24	0xbd10ce74	-0.03535314
25	0xbd6dfebe	-0.05810427
26	0x3d05f25b	0.03270183
27	0xbe99e64d	-0.30058518
28	0xbd4ec1ba	-0.05047772
29	0xbec029ce	-0.37531894
30	0x3df76045	0.12078909
31	0xbe091fac	-0.13390988
32	0xbe2b67f1	-0.16738869
33	0xbed16c43	-0.4090291
34	0x3ed67b30	0.4189086
35	0x3e5a36f9	0.21310033
36	0xbc9e6703	-0.01933623
37	0xbde14a9e	-0.1100056
38	0xbd8f1691	-0.06986726
39	0x3dab32a8	0.08359271
40	0xbdaad8ff	-0.0834217
41	0xbd414a2c	-0.047189876
42	0xbda695a8	-0.081340134
43	0x3e4d09c3	0.20023255
44	0xbe6323f3	-0.22181682
45	0x3e85730e	0.26064342
46	0xbe0a6da9	-0.13518395
47	0xbccc70a6	-0.024956059
48	0xbea5c6ae	-0.32378143
49	0x3d37b00e	0.044845633
50	0xbed165f3	-0.40898094
51	0xbe159e83	-0.14611249
52	0x3f03c83f	0.51477426
53	0x3e0854ae	0.13313553
54	0xbd8c23d8	-0.06842774
55	0x3e81599c	0.2526368
56	0xbe234b5b	-0.15946715
57	0x3ef8f2fd	0.48622885
58	0x3f46dfb4	0.77685094
59	0x3c929e47	0.017897738
60	0x3f1f12f5	0.621383
61	0x3e9ee76d	0.3103594
62	0x3ea64238	0.32472396
63	0xbc5f76cf	-0.013639166
64	0xbe1e71b0	-0.15473056
65	0xbe0e1270	-0.13874221
66	0xbc3df455	-0.011593898
67	0xbea723a4	-0.3264438
68	0xbe8e22db	-0.27760968
69	0xbe688b23	-0.22709326
70	0xbd9b1746	-0.075727984
71	0xbe8b0524	-0.2715236
72	0xbeb95170	-0.36194944
73	0xbea71df3	-0.32640037
74	0xbd2ccc90	-0.042187274
75	0xbbd96e9c	-0.0066355
76	0x3d25e84b	0.040504735
77	0x3d8f8533	0.070078276
78	0xbdda1d5d	-0.10650132
79	0x3eb77283	0.35829553
80	0xbe908895	-0.28229204
81	0xbe0bca40	-0.13651371
82	0xbec21687	-0.37907812
83	0xbe3d375e	-0.18478152
84	0x3dbf76e7	0.09348851
85	0x3e9fa812	0.31182915
86	0xbec1fe5d	-0.37889376
87	0x3d678d27	0.056531098
88	0x3df29b67	0.11846047
89	0xbebaf04b	-0.36511454
90	0x3bd2ef89	0.006437246
91	0x3f0a26ff	0.53965753
92	0xbebe781e	-0.37201017
93	0xbd9b1f68	-0.0757435
94	0xbe184d5f	-0.14873265
95	0xbddc1d85	-0.10747818
96	0x3e04070c	0.12893313
97	0xbe044a2e	-0.12918922
98	0xbe3b0038	-0.18261802
99	0xbd0da8ad	-0.03458469

4.weight f4 [100, 100]
0	0xbdebbf4d	-0.11511097
1	0x3de9789b	0.11399957
2	0xbdc31028	-0.09524566
3	0xbe778347	-0.24171172
4	0xbd0d1689	-0.03444532
5	0xbcefad11	-0.02925733
6	0x3deea535	0.116526045
7	0x3d5f1675	0.054464776
8	0x3d1f04a8	0.0388228
9	0xbe3ed066	-0.18634185
10	0xbde6539d	-0.11246417
11	0x3d5ee962	0.05442179
12	0xbcad6f1d	-0.021171147
13	0x3de912f9	0.11380572
14	0xbd38bcae	-0.045101814
15	0x3d5f2905	0.05448248
16	0xbd997fac	-0.074950546
17	0xbda00694	-0.07813755
18	0xbe1005fe	-0.14064786
19	0xbcfb715d	-0.030693704
20	0x3e0ca666	0.13735351
21	0xbeac3cc1	-0.33640102
22	0xbe62aa4a	-0.22135273
23	0x3e18c82b	0.14920108
24	0x3d50edd1	0.05100805
25	0x3cccc1b5	0.02499471
26	0x3dc9b353	0.098486565
27	0xbda440eb	-0.080201946
28	0x3d31dcfd	0.04342364
29	0x3db30500	0.08741188
30	0x3e8cde81	0.27513507
31	0x3d046e6f	0.03233188
32	0xbc7841a8	-0.015152372
33	0x3d342542	0.043980844
34	0x3e3e937c	0.18610948
35	0x3da9e27a	0.0829515
36	0x3dcb8cc4	0.09938958
37	0x3c74e853	0.014947969
38	0x3da5307e	0.0806589
39	0x3e2f5236	0.17121205
40	0x3d4d69bf	0.050149675
41	0xbd7988f1	-0.060921613
42	0x3c70fada	0.014708245
43	0x3e4875be	0.19576165
44	0xbe9aab9b	-0.3020905
45	0xbd7d61be	-0.061860792
46	0x3e29aed1	0.16570593
47	0x3ce97a42	0.02850068
48	0xbe8005d0	-0.25004435
49	0x3c47a5fe	0.012185572
50	0x3d01a31f	0.031649705
51	0xbdd2ddd0	-0.102962136
52	0x3de4dd0d	0.111749746
53	0xbd354fe3	-0.04426564
54	0x3bffde00	0.007808447
55	0x3e05f9c9	0.13083567
56	0xbe48cc5e	-0.1960921
57	0x3e451a03	0.19248204
58	0x3da84af4	0.08217421
59	0x3d8fb32b	0.070165955
60	0x3e83df41	0.25756267
61	0x3e43a915	0.19107468
62	0x3dba8316	0.09107034
63	0x3e0fdba5	0.14048631
64	0xbdf4d223	-0.11954143
65	0x3e2ad761	0.16683723
66	0xbc6481ae	-0.013946934
67	0xbe5e15ac	-0.21687955
68	0xbe1da33a	-0.15394297
69	0xbe1762a3	-0.1478372
70	0x3ccac7b9	0.024753438
71	0x3bb8b06e	0.0056362664
72	0x3dd6c6ff	0.10487174
73	0xbe374e18	-0.17900884
74	0xbdb84790	-0.089980245
75	0x3c1c43a7	0.009537614
76	0xbdfb3130	-0.12265241
77	0xbd943e90	-0.07238495
78	0x3b0d06af	0.0021518876
79	0x3cea0c3d	0.028570289
80	0x3dd39246	0.10330634
81	0x3d43a8c9	0.047768388
82	0x3e2d5aac	0.1692912
83	0xbe2ab163	-0.1666923
84	0x3a626f31	0.00086377846
85	0x3def2ecd	0.116788484
86	0xbe0c247f	-0.13685797
87	0x3de2f3e2	0.11081673
88	0x3ebb582c	0.36590707
89	0xbe00bd59	-0.1257223
90	0xbdd10757	-0.10206478
91	0x3e8fccf8	0.28086066
92	0x3d069df6	0.032865487
93	0xbd95184f	-0.07280027
94	0xbe1d1180	-0.15338707
95	0x3d6f1943	0.0583737
96	0x3c04c7f8	0.008104317
97	0xbe52a309	-0.20570005
98	0xbeacb8c8	-0.33734727
99	0xbcd34747	-0.025790824
100	0xbe54f9a4	-0.20798355
101	0x3e2ab0a6	0.16668949
102	0xbd1e278e	-0.03861194
103	0xbddd7571	-0.10813416
104	0xbbdcb851	-0.0067358394
105	0xbcdf0cb1	-0.027227731
106	0xbeafd5b5	-0.34342733
107	0xbcc1cb3c	-0.02365648
108	0xbd918e49	-0.07107217
109	0x3d547b40	0.051875353
110	0xbe3feaa3	-0.1874185
111	0x3e1f161c	0.15535778
112	0x3e1b5461	0.15168907
113	0xbc996ace	-0.018727686
114	0xbe246513	-0.16054182
115	0x3d3baeb7	0.045820918
116	0x3dc84833	0.09779396
117	0x3e2b8203	0.16748814
118	0x3dcf0c1a	0.1010973
119	0xbd902cb4	-0.070397764
120	0xbd94c6e3	-0.07264497
121	0xbd80ffa9	-0.06298763
122	0x3d6ae7c6	0.057349943
123	0x3dab9078	0.083771646
124	0xbea365af	-0.31913516
125	0xbc91e067	-0.017807199
126	0x3d677f7f	0.056518074
127	0x3b251fd4	0.0025195973
128	0xbc4f6ca9	-0.012660184
129	0x3e4428d8	0.19156206
130	0x3e875af2	0.26436573
131	0xbda97e46	-0.08276038
132	0x3e042457	0.12904488
133	0x3e0f9607	0.14022075
134	0xbd85aff4	-0.06527701
135	0xbdc5cdcc	-0.09658393
136	0xbd2b9fb2	-0.041900344
137	0xbb37232d	-0.002794455
138	0x3dbbf2db	0.091771804
139	0x3ca214c9	0.019785302
140	0xbc1b484f	-0.009477689
141	0x3db3803e	0.08764695
142	0xbdcbc3e9	-0.09949476
143	0xbe2d89a9	-0.16947044
144	0xbdb7cb63	-0.0897434
145	0xbc92f284	-0.017937906
146	0xbe58ff46	-0.21191129
147	0xbd427d2d	-0.04748266
148	0x3e1497e4	0.14511067
149	0xb92a1b00	-0.00016222522
150	0x3e296452	0.16542175
151	0x3c40d13c	0.011768635
152	0xbca471e9	-0.020073848
153	0x3e1f8979	0.15579785
154	0xbd36b30a	-0.04460434
155	0xbcb68612	-0.022280727
156	0xbe6e2550	-0.23256421
157	0x3e6df0dd	0.23236413
158	0x3bc365f8	0.0059630834
159	0x3e92d869	0.28680733
160	0x3d85f49f	0.065407984
161	0x3dc80f2b	0.09768518
162	0xbd51ed04	-0.051251426
163	0x3e1ccea0	0.15313196
164	0xbdc4f986	-0.09617905
165	0x3e428de8	0.18999445
166	0xbcf86b6b	-0.030324658
167	0xbda7eaf8	-0.081991136
168	0xbb168f33	-0.0022973537
169	0xbca48683	-0.020083671
170	0xbd1b5e12	-0.03793151
171	0xbd289112	-0.041153975
172	0x3d763b61	0.060115222
173	0x3b5d8b2a	0.0033804872
174	0xbbbc4b4d	-0.0057462812
175	0xbc19c736	-0.0093858745
176	0x3e086b4d	0.13322182
177	0xbd5e181c	-0.05422221
178	0xbc9e9eed	-0.019362891
179	0x3d58af21	0.05290139
180	0x3d9eb68c	0.07749662
181	0x3e52c817	0.2058414
182	0xbd1c2fa9	-0.03813139
183	0xbd9508b2	-0.07277049
184	0xbea8c74a	-0.32964545
185	0xbd66dd88	-0.056363612
186	0x3e14db12	0.14536694
187	0xbd2ec3b5	-0.04266711
188	0xbe804d2d	-0.2505888
189	0x3dc52aa7	0.09627276
190	0xbe3e9ad3	-0.18613748
191	0x3ed15b98	0.40890193
192	0x3e427038	0.1898812
193	0x3cbc0971	0.02295372
194	0x3b3eab00	0.0029093623
195	0xbdd97737	-0.106184416
196	0x3e3e8adc	0.18607658
197	0xbc8102b4	-0.01574836
198	0xbd92f733	-0.07176056
199	0x3db68373	0.08911791
200	0x3d140470	0.036137044
201	0xbbc5b3d8	-0.006033402
202	0xb8905333	-6.881952e-05
203	0xbdd06c1b	-0.101768695
204	0xbd030ea8	-0.0319964
205	0xbdb754ab	-0.08951696
206	0xbd8a6d37	-0.06759112
207	0xbd686123	-0.05673326
208	0xbdb8e143	-0.0902734
209	0xbdca6192	-0.09881891
210	0x3d03f8bd	0.032219637
211	0xbdb7c3ad	-0.08972869
212	0x3ca50cc8	0.020147696
213	0xbd6a5f37	-0.05721971
214	0xbcc2392f	-0.023708908
215	0xbe01e9b7	-0.12686811
216	0xbde8c920	-0.113664865
217	0xbddba04f	-0.10723936
218	0x3d183787	0.03716233
219	0xbdfdefe1	-0.12399269
220	0xbd917202	-0.071018234
221	0xbd96e2fc	-0.073675126
222	0x3cecb5c4	0.028895266
223	0x39986169	0.00029064275
224	0xbdd90f9c	-0.105986804
225	0xbcf5e520	-0.030016482
226	0xbd273823	-0.04082502
227	0xbdb383e3	-0.0876539
228	0x3d98498d	0.07435904
229	0xbbf30fca	-0.0074176537
230	0xbdf2c1e5	-0.11853389
231	0x3d8c40aa	0.06848271
232	0x3d8c9211	0.068637975
233	0x3ca867b2	0.020557258
234	0x3d714ecc	0.058913037
235	0xbbb85291	-0.005625077
236	0x3c52f799	0.012876415
237	0xbdbdcbe3	-0.09267404
238	0xbd8e96ad	-0.06962333
239	0xbb2b5d3c	-0.0026148101
240	0x3d00799a	0.03136597
241	0xbdb2fd3f	-0.08739709
242	0x3dc98015	0.09838883
243	0xbce3f1ee	-0.027825322
244	0xbda2dc3b	-0.07952162
245	0xbd8dc563	-0.06922414
246	0xbd9fcfa0	-0.07803273
247	0x3c147173	0.0090602515
248	0xbd1873aa	-0.03721968
249	0x3d9f26cd	0.077710725
250	0xbd07f074	-0.0331883
251	0xbc9ffb2c	-0.019528948
252	0xbde96e3a	-0.11397977
253	0xbdcb83b4	-0.0993723
254	0x3da7b618	0.081890285
255	0xbdc383f8	-0.095466554

4.bias f4 [100]
0	0x3e9a52b8	0.30141234
1	0xbcf30eb1	-0.029670091
2	0xbd827b98	-0.0637123
3	0xbcc27de6	-0.023741674
4	0x3e77d890	0.24203706
5	0x3e2cf168	0.16888964
6	0x3e07f7f4	0.1327818
7	0x3cff6dac	0.031180225
8	0xbdd30ff6	-0.10305779
9	0x3e614495	0.21998818
10	0x3d737f8a	0.059447803
11	0x3b2d8d45	0.0026481908
12	0xbd9ffd49	-0.07811982
13	0xbddba4ae	-0.107247695
14	0xbd649b35	-0.05581208
15	0x3ec4b6f4	0.38420832
16	0xbe2c01b1	-0.1679752
17	0x3c87dada	0.016583849
18	0xbd46a784	-0.0484996
19	0x3e1e07b5	0.15432627
20	0x3ec7eb64	0.39046776
21	0x3df25e14	0.1183435
22	0x3b12942b	0.0022366147
23	0xbc184639	-0.009294086
24	0xbd463f34	-0.04840012
25	0x3e861843	0.26190385
26	0x3e008576	0.12550911
27	0xbe2e6101	-0.17029192
28	0x3ce06819	0.027393388
29	0xbe9b08ed	-0.30280247
30	0x3de6db22	0.11272265
31	0xbed30f2a	-0.41222507
32	0x3ce1d841	0.027568938
33	0x3e5b7c9f	0.21434258
34	0x3dfb322f	0.12265431
35	0xbe3217ee	-0.17391941
36	0xbe9821b3	-0.2971321
37	0x3e93fad4	0.28902304
38	0x3f4ec816	0.80774057
39	0xbe75059f	-0.23927926
40	0xbcbb1750	-0.022838265
41	0xbcb07f09	-0.02154495
42	0x3dfc9141	0.123323925
43	0x3e51f371	0.20503022
44	0x3de74217	0.112919025
45	0x3e2988bd	0.16556068
46	0xbc774430	-0.015091941
47	0xbd9beedd	-0.07613919
48	0x3eaa5747	0.33269712
49	0xbdafb18b	-0.085787855
50	0xbea336b0	-0.3187766
51	0xbe36b9cd	-0.17844315
52	0x3db12f41	0.08651591
53	0x3d982e51	0.07430709
54	0xbe3faf3d	-0.18719192
55	0x3e4fdc7d	0.20298953
56	0x3cae5cb6	0.021284442
57	0xbe4f02ff	-0.20215987
58	0xbdd0adf2	-0.101894274
59	0xbdfb9008	-0.12283331
60	0xbbc9c055	-0.006156961
61	0x3df8b412	0.12143721
62	0x3ddc3cbf	0.10753774
63	0xbc8429b8	-0.016133174
64	0xbe86c2c4	-0.2632047
65	0xbe98d421	-0.29849342
66	0x3dd5a562	0.10431935
67	0x3dda96af	0.10673272
68	0xbd6e1976	-0.05812975
69	0x3e208c82	0.156786
70	0x3e7312aa	0.23737589
71	0x3f03a1cc	0.5141876
72	0xbe87f0ef	-0.26551005
73	0x3ce16a5a	0.027516533
74	0x3b8fcb8c	0.0043882784
75	0xbdbcdce0	-0.09221816
76	0xbd6b1ffd	-0.057403553
77	0x3c3d24dc	0.0115444325
78	0xbe0e8a78	-0.13920009
79	0x3e179647	0.1480342
80	0x3e299648	0.16561234
81	0xbdd8ef72	-0.105925456
82	0xbe2c33d7	-0.1681665
83	0xbeca552c	-0.39518106
84	0x3bca34e8	0.0061708577
85	0xbb7b9b71	-0.003839221
86	0x3d86d9f7	0.06584542
87	0xbce6d5ee	-0.028178181
88	0x3d304e95	0.04304369
89	0x3cc056f6	0.023478966
90	0xbdc2b9c6	-0.0950809
91	0x3ec3065a	0.38090783
92	0x3ebb6d95	0.36607042
93	0xbd96dc2b	-0.073662125
94	0x3ea41667	0.32048342
95	0x3ed7c961	0.42145827
96	0x3e0bc7b0	0.13650393
97	0x3de271ba	0.11056848
98	0xbe61ee86	-0.22063646
99	0xbd44df48	-0.0480645

6.weight f4 [157, 100]
0	0xbe42e227	-0.19031583
1	0x3d69ec02	0.05710984
2	0x3b97d072	0.004633003
3	0x3ccd70c6	0.025078189
4	0x3c872aff	0.016499994
5	0xbda33078	-0.07968229
6	0x3d62a531	0.05533332
7	0xbd1c71b0	-0.03819436
8	0x3d8b9f94	0.068175465
9	0xbe242762	-0.16030648
10	0xbdb7ad2f	-0.08968579
11	0x3b740a91	0.0037237743
12	0xbaa6adb9	-0.0012716568
13	0x3d5f29de	0.054483287
14	0xbd4d70ed	-0.050156523
15	0x3dbc4055	0.09191958
16	0xbe876ecd	-0.26451722
17	0x3d82ee77	0.0639314
18	0xbe13f683	-0.14449506
19	0xbc91cdc2	-0.017798308
20	0x3df264e3	0.11835649
21	0xbe919b07	-0.2843859
22	0xbf0294d9	-0.51008373
23	0xbe13695c	-0.1439566
24	0xbc1aa9c7	-0.009439892
25	0xbe9e42b5	-0.30910268
26	0xbb7dbe09	-0.0038718006
27	0x3d127743	0.035758268
28	0x3c3b3317	0.011425755
29	0xbccbdd3c	-0.024885766
30	0x3d5b9dd2	0.053617306
31	0x3c7c6a5a	0.015406216
32	0x3cc61478	0.024179682
33	0xbe084e8d	-0.13311215
34	0xbe0bc89e	-0.13650748
35	0x3e6f5873	0.23373584
36	0x3de8dad2	0.11369862
37	0xbe858a4e	-0.2608208
38	0xbce54e60	-0.027991474
39	0x3d78e15d	0.0607618
40	0xbcb4966a	-0.02204438
41	0x3d202dec	0.039106295
42	0x3d85d978	0.065356195
43	0xbe15a375	-0.14613135
44	0x3e169dc3	0.14708619
45	0xbe210d96	-0.15727839
46	0xbd919c6d	-0.07109914
47	0x3d818983	0.063250564
48	0xbebeaaef	-0.37239787
49	0xbe18329b	-0.14863054
50	0xbc221f44	-0.00989515
51	0x3db0643d	0.08612869
52	0xbc068a53	-0.00821169
53	0x3c8ca6cb	0.017169377
54	0xbd6f8d64	-0.05848445
55	0xbe61e489	-0.22059835
56	0xbd112d20	-0.035443425
57	0xbe1810ef	-0.1485021
58	0x3e6cd737	0.23128973
59	0x3d721f52	0.0591119
60	0xbc7cb82c	-0.015424769
61	0x3d913af9	0.07091326
62	0xbc230dd7	-0.00995203
63	0x3da9947a	0.08280273
64	0xbd53c4dd	-0.051701415
65	0xba37b513	-0.0007007878
66	0x3a75cbc2	0.00093763706
67	0x3cf6280d	0.030048395
68	0xbda8e528	-0.08246833
69	0x3dfdc67c	0.123913735
70	0x3dc84d74	0.09780398
71	0x3d562fc0	0.05229163
72	0xbe049bc0	-0.12950039
73	0x3e2a9f6e	0.1666238
74	0xbd5b53bb	-0.05354665
75	0x3d8f95b5	0.07010976
76	0xbadd6d10	-0.0016893465
77	0xbd8f19a6	-0.06987314
78	0xbc0be60c	-0.008538734
79	0xbe2a2320	-0.16614962
80	0xba90c155	-0.0011043946
81	0xbdb3e6fa	-0.0878429
82	0x3d859fcb	0.06524619
83	0x3ca835c1	0.020533444
84	0x3d7854e6	0.06062784
85	0x3dcb141b	0.09915944
86	0x3cf95ab5	0.03043876
87	0xbd176785	-0.03696396
88	0xbcd4d193	-0.025978839
89	0xbde609ed	-0.11232362
90	0x3d34f5f3	0.044179868
91	0xbe429fbd	-0.19006248
92	0x3dc3baa0	0.0955708
93	0x3b9a6f0e	0.004712946
94	0xbd7fa101	-0.062409405
95	0x3e07e16f	0.1326959
96	0x3c9f5d00	0.019453526
97	0x3dc7febb	0.09765383
98	0xbd6883d4	-0.056766346
99	0x3e101144	0.14069086
100	0x3c97b7c9	0.018520253
101	0x3c9ace5c	0.018897228
102	0x3c8bad6f	0.017050473
103	0xbd946a86	-0.0724688
104	0x3e297533	0.16548614
105	0xbe545706	-0.20736322
106	0xbe71e821	-0.23623706
107	0xbd2eb9b2	-0.04265756
108	0xbd6bc516	-0.057561003
109	0x3e2e4fed	0.17022677
110	0xbda33d96	-0.07970731
111	0xbd17073c	-0.036872134
112	0xbdacf7a3	-0.084456705
113	0xbe6bea2c	-0.23038548
114	0x3dfd6d6d	0.12374387
115	0xbcf4e4cc	-0.029894255
116	0x3e1abc8f	0.15110992
117	0xbeb3de88	-0.35130715
118	0x3e8cdc76	0.27511948
119	0x3d0c6b8c	0.034282252
120	0x3da7697e	0.08174418
121	0xbd1e25f5	-0.038610417
122	0x3e0441a1	0.1291566
123	0xbdd10ad7	-0.10207146
124	0x3db9906a	0.09060748
125	0xbf143dbf	-0.5790672
126	0xbebb0ae2	-0.3653174
127	0x3d084942	0.03327299
128	0x3de48304	0.11157802
129	0xbd931545	-0.07181791
130	0xbdbef477	-0.09323972
131	0xbde3431b	-0.11096784
132	0xbbf7b657	-0.0075595784
133	0x3d46e8e9	0.048561964
134	0xbed7d7e7	-0.42156908
135	0xbe2fe5ce	-0.17177507
136	0x3e32aa54	0.17447788
137	0xbe0f8054	-0.14013797
138	0xbe837026	-0.256715
139	0xbf0db9d7	-0.55361694
140	0xbe4690e1	-0.19391204
141	0xbd71b952	-0.059014626
142	0xbebaa148	-0.36451173
143	0x3df517eb	0.119674526
144	0x3c58c3ca	0.0132302735
145	0x3dc40209	0.09570701
146	0xbc6e10a0	-0.014530331
147	0x3d0049de	0.031320445
148	0x3d991af4	0.07475844
149	0xbd2c33aa	-0.04204146
150	0xbdf1bfd7	-0.11804169
151	0x3e11009b	0.14160387
152	0x3d2e2285	0.04251339
153	0xbebde5ad	-0.3708929
154	0x3e0b5a3d	0.13608642
155	0xbb1585fb	-0.0022815454
156	0x3c5bd5b9	0.013417655
157	0x3d55e235	0.05221768
158	0xbd27e6f8	-0.040991753
159	0x3d088592	0.033330508
160	0x3e5f40c3	0.21802048
161	0x3e0ce5a7	0.1375948
162	0xbdaca50c	-0.08429918
163	0xbd3fdf6c	-0.04684393
164	0x3e7d5e99	0.24743117
165	0xbe85d7dc	-0.2614125
166	0xb9c2889b	-0.00037104342
167	0x3e1457f9	0.14486684
168	0xbdac8f00	-0.084257126
169	0xbdbd1909	-0.09233291
170	0xbe98bde4	-0.29832375
171	0x3e476f9e	0.19476172
172	0x3c8742d3	0.016511356
173	0xbde45518	-0.11149043
174	0x3e124ea1	0.14287807
175	0xbd3c85b4	-0.046025947
176	0x3e1ecdfd	0.15508266
177	0x3dfcdd31	0.123468764
178	0xbc18a855	-0.009317477
179	0x3de1c80c	0.11024484
180	0xbe99cb27	-0.30037805
181	0x3e0ecc47	0.13945113
182	0x3c845b15	0.016156713
183	0xbbb3aa09	-0.0054829163
184	0x3ca46c3b	0.02007114
185	0x3c0ddca2	0.00865856
186	0xbec511b4	-0.3849007
187	0xbb704dfc	-0.0036667576
188	0x3df35edd	0.11883328
189	0xbc94a8e0	-0.018146932
190	0xbd6799a5	-0.05654301
191	0x3ce3fea9	0.027831392
192	0xbbec6959	-0.007214707
193	0xbdba6ef3	-0.09103193
194	0x3b432e06	0.002978207
195	0x3dceb472	0.10093011
196	0x3df893ba	0.121375516
197	0x3db1b78e	0.086775884
198	0x3c2f7e5c	0.010711279
199	0xbcd0a1c8	-0.025467768
200	0xbece1867	-0.40252993
201	0x38c17b2a	9.225898e-05
202	0xbda6d693	-0.081463955
203	0xbd44a78b	-0.048011344
204	0xbef7ba22	-0.48384196
205	0x3e852978	0.260082
206	0x3d02fd1f	0.031979676
207	0x3d2f5996	0.042810045
208	0x3da3d9c2	0.080005184
209	0xbdb4daff	-0.08830833
210	0x3d680bab	0.056651752
211	0x3d321452	0.04347641
212	0x3e249b92	0.1607497
213	0xbe931e62	-0.28734118
214	0x3d8422ef	0.064519756
215	0x3d66fdb6	0.0563943
216	0x3d9cf776	0.07664387
217	0x3dc73757	0.09727352
218	0x3d2f973f	0.04286885
219	0x3de7c494	0.11316791
220	0xbbe37d7c	-0.006942449
221	0x3e09e552	0.13466385
222	0x3dc337f9	0.0953216
223	0xbd04904a	-0.032364167
224	0x3bd76deb	0.0065743825
225	0x3d8e0e78	0.069363534
226	0x3d6f96fe	0.058493607
227	0x3d824208	0.06360251
228	0xbd1e59cc	-0.038659856
229	0x3c4bc29f	0.012436538
230	0xbd559933	-0.052148055
231	0xbc38bfd0	-0.0112762
232	0x3d463ce1	0.048397902
233	0xbeadbc42	-0.33932692
234	0xbcbc9ffa	-0.023025502
235	0x3e121c18	0.1426853
236	0xba004cbd	-0.00048942474
237	0x3e7207f3	0.23635845
238	0xbdc364ce	-0.09540711
239	0xbd24423f	-0.04010224
240	0xbcda2e7a	-0.02663349
241	0xbd25c290	-0.040468752
242	0x3e27dfe2	0.16393998
243	0xbd0926c5	-0.03348424
244	0x3e707647	0.23482619
245	0xbc57302a	-0.013134042
246	0x3bee1719	0.007265937
247	0xbc7dc376	-0.015488496
248	0x3d928f54	0.07156244
249	0xbe29b645	-0.16573437
250	0xbd9a6053	-0.07537904
251	0x3e1db9ab	0.15402858
252	0x3d8fae95	0.07015721
253	0x3d4c7b94	0.04992254
254	0xbe348b15	-0.1763118
255	0xbd09dae5	-0.03365602

6.bias f4 [157]
0	0x3da14ac3	0.07875588
1	0xbda8f87c	-0.0825052
2	0x3e23fb73	0.16013889
3	0xbe9393b7	-0.28823635
4	0xbde814b5	-0.113320746
5	0xbe874ba4	-0.26424897
6	0xbd61b767	-0.055106547
7	0x3ba82aa5	0.0051320367
8	0xbd63a2f2	-0.05557532
9	0x3e053e75	0.13012107
10	0xbe0addd1	-0.13561179
11	0x3d24b09d	0.040207494
12	0xbd29aeb2	-0.041426368
13	0xbec21506	-0.37906665
14	0xbedee353	-0.4353281
15	0xbbc1cf0a	-0.0059145736
16	0xbccd0a2f	-0.02502927
17	0x3e33536e	0.17512295
18	0xbd182f39	-0.03715441
19	0x3e438e60	0.1909728
20	0x3d30f452	0.043201752
21	0x3d4ff399	0.050769422
22	0xbe4f16a0	-0.20223475
23	0x3ebf36b0	0.3734641
24	0xbe85ff13	-0.2617117
25	0x3e13366b	0.14376228
26	0x3aef47ea	0.0018255685
27	0x3e8af195	0.27137437
28	0xbe9a09c3	-0.30085573
29	0x3e518bea	0.20463529
30	0xbe4f4886	-0.20242509
31	0xbc7bbdbc	-0.01536506
32	0xbe1e5d83	-0.1546536
33	0xbd011e11	-0.031522814
34	0x3dc17754	0.09446588
35	0x3dea7150	0.11447394
36	0x3d4ede92	0.05050523
37	0x3eb9c8dd	0.3628606
38	0x3e006ad0	0.12540746
39	0xbd0e3b5a	-0.03472457
40	0xbea4ffe6	-0.32226485
41	0xbdef47ec	-0.1168364
42	0x3e5bb6c8	0.21456444
43	0x3d9dc3b5	0.07703344
44	0x3c6ea28c	0.014565121
45	0x3e967eaa	0.29393512
46	0x3e84202d	0.25805798
47	0x3e876e5c	0.26451385
48	0x3e344eb2	0.17608145
49	0xbcb7ffd7	-0.022460861
50	0x39f2a2f3	0.00046279244
51	0x3e588262	0.21143487
52	0xbd7d344e	-0.06181746
53	0xbd573cb9	-0.052548144
54	0x3d94c5f4	0.07264319
55	0x3dde8105	0.10864452
56	0xbea20b27	-0.31649134
57	0x3ce38f6f	0.027778355
58	0x3c0c4571	0.008561478
59	0xbe378501	-0.1792183
60	0xbbe1dab9	-0.006892529
61	0x3e46ecc3	0.19426255
62	0x3ea96d84	0.33091366
63	0x3db975e9	0.09055693
64	0xbe05cddf	-0.13066815
65	0xbd3d3126	-0.04618945
66	0x3e8957fd	0.26824942
67	0xbe0d7c54	-0.13816959
68	0xbe9d7c74	-0.30759013
69	0xbdc80642	-0.097668186
70	0x3cf37412	0.029718433
71	0x3e001354	0.12507373
72	0x3e54898f	0.207556
73	0xbd95cac2	-0.073140636
74	0xbe1894e4	-0.14900547
75	0xbd81c8fa	-0.06337161
76	0xbdba7a8a	-0.09105404
77	0xbe2a2cbc	-0.16618627
78	0xbe0a5004	-0.13507086
79	0xbb95cdc7	-0.0045716497
80	0xbdbf1bcd	-0.093314745
81	0xbd0386c4	-0.032110944
82	0xbe5a25d7	-0.21303497
83	0x3e199307	0.14997493
84	0x3e0713e5	0.13191183
85	0x3e641c7b	0.2227649
86	0x3a57f61e	0.00082382734
87	0x3eb4b246	0.35292262
88	0x3e875fe3	0.26440343
89	0xbe2f7b76	-0.1713694
90	0xbeb3286a	-0.3499177
91	0x3eadc331	0.33937982
92	0xbd3c84a4	-0.046024933
93	0x3e80e8b0	0.25177526
94	0xbd6a9cb8	-0.057278365
95	0xbe9e7fe8	-0.3095696
96	0x3d0247ee	0.03180688
97	0xbdf7f978	-0.12108129
98	0xbe5a531e	-0.21320769
99	0xbd4a3e3f	-0.04937577
100	0x3e3bd470	0.18342757
101	0x3de53ceb	0.1119326
102	0xbdcbb69c	-0.09946939
103	0x3e57be25	0.21068628
104	0x3d3aa6bb	0.045569163
105	0x3d055800	0.032554626
106	0x3e2b3270	0.16718459
107	0xbd447d93	-0.04797132
108	0xbdd22bac	-0.10262236
109	0xbc577ea5	-0.013152753
110	0xbe2fcd7a	-0.17168227
111	0xbe061faf	-0.13098024
112	0x3cfc9499	0.030832576
113	0xbd39ad0f	-0.045331057
114	0x3dacbd8f	0.08434593
115	0xbe7792c6	-0.24177083
116	0xbd9d5549	-0.076822825
117	0xbd30892d	-0.04309957
118	0xbd08f597	-0.033437338
119	0xbdacc214	-0.08435455
120	0x3e037493	0.12837438
121	0x3eeb17de	0.45916647
122	0xbcccc409	-0.02499582
123	0xbe5f3a66	-0.21799621
124	0x3e316e21	0.17327167
125	0xbe3f432f	-0.18677972
126	0xbdbc40ac	-0.09192023
127	0x3e341dec	0.1758954
128	0x3e820489	0.25394085
129	0xbe0953d9	-0.13410892
130	0xbd0e39dc	-0.034723148
131	0x3c150f20	0.009097844
132	0xbe432c06	-0.19059762
133	0xbccf19d2	-0.025280867
134	0xbe04f3e8	-0.12983668
135	0xbd9bf95d	-0.07615922
136	0x3da234f1	0.07920254
137	0xbe113004	-0.14178473
138	0xbc7b12f9	-0.015324348
139	0x3e117558	0.1420492
140	0x3f00404c	0.5009811
141	0x3ce8acc7	0.0284027
142	0xbe9e00f3	-0.308601
143	0x3ba59f7a	0.0050544115
144	0xbd7f64be	-0.062351935
145	0x3da7fc14	0.08202377
146	0xbea76bc3	-0.32699403
147	0x3e006f7f	0.12542532
148	0xbc3b3f8a	-0.011428723
149	0x3e03e6db	0.12881033
150	0xbda64ff9	-0.08120722
151	0xbeb5f935	-0.35541692
152	0xbe57137f	-0.21003531
153	0xbe0567a3	-0.13027816
154	0xbbfe8d7b	-0.0077683306
155	0x3d8b8c97	0.06813925
156	0x3e04df19	0.1297573
