neura1/bestval_e3_weights.ckpt (torch, 399055 bytes, 8 tensors)

0.weight f4 [100, 630]
-0.011344936 0.05585192 -0.01548478 -0.21742833 0.025845816 -0.09972132 -0.24610066 -0.13241918
-0.30816358 -0.40359816 -0.2574509 -0.071219124 0.11548601 0.42764878 0.029995613 0.23887938
0.22104158 0.23294342 0.12958907 0.26265034 0.20964982 0.33365807 0.094606414 0.17352848
0.14979567 0.24464315 0.12178102 0.08592529 0.17419448 0.0066875406 -0.014229705 -0.022241367
0.0037777242 -0.08228898 0.038813535 -0.01994336 -0.101545006 -0.07121406 -0.1697575 -0.23087344
-0.20305242 -0.056686103 0.05146559 0.28249705 0.022140654 0.14090239 0.087447315 0.15063567
0.0039927266 0.16395272 0.06335717 0.26518896 -0.019992514 0.101861075 0.06891118 0.16347523
0.05307834 0.017713076 0.08344467 -0.04343394 0.012628334 0.029486509 -0.020431677 -0.08045642
0.012556128 0.00075284066 -0.070386484 -0.016780924 -0.17183158 -0.21130374 -0.14484227 -0.050733104
0.0528728 0.2704815 0.076134115 0.12927169 0.05551263 0.135221 0.033843897 0.16368921
0.059123475 0.21763445 0.05561807 0.09937903 0.13195834 0.17047432 0.020078015 -0.023481758
0.040895864 0.0188415 -0.015977409 -0.039689932 -0.004952367 -0.012827334 0.03039636 -0.023487907
-0.061596666 -0.08600651 -0.1676723 -0.25525013 -0.12835291 -0.027656822 0.020489838 0.28294405
0.05091477 0.09158907 0.07094315 0.10726375 0.0042233034 0.11245822 0.060429458 0.22275291
0.0029803156 0.068675555 0.12252967 0.11155011 0.026814222 0.03274293 0.034881193 0.009771424
-0.035686202 -0.030746592 0.008725497 -0.020543545 -0.02146414 -0.05721486 -0.07572404 -0.07096157
-0.13063283 -0.26088163 -0.14675632 -0.04871495 0.050689593 0.27507195 0.018366031 0.0513599
0.058717497 0.16585048 0.043523643 0.11953019 0.06547991 0.23232691 0.013604091 0.103940085
0.12967612 0.12650032 0.024676628 0.031186948 0.089091055 0.00484815 0.007622504 -0.027115872
0.005621453 -0.060751256 -0.020034762 -0.05805854 -0.102995224 -0.07924363 -0.122392006 -0.24260895
-0.14254035 -0.034971844 0.08041259 0.24999164 0.019542672 0.053364873 0.018693527 0.16802141
0.009302788 0.13700876 0.04932788 0.14891419 0.01347529 0.060130063 0.14241113 0.12954637
-0.0075957156 -0.01732267 0.09933437 0.007220281 0.020468526 -0.035154507 0.028239941 -0.051991686
0.026207663 -0.00085863995 -0.07521607 -0.047405697 -0.17151533 -0.30398524 -0.17514846 -0.05367447
0.02058167 0.245912 0.0399383 0.09022067 0.078263514 0.10381523 0.02130318 0.14653075
0.109421454 0.17502645 0.036350198 0.0543141 0.108181596 0.14460734 0.0071245264 0.042263914
0.08350445 -0.034857016 -0.020436764 -0.004791863 0.0055539315 -0.027608551 -0.02359015 -0.035505373
-0.12396593 -0.0792433 -0.12892814 -0.2966356 -0.18259098 -0.066602305 0.03654624 0.2783316
0.02740672 0.11050484 0.056646157 0.17450172 -0.010612435 0.13226631 0.06948895 0.16575365
0.022233529 0.12340519 0.108554296 0.19321433 -0.05252934 0.01648978 0.044387035 -0.043291435
-0.0094667 -0.02436234 0.012671393 -0.06261371 0.0013133883 -0.015200369 -0.08827422 -0.08450886
-0.17084266 -0.26401487 -0.17744298 -0.027234392 0.04168411 0.23116244 0.09559767 0.07106425
00000000: 1ce0 39bc fcc4 643d e0b3 7dbc 88a5 5ebe
00000010: 9bba d33c b13a ccbd d001 7cbe e598 07be
00000020: 9ec7 9dbe 6ba4 cebe 9bd0 83be 55db 91bd
00000030: ee83 ec3d c8f4 da3e 5cb9 f53c cc9c 743e
00000040: b958 623e b888 6e3e ffb2 043e 1b7a 863e
00000050: 71ae 563e 3bd5 aa3e 02c1 c13d 73b1 313e
00000060: 0964 193e bc83 7a3e 5468 f93d 99f9 af3d
00000070: 0a60 323e 2823 db3b b523 69bc 8733 b6bc
00000080: b293 773b 2087 a8bd f1fa 1e3d 4260 a3bc
00000090: d4f6 cfbd add8 91bd e9d4 2dbe 166a 6cbe
000000a0: f9ec 4fbe b02f 68bd 95cd 523d 74a3 903e
000000b0: 5160 b53c b748 103e 9417 b33d 3d40 1a3e
000000c0: 6bd5 823b 39e3 273e 67c1 813d d9c6 873e
000000d0: 57c7 a3bc 8a9c d03d 4e21 8d3d 0d66 273e
000000e0: ac68 593d 031b 913c 0ae5 aa3d c9e7 31bd
000000f0: 12e7 4e3c b18d f13c 5560 a7bc 56c6 a4bd
00000100: 38b8 4d3c 485a 453a ca26 90bd 2678 89bc
00000110: 9ef4 2fbe 0260 58be 8851 14be 84cd 4fbd
00000120: 2691 583d 8d7c 8a3e 34ec 9b3d cc5f 043e
00000130: 3661 633d 6077 0a3e e69f 0a3d 259e 273e
00000140: 752b 723d 91db 5e3e c6cf 633d 3c87 cb3d
00000150: 1620 073e d290 2e3e a67a a43c d15c c0bc
00000160: 6c82 273d 7d59 9a3c 0ee3 82bc e991 22bd
00000170: 7747 a2bb bd29 52bc ca01 f93c b669 c0bc
00000180: c94c 7cbd 2e24 b0bd 4ab2 2bbe 25b0 82be
00000190: f26e 03be 8f90 e2bc 4eda a73c 0bde 903e
000001a0: 028c 503d 0d93 bb3d a44a 913d 19ad db3d
000001b0: a363 8a3b 7f50 e63d e184 773d 5719 643e
000001c0: 6651 433b c5a5 8c3d d6f0 fa3d 6274 e43d
000001d0: 80a9 db3c 731d 063d 95df 0e3d 5318 203c
000001e0: b22b 12bd 47e0 fbbc 63f5 0e3c f04a a8bc
000001f0: 90d5 afbc 215a 6abd 3515 9bbd 4d54 91bd
00000200: 9dc4 05be 4792 85be 4a47 16be 5489 47bd
00000210: e49f 4f3d 3bd6 8c3e 5c74 963c c25e 523d
00000220: c281 703d b5d4 293e d945 323d 3fcc f43d
00000230: 551a 863d 1be7 6d3e b1e3 5e3c 8ade d43d
00000240: d1c9 043e 4d89 013e a426 ca3c c57b ff3c
00000250: 5f75 b63d 3bdd 9e3b 33c6 f93b 1b22 debc
00000260: 2a34 b83b 4fd6 78bd f11f a4bc cbce 6dbd
00000270: 29ef d2bd 7c4a a2bd a9a8 fabd 7b6e 78be
00000280: 19f6 11be a33e 0fbd 5baf a43d cffd 7f3e
00000290: f417 a03c 2095 5a3d 2b23 993c ce0d 2c3e
000002a0: b96a 183c 064c 0c3e 080c 4a3d f67c 183e
000002b0: 76c7 5c3c f14a 763d 39d4 113e cea7 043e
000002c0: 7be5 f8bb 46e8 8dbc d16f cb3d 1b98 ec3b
000002d0: 9cad a73c 2cfe 0fbd 7357 e73c 3cf5 54bd
000002e0: 74b1 d63c 5a16 61ba e20a 9abd 7a2c 42bd
000002f0: b7a1 2fbe f4a3 9bbe 1e5a 33be c3d9 5bbd
00000300: e49a a83c 5bd0 7b3e 5896 233d 9dc5 b83d
00000310: 9f48 a03d 149d d43d 0284 ae3c 280c 163e
00000320: 5b18 e03d 223a 333e f2e3 143d 7678 5e3d
00000330: 508e dd3d f213 143e dc74 e93b ed1c 2d3d
00000340: 6204 ab3d 3bc6 0ebd 006b a7bc 0f05 9dbb
00000350: c1fd b53b 542b e2bc 2140 c1bc 156e 11bd
00000360: d9e1 fdbd 504a a2bd bd05 04be 9fe0 97be
00000370: 21f9 3abe ca66 88bd 83b1 153d 7b81 8e3e
00000380: 0f84 e03c 5d50 e23d cd05 683d 94b0 323e
00000390: c7df 2dbc d270 073e 3950 8e3d 53bb 293e
000003a0: 1723 b63c dcbb fc3d b751 de3d fad9 453e
000003b0: 0129 57bd 9315 873c 2ecf 353d 5c52 31bd
000003c0: 381a 1bbc 8893 c7bc ad9b 4f3c 9e3b 80bd
000003d0: 0026 ac3a f80a 79bc 1dc9 b4bd fb12 adbd
000003e0: 61f1 2ebe f52c 87be 9db3 35be a91a dfbc
000003f0: f5bc 2a3d d9b5 6c3e b6c8 c33d 228a 913d

0.bias f4 [100]
0.059518177 0.021978498 0.0064543607 0.031615235 0.0671042 0.08679533 -0.077564836 0.020985117
-0.12398887 -0.26855475 -0.0966949 -0.078573875 0.01930815 0.035453577 -0.016558891 0.041022427
0.003938048 -0.011298172 0.15607479 0.16869481 0.2335602 -0.06454407 -0.037190482 0.29781026
0.061594877 0.01080948 0.0043187477 0.1355946 -0.08792905 0.0016263359 0.028953005 -0.11973014
-0.012849216 -0.0073833694 -0.023571616 -0.16003075 -0.1315197 -0.14882497 -0.02498145 -0.034193195
-0.011737258 -0.07560657 -0.025033351 -0.015438533 0.021651365 -0.017039016 0.0017583279 -0.25562343
-0.0129906805 -0.14392927 -0.17055035 0.15559682 -0.024563925 0.17794292 0.009348523 -0.101246335
-0.03960374 0.15209216 -0.020945223 -0.014480379 -0.004648388 -0.09885029 -0.06716006 0.0032549277
0.018752847 -0.024388155 0.009323096 -0.016363135 -0.25421566 0.048976418 -0.37308452 0.01789983
-0.15571864 0.027129618 -0.0014309408 -0.092152916 -0.021659298 -0.29832453 -0.028999262 -0.073409766
0.024861475 0.013087874 0.1218506 0.04591762 -0.030612323 0.13616809 0.12501971 -0.10481022
0.0077164927 0.009891992 0.09304062 -0.028302524 -0.021571293 0.010777041 -0.01067005 -0.24308427
-0.12845777 0.13933147 -0.11171428 0.040382817
00000000: 55c9 733d 400c b43c 1a7f d33b fa7e 013d
00000010: ed6d 893d c0c1 b13d 50da 9ebd fbe8 ab3c
00000020: e0ed fdbd 0280 89be fa07 c6bd 57eb a0bd
00000030: 202c 9e3c c537 113d 83a6 87bc 2207 283d
00000040: be0a 813b f81b 39bc 12d2 1f3e 55be 2c3e
00000050: 682a 6f3e ae2f 84bd 0c55 18bd 967a 983e
00000060: e94a 7c3d 3f1a 313c 4884 8d3b 50d9 0a3e
00000070: 2514 b4bd c72a d53a da2e ed3c 1335 f5bd
00000080: 8585 52bc 31f0 f1bb 4319 c1bc 1adf 23be
00000090: 1aad 06be 9365 18be e6a5 ccbc 2a0e 0cbd
000000a0: a14d 40bc 9ed7 9abd be12 cdbc e7f1 7cbc
000000b0: 345e b13c 6895 8bbc b277 e63a 13e1 82be
000000c0: ddd6 54bc 3262 13be c0a4 2ebe c654 1f3e
000000d0: 493a c9bc ab36 363e 8c2a 193c 3d5a cfbd
000000e0: 8837 22bd 0cbe 1b3e 5195 abbc 1d3f 6dbc
000000f0: 8151 98bb 0572 cabd 378b 89bd a050 553b
00000100: 929f 993c abc9 c7bc e6bf 183c fb0b 86bc
00000110: 8e28 82be 7f9b 483d ef04 bfbe aaa2 923c
00000120: b574 1fbe ef3e de3c 688e bbba abba bcbd
00000130: d76e b1bc febd 98be dc8f edbc dc57 96bd
00000140: 4baa cb3c 866e 563c cf8c f93d 1d14 3c3d
00000150: b2c6 fabc a66f 0b3e 2b05 003e bea6 d6bd
00000160: a2da fc3b 0612 223c 158c be3d b2da e7bc
00000170: 48b6 b0bc 3092 303c 6fd1 2ebc 15eb 78be
00000180: 6f8a 03be e9ac 0e3e 75ca e4bd 7468 253d

2.weight f4 [100, 100]
-0.15352976 -0.08996542 -0.018392587 -0.051309373 0.0100277765 0.10817744 0.0576869 -0.031420957
0.15857166 0.029723471 0.024957025 0.17436898 -0.12772115 -0.028461425 -0.04423445 0.12900151
0.02704366 -0.007438862 0.11611514 0.09719797 -0.1091312 0.124423705 0.105001085 -0.118465
0.06718991 0.08098791 -0.09339556 -0.002035076 0.14399952 0.38013446 -0.031174859 -0.036875624
0.05012796 -0.08019882 0.111197345 -0.061999194 -0.12779059 0.022704104 -0.06559449 -0.035072137
0.058151722 -0.11697426 0.02395382 -0.09640377 -0.041126084 0.026495786 0.023086155 0.052753504
0.15972784 0.07843036 0.17810059 0.07031064 -0.06609688 -0.26107827 -0.025771203 -0.14254284
0.03600119 -0.115520835 -0.08776114 -0.06771656 0.07795997 0.13211168 0.05435998 -0.102855414
0.122994 -0.16363956 -0.033595037 0.059305407 0.18274179 0.012764619 0.08738271 0.20388263
-0.17018415 -0.15106045 0.09045215 0.032572582 0.004408169 0.0058019906 0.028872252 0.027473833
0.053078976 0.1905252 0.09773495 0.09152494 0.10314927 0.10719809 -0.13781753 0.018179663
-0.013745571 -0.059492756 0.008117897 -0.04629766 0.10933035 0.072837405 0.34007153 0.06379918
0.053944692 -0.30627343 0.25057083 -0.19270009 0.09803237 -0.019648567 -0.08816602 0.09076403
0.19674131 -0.10686682 0.2631309 -0.101288214 0.10838194 -0.018159993 0.058263242 -0.035245594
-0.0048404103 -0.054065023 0.15040493 -0.18283711 0.07285987 -0.031039739 0.12698488 0.07349788
-0.20023686 0.13287415 -0.11150951 0.14732607 0.041751437 -0.031116761 -0.059379395 0.07775873
0.11312055 -0.2561875 -0.10892929 0.08305348 0.036141805 0.06812786 0.00040393526 -0.02882418
-0.0050925612 -0.1192229 0.030988013 0.020015476 0.056363672 -0.08802231 -0.002474059 0.025883436
0.02457769 -0.13643068 -0.029725501 0.06876208 0.23142949 -0.09808166 -0.064066514 -0.07391942
-0.037694294 0.0388233 0.13378794 -0.034058157 0.051539775 -0.03128999 0.016165681 0.005447076
0.104213126 -0.009876971 0.110223204 0.17883562 0.06188443 -0.07909007 0.013306531 0.018256871
-0.19200286 -0.03167737 0.0066482257 -0.01095863 0.0940712 0.1213253 -0.047598936 0.0061021526
-0.0905753 0.12270945 -0.039458748 -0.17330524 0.061164036 -0.03614913 -0.07766393 -0.1262513
-0.07909943 0.07525782 0.15073176 0.012899834 0.00853887 -0.06924021 0.20229094 0.061682776
0.07260655 0.043386035 -0.16609204 0.04033704 0.04525484 0.23042768 -0.09912135 0.20319532
-0.006411774 -0.07628627 0.062403597 0.08789571 -0.062171448 -0.052283015 0.056962155 -0.09564507
0.026725627 -0.0076242853 -0.003945563 -0.12252075 -0.06510922 -0.07458167 -0.06990722 -0.074485615
-0.0060986998 -0.07570871 -0.09434843 0.08213636 -0.03658864 -0.08086951 0.09603661 0.031844076
0.03812408 0.01045903 -0.029408338 0.0364009 0.042900965 -0.09325417 0.022597557 0.027574012
0.08855963 -0.07789059 -0.1020628 -0.0040781205 -0.06870706 -0.055851143 -0.026480794 -0.041659962
-0.053957332 -0.03260469 -0.06863715 -0.060021568 0.07358197 -0.026679426 0.079002894 -0.12403211
-0.037958983 0.0024361513 0.0039433367 -0.02519517 0.04349457 0.06102498 -0.06192191 -0.014419669
00000000: e836 1dbe ca3f b8bd 0dac 96bc c729 52bd
00000010: 8b4b 243c 228c dd3d 1949 6c3d 43b3 00bd
00000020: 9c60 223e a37e f33c ad72 cc3c c88d 323e
00000030: 55c9 02be ef27 e9bc 2f2f 35bd f918 043e
00000040: aa8a dd3c b3c1 f3bb c6cd ed3d bb0f c73d
00000050: 2e80 dfbd dbd1 fe3d cf0a d73d c79d f2bd
00000060: dd9a 893d fddc a53d 2c46 bfbd e95e 05bb
00000070: 9c74 133e fca0 c23e 6b62 ffbc e50a 17bd
00000080: fa52 4d3d 473f a4bd 6fbb e33d def2 7dbd
00000090: 89db 02be f5fd b93c 6756 86bd cda7 0fbd
000000a0: 8030 6e3d 3390 efbd cd3a c43c 576f c5bd
000000b0: d373 28bd b10d d93c 2d1f bd3c 0f14 583d
000000c0: b28f 233e 19a0 a03d 0060 363e 06ff 8f3d
000000d0: cd5d 87bd 0dac 85be 211e d3bc c0f6 11be
000000e0: fc75 133d 3096 ecbd 1dbc b3bd fbae 8abd
000000f0: 7aa9 9f3d 4948 073e 92a8 5e3d dca5 d2bd
00000100: 47e4 fb3d 2191 27be f39a 09bd 3aea 723d
00000110: aa20 3b3e b122 513c b5f5 b23d 9cc6 503e
00000120: c144 2ebe 97af 1abe fa3e b93d d46a 053d
00000130: 6772 903b a01e be3b 8085 ec3c ce10 e13c
00000140: 5769 593d 0a19 433e 4329 c83d 6e71 bb3d
00000150: ed3f d33d ac8a db3d 0a20 0dbe 84ed 943c
00000160: 1a35 61bc adae 73bd ee00 053c 9da2 3dbd
00000170: 97e8 df3d c72b 953d db1d ae3e 25a9 823d
00000180: 1cf5 5c3d dfcf 9cbe d24a 803e 2c53 45be
00000190: 32c5 c83d 08f6 a0bc 6390 b4bd 7ee2 b93d
000001a0: 8e76 493e fedc dabd 18b9 863e 3270 cfbd
000001b0: 5af7 dd3d 44c4 94bc 70a5 6e3d af5d 10bd
000001c0: 4e9c 9ebb 4973 5dbd c003 1a3e a739 3bbe
000001d0: 8e37 953d 0d47 febc 5308 023e 0e86 963d
000001e0: e40a 4dbe 2910 083e 195f e4bd a5dc 163e
000001f0: 8e03 2b3d 94e8 febc cf37 73bd f83f 9f3d
00000200: bfab e73d 022b 83be 5216 dfbd f117 aa3d
00000210: 6e09 143d 9f86 8b3d 46c7 d339 b020 ecbc
00000220: 80df a6bb 232b f4bd 93da fd3c 7ff7 a33c
00000230: 98dd 663d 0a45 b4bd d223 22bb 8009 d43c
00000240: 2757 c93c 7cb4 0bbe e582 f3bc 22d3 8c3d
00000250: dafb 6c3e 0adf c8bd 4e35 83bd 1163 97bd
00000260: 5565 1abd 2e05 1f3d b5ff 083e 9180 0bbd
00000270: 5f1b 533d ef29 00bd e46d 843c 637d b23b
00000280: b16d d53d 05d3 21bc b4bc e13d af20 373e
00000290: 877a 7d3d faf9 a1bd a303 5a3c 6f8f 953c
000002a0: 669c 44be 21c0 01bd 5cd9 d93b d38b 33bc
000002b0: 67a8 c03d 6679 f83d 1af7 42bd 91f4 c73b
000002c0: 8b7f b9bd 184f fb3d 7f9f 21bd ee76 31be
000002d0: 2487 7a3d 1c11 14bd 440e 9fbd 0548 01be
000002e0: e2fe a1bd c620 9a3d 6d59 1a3e d359 533c
000002f0: 9ee6 0b3c d0cd 8dbd 5b25 4f3e 14a7 7c3d
00000300: beb2 943d 8eb5 313d 0814 2abe 7438 253d
00000310: 245d 393d 3cf5 6b3e 2200 cbbd 6f12 503e
00000320: dc19 d2bb fa3b 9cbd ea9a 7f3d aa02 b43d
00000330: 7da7 7ebd b726 56bd 2651 693d 90e1 c3bd
00000340: b4ef da3c 24d5 f9bb c849 81bb 29ec fabd
00000350: fc57 85bd 46be 98bd 842b 8fbd ea8b 98bd
00000360: 9ad7 c7bb 2b0d 9bbd c039 c1bd 1c37 a83d
00000370: f8dd 15bd ea9e a5bd d8ae c43d ef6e 023d
00000380: ff27 1c3d 5a5c 2b3c c1e9 f0bc 1c19 153d
00000390: ecb8 2f3d 0bfc bebd 831e b93c e5e2 e13c
000003a0: c05e b53d 1a85 9fbd 4d06 d1bd c1a1 85bb
000003b0: 49b6 8cbd 2bc4 64bd 40ee d8bc a3a3 2abd
000003c0: 5d02 5dbd 7f8c 05bd a291 8cbd 2dd9 75bd
000003d0: 25b2 963d d08e dabc 45cc a13d 8c04 febd
000003e0: e17a 1bbd d6a7 1f3b 1b37 813b 1a66 cebc
000003f0: 5d27 323d 54f5 793d d4a1 7dbd 7a40 6cbc

2.bias f4 [100]
0.071355574 0.13581526 -0.098812245 0.23857833 -0.07387161 0.03781804 0.0036373748 0.21265979
0.14576498 -0.02850585 0.2139928 0.13035277 0.15469432 0.03370092 -0.28220826 -0.043441378
0.2387864 0.13684803 -0.011131881 0.07345979 0.038624886 -0.08049798 -0.021875668 0.08763235
-0.028500622 -0.05810427 0.037267063 -0.19051231 -0.030941729 -0.25926733 0.09446901 -0.13390988
-0.087436154 -0.23273186 0.30481166 0.17522366 -0.004671472 -0.1100056 -0.06986726 0.050703757
-0.0834217 -0.047189876 -0.081340134 0.16985458 -0.17078187 0.19571704 -0.11129644 -0.024956059
-0.19587654 0.044845633 -0.3094094 -0.10501062 0.37590912 0.13099776 -0.06842774 0.20665579
-0.12689954 0.21322174 0.60526764 0.02141643 0.51695824 0.24114528 0.1977757 -0.020617735
-0.09714523 -0.13875651 0.018654788 -0.23948556 -0.17270963 -0.1757185 -0.075727984 -0.21355526
-0.22707428 -0.26213452 -0.042187274 -0.0066355 0.019735618 0.042037837 -0.05678103 0.25958836
-0.21340413 -0.11610561 -0.28012276 -0.11713994 0.083258845 0.2603183 -0.28128093 0.03650931
0.09665136 -0.23181863 0.022198908 0.4292633 -0.27620283 -0.0757435 -0.04423272 -0.10747818
0.12492751 -0.08351771 -0.13565782 -0.035309248
00000000: df22 923d 2813 0b3e 135e cabd e14d 743e
00000010: 004a 97bd 17e7 1a3d 0661 6e3b 7dc3 593e
00000020: 6a43 153e 1a85 e9bc ee20 5b3e 327b 053e
00000030: 3068 1e3e fa09 0a3d 9a7d 90be 96ef 31bd
00000040: 6c84 743e e421 0c3e 7e62 36bc 1672 963d
00000050: 2135 1e3d 20dc a4bd 9a34 b3bc 9778 b33d
00000060: 237a e9bc befe 6dbd 59a5 183d a915 43be
00000070: 8279 fdbc b0be 84be f878 c13d ac1f 09be
00000080: ba11 b3bd 4351 6ebe 4610 9c3e d56d 333e
00000090: 2613 99bb 9e4a e1bd 9116 8fbd beae 4f3d
000000a0: ffd8 aabd 2c4a 41bd a895 a6bd 5cee 2d3e
000000b0: 71e1 2ebe 0c6a 483e 63ef e3bd a670 ccbc
000000c0: dc93 48be 0eb0 373d e96a 9ebe cf0f d7bd
000000d0: 2977 c03e 4724 063e d823 8cbd 939d 533e
000000e0: f4f1 01be cd56 5a3e d2f2 1a3f 8271 af3c
000000f0: 6057 043f caee 763e b785 4a3e 86e6 a8bc
00000100: 14f4 c6bd 3016 0ebe edd1 983c b43b 75be
00000110: cbda 30be 8def 33be 4617 9bbd 3bae 5abe
00000120: 2986 68be 7f36 86be 90cc 2cbd 9c6e d9bb
00000130: 97ac a13c de2f 2c3d 3a93 68bd c4e8 843e
00000140: 9d86 5abe c7c8 edbd 406c 8fbe 11e7 efbd
00000150: 9d83 aa3d 7148 853e 0e04 90be c98a 153d
00000160: 26f1 c53d dd61 6dbe 7cda b53c 66c8 db3e
00000170: 756a 8dbe 681f 9bbd 5e2d 35bd 851d dcbd
00000180: ffd9 ff3d 550b abbd e2e9 0abe 6ea0 10bd

4.weight f4 [100, 100]
-0.123150215 0.1156227 -0.09524566 -0.25520706 -0.05495086 -0.02925733 0.09543039 0.12426762
0.009256772 -0.20772901 -0.08208202 0.02691204 -0.09088336 0.12164667 -0.034572374 0.01512539
-0.07207711 -0.15466033 -0.099457905 -0.065683596 0.108832836 -0.2945037 -0.21250898 0.076684006
0.056955706 0.02499471 0.07055358 -0.038717214 0.05140065 0.1212019 0.24664941 0.03233188
-0.017496338 0.05423309 0.1606003 0.11365399 0.115065634 0.014947969 0.0806589 0.16930278
0.050149675 -0.060921613 0.014708245 0.15029696 -0.2635079 -0.024219213 0.16569234 0.02850068
-0.22349757 0.012185572 0.0015178064 -0.09283164 0.10666038 -0.07555569 0.007808447 0.13331966
-0.063226156 0.10525067 0.063526504 0.055052515 0.20390865 0.19516061 0.10697322 0.10591265
-0.13795932 0.14078361 -0.042227387 -0.21446712 -0.13500088 -0.15266158 0.024753422 -0.05316368
0.09850321 -0.11660951 -0.089980245 0.009537614 -0.11063186 -0.08902911 -0.059400875 0.030557295
0.13129474 0.059658483 0.15000133 -0.15523466 0.10247721 0.13644992 -0.08894416 0.105239876
0.3657 -0.14653262 -0.014255333 0.24678738 0.033554398 -0.07280027 -0.09254128 0.0583737
-0.004064118 -0.20535462 -0.3055297 -0.033243574 -0.14500773 0.13273261 -0.03861194 -0.1778659
0.02750058 -0.027227731 -0.27629596 -0.0030984893 -0.07047937 0.06730387 -0.18119267 0.13016035
0.10578465 0.05085747 -0.1345126 0.035401262 0.08433965 0.06397283 0.03864436 -0.043600243
-0.093807496 -0.02905034 0.096072376 -0.046132006 -0.25227806 -0.017807199 0.040579785 0.029573588
-0.047445145 0.13864145 0.17209676 -0.08276038 0.11736831 0.13413095 -0.053549122 3.8773636e-05
-0.028431177 -0.002794455 0.091771804 0.061193757 -0.009477689 0.08764695 -0.09949476 -0.071936384
-0.10982046 -0.070710756 -0.122802496 -0.04748266 0.13296586 -0.00016222522 0.20312883 -0.00033044262
-0.038142096 0.12816012 -0.04460434 0.014031176 -0.1476322 0.1929969 -0.023587758 0.26531333
0.020586593 0.009711401 -0.07810077 0.10316841 -0.0977196 0.19101675 -0.006667471 -0.059758827
0.0350056 -0.042339753 -0.03793151 0.0114419265 0.052983124 -0.000107775035 -0.0057462812 -0.0093858745
0.10535136 -0.051922705 -0.07989783 0.0959699 0.10532024 0.10402675 -0.09424501 -0.07100145
-0.2587936 -0.03987419 0.1619191 -0.026477376 -0.18192692 0.08703177 -0.15185435 0.33490846
0.14330669 0.02295372 -0.0020304366 -0.106184416 0.16092156 -0.010029301 -0.047080126 0.09120258
0.036137044 -0.006033402 -6.881952e-05 -0.101768695 -0.0319964 -0.08951696 -0.06759112 -0.05673326
-0.0902734 -0.09881891 0.032219637 -0.08972869 0.020147696 -0.05721971 -0.023708908 -0.12686811
-0.113664865 -0.10723936 0.03716233 -0.12399269 -0.071018234 -0.073675126 0.028895266 0.00029064275
-0.105986804 -0.030016482 -0.04082502 -0.0876539 0.07435904 -0.0074176537 -0.11853389 0.06848271
0.068637975 0.020557258 0.058913037 -0.005625077 0.012876415 -0.09267404 -0.06962333 -0.0026148101
0.03136597 -0.08739709 0.09838883 -0.027825322 -0.07952162 -0.06922414 -0.07803273 0.0090602515
-0.03721968 0.077710725 -0.0331883 -0.019528948 -0.11397977 -0.0993723 0.081890285 -0.095466554
00000000: 2e36 fcbd 98cb ec3d 2810 c3bd 80aa 82be
00000010: 2714 61bd 11ad efbc 0271 c33d 0680 fe3d
00000020: b7a9 173c eab6 54be 9e1a a8bd a376 dc3c
00000030: 0e21 babd e421 f93d c39b 0dbd 7cd0 773c
00000040: 2a9d 93bd 475f 1ebe 96b0 cbbd 1f85 86bd
00000050: c0e3 de3d 30c9 96be f49b 59be 810c 9d3d
00000060: 634a 693d b5c1 cc3c 657e 903d f195 1ebd
00000070: 7d89 523d b438 f83d aa91 7c3e 6f6e 043d
00000080: 7b54 8fbc 8423 5e3d 6874 243e 6cc3 e83d
00000090: 88a7 eb3d 53e8 743c 7e30 a53d b55d 2d3e
000000a0: bf69 4d3d f188 79bd dafa 703c 72e7 193e
000000b0: 82ea 86be 5f67 c6bc 41ab 293e 427a e93c
000000c0: 8cdc 64be fea5 473c 22f1 c63a 841e bebd
000000d0: c270 da3d f1bc 9abd 00de ff3b f384 083e
000000e0: b77c 81bd aa8d d73d 2f1a 823d bf7e 613d
000000f0: 6ecd 503e 2fd8 473e c714 db3d bbe8 d83d
00000100: 3545 0dbe 9429 103e a0f6 2cbd 459d 5bbe
00000110: ac3d 0abe 5153 1cbe b0c7 ca3c 29c2 59bd
00000120: 0dbc c93d f7d0 eebd 9047 b8bd a743 1c3c
00000130: f592 e2bd e554 b6bd 554e 73bd 4b53 fa3c
00000140: 2172 063e 745c 743d f399 193e d6f5 1ebe
00000150: 92df d13d 87b9 0b3e 5b28 b6bd 0188 d73d
00000160: 083d bb3e a60c 16be 338f 69bc d5b5 7c3e
00000170: 5670 093d 4f18 95bd 4886 bdbd 4319 6f3d
00000180: 4b2c 85bb 7b48 52be 646e 9cbe 6a2a 08bd
00000190: e87c 14be 0feb 073e 8e27 1ebd 7a22 36be
000001a0: e548 e13c b10c dfbc aa76 8dbe 0610 4bbb
000001b0: 7d57 90bd 9dd6 893d 928a 39be c148 053e
000001c0: 9fa5 d83d ec4f 503d acbd 09be ea00 113d
000001d0: 44ba ac3d 3004 833d 8c49 1e3d 2b96 32bd
000001e0: 251e c0bd fbfa edbc 98c1 c43d eaf4 3cbd
000001f0: 972a 81be 67e0 91bc fd36 263d 4f44 f23c
00000200: d755 42bd 06f8 0d3e 223a 303e 467e a9bd
00000210: cc5e f03d a059 093e 5356 5bbd e0a0 2238
00000220: 80e8 e8bc 2d23 37bb dbf2 bb3d 4ea6 7a3d
00000230: 4f48 1bbc 3e80 b33d e9c3 cbbd 6253 93bd
00000240: 8de9 e0bd cdd0 90bd e07f fbbd 2d7d 42bd
00000250: 3428 083e 001b 2ab9 0101 503e 423f adb9
00000260: e33a 1cbd 683c 033e 0ab3 36bd 05e3 653c
00000270: e52c 17be fba0 453e 1d3b c1bc 26d7 873e
00000280: 37a5 a83c 911c 1f3c 4cf3 9fbd f649 d33d
00000290: 3721 c8bd e599 433e cd7a dabb acc5 74bd
000002a0: 0862 0f3d 736c 2dbd 125e 1bbd eb76 3b3c
000002b0: d504 593d 4805 e2b8 4d4b bcbb 36c7 19bc
000002c0: 74c2 d73d e7ac 54bd 79a1 a3bd de8b c43d
000002d0: 23b2 d73d fa0b d53d 8703 c1bd 3569 91bd
000002e0: 9880 84be 1e53 23bd 1fce 253e 15e7 d8bc
000002f0: 0d4b 3abe b63d b23d b57f 1bbe 1f79 ab3e
00000300: fdbe 123e 7109 bc3c 1311 05bb 3777 d9bd
00000310: 9fc8 243e f051 24bc 17d7 40bd 6bc8 ba3d
00000320: 7004 143d d8b3 c5bb 3353 90b8 1b6c d0bd
00000330: a80e 03bd ab54 b7bd 376d 8abd 2361 68bd
00000340: 43e1 b8bd 9261 cabd bdf8 033d adc3 b7bd
00000350: c80c a53c 375f 6abd 2f39 c2bc b7e9 01be
00000360: 20c9 e8bd 4fa0 dbbd 8737 183d e1ef fdbd
00000370: 0272 91bd fce2 96bd c4b5 ec3c 6961 9839
00000380: 9c0f d9bd 20e5 f5bc 2338 27bd e383 b3bd
00000390: 8d49 983d ca0f f3bb e5c1 f2bd aa40 8c3d
000003a0: 1192 8c3d b267 a83c cc4e 713d 9152 b8bb
000003b0: 99f7 523c e3cb bdbd ad96 8ebd 3c5d 2bbb
000003c0: 9a79 003d 3ffd b2bd 1580 c93d eef1 e3bc
000003d0: 3bdc a2bd 63c5 8dbd a0cf 9fbd 7371 143c
000003e0: aa73 18bd cd26 9f3d 74f0 07bd 2cfb 9fbc
000003f0: 3a6e e9bd b483 cbbd 18b6 a73d f883 c3bd

4.bias f4 [100]
0.2364553 -0.010210544 -0.0637123 -0.008463713 0.14180754 0.10422376 0.106214136 0.053123925
-0.08517213 0.15619731 0.06179696 0.0026481908 -0.09632624 -5.8880396e-05 0.009377923 0.30269846
-0.1309585 0.0004764727 -0.07496979 0.09544753 0.34034416 0.05590634 0.029094454 0.00805401
-0.009959229 0.04430071 0.1153343 -0.16443639 0.02822952 -0.19920208 0.10468739 -0.31670085
0.0027508226 0.22143371 0.13683216 -0.1101145 -0.25196502 0.22067478 0.5518546 -0.16683598
0.023539228 -0.02154495 0.075708784 0.15711841 0.13587342 0.11607902 -0.04488913 -0.07613919
0.23480107 -0.039086193 -0.24931931 -0.09249583 0.08651591 0.13458246 -0.13182561 0.16673534
0.021284442 -0.14379545 -0.07209094 -0.12283331 -0.032809746 0.04704188 0.09928844 -0.016133174
-0.158202 -0.22465321 0.09054103 0.10957843 -0.05812975 0.17654872 0.18643561 0.4018922
-0.22127186 0.07329578 0.03556205 -0.09221816 -0.03246617 0.01072332 -0.13044584 0.13518648
0.13436815 -0.09013918 -0.06068643 -0.25776532 0.00284839 -0.0010871865 0.15500575 -0.02817375
0.03251938 -0.00914232 -0.07729981 0.30322027 0.31797802 -0.040833566 0.28337136 0.284845
0.114533715 0.06591888 -0.14177297 0.0014762783
00000000: 5721 723e 204a 27bc 987b 82bd 63ab 0abc
00000010: ff35 113e 4473 d53d cc86 d93d 7998 593d
00000020: ba6e aebd 30f2 1f3e cf1e 7d3d 458d 2d3b
00000030: b146 c5bd 58f6 76b8 dca5 193c 4bfb 9a3e
00000040: fc19 06be 15cf f939 c389 99bd ff79 c33d
00000050: 9741 ae3e 0cfe 643d 7e57 ee3c f7f4 033c
00000060: 092c 23bc a974 353d 6434 ec3d 0362 28be
00000070: 9841 e73c a1fb 4bbe 5866 d63d 9d26 a2be
00000080: 2547 343b 85bf 623e bb1d 0c3e b683 e1bd
00000090: 8f01 81be 92f8 613e 5846 0d3f 0dd7 2abe
000000a0: 57d5 c03c 097f b0bc 350d 9b3d a6e3 203e
000000b0: 6722 0b3e d6ba ed3d aadd 37bd ddee 9bbd
000000c0: b16f 703e d818 20bd 904d 7fbe 746e bdbd
000000d0: 412f b13d fccf 093e 4bfd 06be abbc 2a3e
000000e0: b65c ae3c 1d3f 13be 6aa4 93bd 0890 fbbd
000000f0: 8363 06bd fdae 403d bd57 cb3d b829 84bc
00000100: b5ff 21be 7e0b 66be 936d b93d a86a e03d
00000110: 7619 6ebd 30c9 343e fae8 3e3e d0c4 cd3e
00000120: 1795 62be 191c 963d 83a9 113d e0dc bcbd
00000130: 3ffb 04bd ddb0 2f3c 9893 05be 536e 0a3e
00000140: ce97 093e e49a b8bd 5692 78bd d1f9 83be
00000150: 0eac 3a3b ed7f 8eba d4b9 1e3e a3cc e6bc
00000160: 0b33 053d abc9 15bc 5d4f 9ebd b03f 9b3e
00000170: 04ce a23e 1941 27bd 0d16 913e 34d7 913e
00000180: a790 ea3d 7a00 873d ef2c 11be ae7f c13a

6.weight f4 [157, 100]
-0.122307554 0.07623576 0.004633003 -0.03407077 0.03600452 -0.057900406 -0.03407816 -0.054085813
0.061842896 -0.033854008 -0.089685515 0.0037237743 0.00900725 0.056885883 -0.017970467 0.018954493
-0.22961573 0.07531926 -0.066165134 -0.03867738 0.051146947 -0.1885997 -0.4662611 -0.13613716
-0.05714213 -0.3742657 -0.019478481 0.058801986 0.0059953867 0.00033852263 0.052195504 -0.029358288
-0.010232158 -0.22465771 -0.11291751 0.16484262 0.11195419 -0.3396305 0.0102942465 0.07692211
-0.008344441 0.039106295 -0.014486273 -0.13162763 0.033294372 -0.11992918 0.047499947 0.063250564
-0.20247222 -0.10771228 -0.008879857 0.08369346 -0.00821169 -0.042579025 -0.07372887 -0.26967362
-0.035443425 -0.10673386 0.2602247 0.0591119 -0.026644401 0.06759295 0.0055614403 0.08280273
-0.084710486 -0.013232432 0.006538863 0.04793918 -0.08246833 0.14309582 0.051593002 0.01030584
-0.06021479 0.12594917 -0.052122597 0.07010976 -0.039330713 -0.058180477 -0.019980242 -0.17132941
-0.009768117 -0.07598173 0.040378157 0.023666814 0.074412465 0.09458392 0.05764549 -0.03696116
-0.07262005 -0.0941045 0.046218544 -0.10195394 0.046371806 0.004540446 -0.023474941 0.23171225
-0.011277916 0.08531388 -0.010842568 0.09683375 0.067330845 0.0002560729 0.017050473 -0.057225678
0.15768017 -0.112951726 -0.22346249 -0.004980766 -0.08835378 0.1583005 -0.07880948 -0.036872134
-0.11339739 -0.12953585 0.035404455 0.05394699 0.11676645 -0.23322766 0.21029112 0.047904205
0.08636652 -0.015416806 0.13559024 -0.06448002 0.08287068 -0.26692143 -0.33444327 0.06819499
0.09299662 -0.050468307 -0.06949223 -0.15947434 0.011244428 0.0081072105 -0.33674616 -0.0502722
0.0776311 -0.08770456 -0.18019679 -0.4135254 -0.1482036 -0.059014626 -0.3520435 0.12501545
-0.017314553 0.06688577 -0.004349915 0.031320445 0.08360979 -0.008960083 -0.12112332 0.06596556
0.04251339 -0.36854863 0.10354906 0.0526138 0.013417655 0.079378195 -0.05202502 0.033330508
0.1779978 0.12490243 -0.0917413 -0.04684393 0.23185916 -0.22548495 -0.02534973 0.1112816
-0.084257126 -0.048046757 -0.26394153 0.24287789 0.048375715 -0.1963963 -0.0089355 -0.046025947
0.033001367 0.07889762 -0.043538466 0.11901082 -0.3150843 0.11468263 0.00013131433 -0.026851753
0.08257947 -0.011070626 -0.37959594 -0.0036667576 0.122256935 -0.012948235 -0.056380328 0.06327887
-0.014455243 -0.076526396 0.026206996 0.1289859 0.12235754 0.017671779 -0.011556951 0.0017282323
-0.35938892 0.0023115124 -0.081463955 0.0013811456 -0.4105016 0.2963548 0.047374636 0.008869718
0.049812384 -0.049891703 0.056717996 0.04347641 0.16067146 -0.2611022 0.062802166 0.01673731
0.05156888 0.11269771 -0.03222723 0.09588027 -0.0011795148 0.11935763 0.065190814 -0.002335468
-0.017689088 -0.061838996 0.0575317 0.004863896 -0.024968384 0.0553388 -0.040141433 0.0129807945
-0.005222228 -0.2256723 -0.1115617 0.13756348 -0.039227992 0.18192865 -0.09262553 -0.05879411
-0.039573766 -0.040468752 0.15096162 -0.19366643 0.13528004 -0.023695324 0.018195597 -0.015488496
0.0823349 -0.19764368 -0.031990476 0.09684463 0.07015721 0.06898768 -0.09186403 -0.016657617
00000000: 627c fabd 7e21 9c3d 72d0 973b cb8d 0bbd
00000010: 7a79 133d fa28 6dbd 8a95 0bbd 1689 5dbd
00000020: fa4e 7d3d 80aa 0abd 0aad b7bd 910a 743b
00000030: 2593 133c 2c01 693d cd36 93bc 7446 9b3c
00000040: 6320 6bbe fc40 9a3d 9681 87bd 2c6c 1ebd
00000050: 767f 513d 4820 41be c6b9 eebe 8a67 0bbe
00000060: de0d 6abd c19f bfbe 5691 9fbc 5ada 703d
00000070: f374 c43b bd7b b139 f4ca 553d cb80 f0bc
00000080: c8a4 27bc ac0c 66be 4c41 e7bd 81cc 283e
00000090: 3d48 e53d 0de4 adbe 33a9 283c 5789 9d3d
000000a0: 1fb7 08bc ec2d 203d d557 6dbc 65c9 06be
000000b0: ae5f 083d 6e9d f5bd 4e8f 423d 8389 813d
000000c0: e154 4fbe 4198 dcbd d27c 11bc 7a67 ab3d
000000d0: 538a 06bc 5867 2ebd 29ff 96bd a912 8abe
000000e0: 202d 11bd 4897 dabd 2c3c 853e 521f 723d
000000f0: 5c45 dabc 2c6e 8a3d be3c b63b 7a94 a93d
00000100: b17c adbd d8cc 58bc f543 d63b e05b 443d
00000110: 28e5 a8bd b687 123e 2f53 533d d3d9 283c
00000120: c9a3 76bd d2f8 003e 817e 55bd b595 8f3d
00000130: 3e19 21bd a74e 6ebd 9bad a3bc fa70 2fbe
00000140: 740a 20bc 4f9c 9bbd 9163 253d e8e0 c13c
00000150: 9065 983d 37b5 c13d ad1d 6c3d 9664 17bd
00000160: d2b9 94bd dcb9 c0bd a84f 3d3d 3acd d0bd
00000170: 5df0 3d3d 06c8 943b 854e c0bc fa45 6d3e
00000180: 02c7 38bc 0bb9 ae3d 07a5 31bc c650 c63d
00000190: c1e4 893d 8641 8639 6fad 8b3c 7965 6abd
000001a0: e976 213e 3c53 e7bd 5ad3 64be b235 a3bb
000001b0: d4f2 b4bd 8719 223e dd66 a1bd 3c07 17bd
000001c0: e43c e8bd 0ca5 04be 4304 113d 85f7 5c3d
000001d0: 4023 ef3d 3bd3 6ebe 8e56 573e 3337 443d
000001e0: eee0 b03d c596 7cbc 2bd8 0a3e 1a0e 84bd
000001f0: 1ab8 a93d eda9 88be 263c abbe d1a9 8b3d
00000200: 0375 be3d dbb7 4ebd f151 8ebd 3e4d 23be
00000210: 8d3a 383c 1bd4 043c fe69 acbe 39ea 4dbd
00000220: 0efd 9e3d 739e b3bd 8285 38be 9ab9 d3be
00000230: afc2 17be 52b9 71bd 0c3f b4be 0d04 003e
00000240: 40d7 8dbc 68fb 883d bb89 8ebb de49 003d
00000250: 9c3b ab3d 50cd 12bc 810f f8bd f418 873d
00000260: 8522 2e3d 68b2 bcbe 8811 d43d 9181 573d
00000270: b9d5 5b3c 0991 a23d 3018 55bd 9285 083d
00000280: 0e45 363e d8cc ff3d dde2 bbbd 6cdf 3fbd
00000290: 7d6c 6d3e 87e5 66be 3daa cfbc 9ce7 e33d
000002a0: 008f acbd adcc 44bd 5823 87be fbb4 783e
000002b0: 9d25 463d 1d1c 49be 3466 12bc b485 3cbd
000002c0: 712c 073d 1395 a13d 6455 32bd f2bb f33d
000002d0: bb52 a1be bade ea3d 6cb1 0939 35f8 dbbc
000002e0: 6d1f a93d 9261 35bc 665a c2be fc4d 70bb
000002f0: d861 fa3d d524 54bc 0fef 66bd 5a98 813d
00000300: afd5 6cbc dfb9 9cbd 0eb0 d63c e114 043e
00000310: 9796 fa3d 68c4 903c 5e59 3dbc da85 e23a
00000320: d301 b8be be7c 173b 93d6 a6bd 8e07 b53a
00000330: 442d d2be d1bb 973e e80b 423d 4b52 113c
00000340: 1208 4c3d 3e5b 4cbd 2151 683d 5214 323d
00000350: 0f87 243e 30af 85be 6c9e 803d af1c 893c
00000360: e439 533d 0fce e63d b300 04bd e05c c43d
00000370: f399 9aba c671 f43d c382 853d a70e 19bb
00000380: b5e8 90bc e34a 7dbd 5ca6 6b3d 5161 9f3b
00000390: 7f8a ccbc f0aa 623d 586b 24bd 66ad 543c
000003a0: 391f abbb a416 67be 767a e4bd 71dd 0c3e
000003b0: 88ad 20bd 814b 3a3e 74b2 bdbd 18d2 70bd
000003c0: 1a18 22bd 90c2 25bd af95 1a3e 7e50 46be
000003d0: da86 0a3e b21c c2bc ef0e 953c 76c3 7dbc
000003e0: 339f a83d 1b63 4abe 7208 03bd 7a56 c63d
000003f0: 95ae 8f3d 6a49 8d3d 3523 bcbd 8e75 88bc

6.bias f4 [157]
0.076736726 -0.077126995 0.086182855 -0.19422817 -0.08054099 -0.19599771 -0.03228057 0.039911207
-0.05830175 0.082657315 -0.07385794 0.022403399 -0.04500847 -0.2487377 -0.33015156 0.037410144
-0.042099383 0.14595808 -0.053381402 0.1459894 0.012350988 0.036272798 -0.13555568 0.23212817
-0.21808954 0.1187664 -0.009421946 0.15961878 -0.21194422 0.15518819 -0.18318787 -0.027750896
-0.088188104 -0.045332074 0.04101969 0.122753054 0.023800047 0.23614728 0.024073808 -0.07492458
-0.21908905 -0.116073914 0.088930696 0.0579459 0.02670532 0.23119289 0.1517998 0.13116606
0.11074449 0.080801606 0.013873236 0.23262703 0.0008960505 -0.003185349 0.087227024 0.106699534
-0.23753868 0.055714022 -0.054646235 -0.10917609 0.03320778 0.16674894 0.1987686 0.0746304
-0.060383886 -0.033216663 0.21629581 -0.06262711 -0.23812477 -0.03599503 -0.01083238 0.14107175
0.1530653 -0.034724295 -0.06337494 -0.0741455 -0.13197695 -0.15181656 -0.017972315 -0.025747806
-0.08873113 -0.06130612 -0.20353396 0.0753588 0.09308949 0.13660935 0.08911442 0.20358415
0.18667705 -0.092660114 -0.21643858 0.25021455 -0.0065253945 0.15285654 -0.057315186 -0.22683345
0.044195984 -0.045402046 -0.15998344 -0.04888097 0.10392848 0.08050175 -0.11026196 0.1758143
0.031180821 0.012777328 0.13226691 -0.06721751 -0.08192017 -0.03618174 -0.17617431 -0.09495316
0.06541549 -0.020947032 0.066073544 -0.15870948 -0.047727462 0.007134031 -0.051733878 -0.067639224
0.097883865 0.34888718 -0.039580334 -0.14751329 0.11335776 -0.13436443 -0.03558401 0.10422605
0.123241656 -0.10259606 -0.056836963 -0.0397196 -0.16595133 -0.053941213 -0.061004326 -0.12209664
0.050494965 -0.08414396 -0.019262956 0.098192155 0.37301278 0.08100526 -0.2226004 0.050040513
-0.036424268 0.06419432 -0.17747352 0.10562756 -0.012513329 0.08756248 -0.034772985 -0.2456244
-0.1668373 -0.09423284 -0.0043248837 0.07581527 0.11040357
00000000: 2528 9d3d c2f4 9dbd a380 b03d c0e3 46be
00000010: adf2 a4bd a0b3 48be a238 04bd ef79 233d
00000020: d1cd 6ebd 3d48 a93d d542 97bd 5587 b73c
00000030: cd5a 38bd 18b5 7ebe a009 a9be 613b 193d
00000040: 6770 2cbd 0976 153e 75a6 5abd 3f7e 153e
00000050: cc5b 4a3c c992 143d 1ccf 0abe 02b3 6d3e
00000060: dd52 5fbe cc3b f33d 815e 1abc 1b73 233e
00000070: e807 59be a7e9 1e3e 9a95 3bbe d955 e3bc
00000080: f79b b4bd 20ae 39bd 4304 283d f465 fb3d
00000090: 51f8 c23c 98d0 713e 6f36 c53c 0f72 99bd
000000a0: e158 60be 29b8 edbd 4c21 b63d ae58 6d3d
000000b0: 1ec5 da3c d4bd 6c3e 6871 1b3e 6550 063e
000000c0: 02ce e23d 507b a53d 924c 633c c835 6e3e
000000d0: eee4 6a3a 4ac1 50bb 15a4 b23d 4985 da3d
000000e0: 573d 73be 6334 643d bbd4 5fbd b797 dfbd
000000f0: e204 083d 3cc0 2a3e ff89 4b3e d3d7 983d
00000100: 1855 77bd 320e 08bd a67c 5d3e a442 80bd
00000110: fbd6 73be 866f 13bd 4b7a 31bc 1d75 103e
00000120: 26bd 1c3e 103b 0ebd b8ca 81bd 99d9 97bd
00000130: f724 07be cd75 1bbe ad3a 93bc 10ed d2bc
00000140: abb8 b5bd 201c 7bbd 356b 50be b755 9a3d
00000150: b4a5 be3d 52e3 0b3e 9f81 b63d 5d78 503e
00000160: 4528 3f3e 96c4 bdbd 13a2 5dbe 1f1c 803e
00000170: fad2 d5bb 6d86 1c3e 54c3 6abd 0747 68be
00000180: d906 353d 7ff7 39bd b3d2 23be 6937 48bd
00000190: 74d8 d43d 1ade a43d 06d1 e1bd aa08 343e
000001a0: ec6e ff3c ff57 513c fa70 073e 55a9 89bd
000001b0: c3c5 a7bd 4e33 14bd 0a67 34be cd76 c2bd
000001c0: 8ef8 853d 1c99 abbc 9151 873d bd84 22be
000001d0: df7d 43bd 97c4 e93b e7e6 53bd 6f86 8abd
000001e0: 5677 c83d 57a1 b23e fd1e 22bd b90d 17be
000001f0: 1d28 e83d d496 09be 8ac0 11bd 7874 d53d
00000200: 1f66 fc3d e21d d2bd e0cd 68bd 05b1 22bd
00000210: 25ef 29be 76f1 5cbd acdf 79bd ce0d fabd
00000220: cfd3 4e3d ab53 acbd 59cd 9dbc f818 c93d
00000230: 88fb be3e 16e6 a53d 5cf1 63be 48f7 4c3d
00000240: 9d31 15bd 5078 833d 9ebb 35be 4353 d83d
00000250: b504 4dbc f553 b33d 1e6e 0ebd f684 7bbe
00000260: 66d7 2abe 26fd c0bd c1b7 8dbb 0945 9b3d
00000270: 441b e23d
