neura1/bestval_e9_weights.ckpt (torch, 399055 bytes, 8 tensors)

0.weight f4 [100, 630]
00000000: 399a 993a 28b8 493c 1b89 80bc 1ada a1be
00000010: 2591 ddbd 58ea 56be 55fe 9bbe d18d 71bd
00000020: 4547 a5be ca60 f3be ece4 ddbe a2cb d0ba
00000030: c498 a43d f62c f13e 1797 81bc bc51 433c
00000040: 9ec9 6b3e 2e69 ac3e f77d b8bd aa77 453e
00000050: 9350 613e 4af7 cc3e 8a00 89bd fd02 bd3d
00000060: 1130 7a3e 358d d73e 3481 b13d 9348 843d
00000070: 0e13 e63d c789 5cbe 82fa f7ba 7a39 5bbd
00000080: 4cda 123d f277 cdbd 6eaf bcbd d995 c9bd
00000090: dc36 15be 7a9f 6bbc 8c3f 0dbe 545d 90be
000000a0: 4c2e 95be d570 80bd 5ed0 22bc a7c6 613e
000000b0: 9fba e7bc ca9b 11bd cbc4 b13d 2b95 693e
000000c0: ff5e 01be a766 ad3d 9e88 b03d 0922 9e3e
000000d0: 6b13 00be cd24 1b3d 44ac 1d3e e2ad a63e
000000e0: ecb3 21ba cac1 c0bb e980 133d 2c43 85be
000000f0: 0502 853c beeb 34bc 1e9d ca3b 385d f4bd
00000100: 8430 dcbd b194 83bd ac18 02be 0eb5 773c
00000110: de82 28be 0912 80be ebfc 65be b89b 85bd
00000120: 5502 5d3c 54bc 873e 2bf1 2f3d 1988 c73b
00000130: e487 953d 820a 813e d658 96bd 3e83 f23d
00000140: 7b5c 9e3d 99b6 933e 2e1e 82bd 5628 313d
00000150: d4cd 413e 5f41 9d3e 792d 24bd 7ef2 2dbd
00000160: e72f e9bb 6551 51be 77f9 47bc 39a5 a8bd
00000170: abbf 363c 65c7 82bd 67e9 6bbd 346c 3cbd
00000180: fe65 eabd 92ae 2dbd 125e 29be d877 8ebe
00000190: dfc9 5abe 7afd 6dbd 2747 ffb9 286a a23e
000001a0: 2b11 023d 52e1 8dbb eade b43d 1787 5b3e
000001b0: ff12 d7bd 6860 c13d 07a2 dd3d 365c 963e
000001c0: cfda dbbd 263f 6a3d d9aa 123e 7a93 803e
000001d0: 62ef d6bc a6a7 14bd 7f40 abbc e0c6 76be
000001e0: 01d9 9bbc a7f4 8bbd 72c4 b23c b657 95bd
000001f0: b3b0 83bd cf21 68bd ff3a 08be 2f0e 02bd
00000200: 61d6 19be 95c3 97be 0d46 79be 31c7 40bd
00000210: 922e 593d 7adf a63e 383e 8a39 4772 abbc
00000220: d7c4 bb3d 339e 8d3e a120 9abd 037e 143e
00000230: e386 f93d 0eff 923e 3110 9ebd 6d77 d83d
00000240: 1cde fd3d 8ea0 813e e5a6 28bd c6ea 64bc
00000250: dc38 1e3d 0999 82be 3438 0a3d 8dce 7cbd
00000260: b7bc 0d3c f7e4 e2bd 1f91 68bd fa2c 8abd
00000270: 133c 15be 5d13 7cbd 3102 03be a959 96be
00000280: c287 69be 2883 80bc 4177 9f3d 7a7c 943e
00000290: 3764 e53c 3072 3cb9 6847 943d bd5a 973e
000002a0: 4b08 e7bd 0606 3c3e fb79 f93d e388 5e3e
000002b0: a502 49bd c5c7 f53c 3e58 273e b420 7f3e
000002c0: 1878 b4bd c92a 9cbd 3a2b f53c 2ba6 66be
000002d0: 4bda 393d e712 72bd aac4 193d a3ea ccbd
000002e0: f4f9 ebbb a355 593b ce0e ddbd 4639 d4bc
000002f0: 9416 37be d8b2 b2be 0cfe 74be 603d 93bc
00000300: c526 233d a4f1 9b3e e2e5 343d 93bb 8a3c
00000310: 30fc f83d 2f04 683e ae08 c3bd 5edc 513e
00000320: a3c8 383e 20c6 8d3e 572a 81bd 50fa 5a3d
00000330: 3e6e 233e 6b24 813e 9596 8cbd f7c8 eebc
00000340: fc98 e5ba e3fb 87be 38be c33b afbb fabc
00000350: 32af 163c 87d3 81bd 8581 8bbd 2bec 37bd
00000360: 36cd 17be f163 b4bd 51ab 1abe eb6c b1be
00000370: f4a0 6bbe 3df8 e9bc a90b 6a3d 5988 b53e
00000380: 4dcf 513d 94b8 583d 23d7 d03d ef69 aa3e
00000390: e391 acbd 49f5 2b3e 0f86 1e3e 808d 8d3e
000003a0: f60d 2bbd d67d 0b3e 1464 133e 7941 9d3e
000003b0: d43f dabd 195a 81bd fa08 2ebd cf42 6cbe
000003c0: 885d ac3c b068 64bd d864 6a3c 92aa c5bd
000003d0: 3446 13bd edc9 26bd acea debd f62c b2bd
000003e0: 2ec1 3bbe 53b5 a0be 3e21 60be 4c53 c93b
000003f0: a08b a43d e5ed a33e dce2 fc3d a485 033d
0.0011718936 0.012311973 -0.015690377 -0.3161171 -0.108187 -0.20987833 -0.30467477 -0.058973137
-0.32280937 -0.47534782 -0.43338716 -0.0015929828 0.0803695 0.47104615 -0.015819116 0.011921342
0.2302613 0.33673996 -0.09008401 0.1928393 0.22003393 0.40032417 -0.06689556 0.092290856
0.24432398 0.4209992 0.08667222 0.06459155 0.11234103 -0.21536933 -0.0018919262 -0.05352161
0.035852715 -0.100326434 -0.09213148 -0.09843034 -0.14571708 -0.014381284 -0.13793772 -0.28196204
-0.29136884 -0.06271521 -0.009937374 0.22048436 -0.02828723 -0.035548963 0.086801134 0.2281081
-0.12633894 0.08466845 0.08619808 0.30885342 -0.12507407 0.037876893 0.15397745 0.32554537
-0.0006168473 -0.0058824765 0.03601161 -0.2602781 0.016236315 -0.011042533 0.0061832806 -0.119318426
-0.10751441 -0.06424845 -0.12704724 0.01511885 -0.16456172 -0.2501376 -0.22459762 -0.065238416
0.0134893255 0.2651087 0.042954605 0.006089222 0.0730131 0.2520333 -0.07341163 0.11841439
0.07732483 0.28850248 -0.063534126 0.043251358 0.18926173 0.30713937 -0.04008243 -0.042467587
-0.007116306 -0.20441206 -0.012205473 -0.08234639 0.011154096 -0.06385688 -0.057595637 -0.046001628
-0.11445235 -0.04240281 -0.16539791 -0.2782581 -0.2136607 -0.058103062 -0.00048690403 0.31721616
0.031754654 -0.004329839 0.0883158 0.21438251 -0.1050167 0.09442216 0.1082192 0.29367226
-0.10735094 0.05718913 0.14322986 0.25112516 -0.026237193 -0.036292695 -0.020904778 -0.24099302
-0.019024374 -0.06833773 0.021822188 -0.0729212 -0.06430187 -0.056672867 -0.13303755 -0.031751808
-0.15023185 -0.29641405 -0.24343129 -0.047064964 0.05302293 0.32592374 0.00026367768 -0.020928515
0.091684036 0.2765976 -0.07525755 0.14501195 0.12183931 0.28710216 -0.07717932 0.10569654
0.123958796 0.25317806 -0.041174788 -0.01397199 0.038628444 -0.25507382 0.033745006 -0.06172042
0.00865095 -0.11078828 -0.056779023 -0.0674686 -0.14573698 -0.061541904 -0.12793805 -0.2936528
-0.22805694 -0.01568754 0.07786418 0.29001218 0.028001888 -0.00017971615 0.07240182 0.29561415
-0.11280879 0.18361673 0.12181469 0.21731906 -0.049074788 0.030002484 0.16342255 0.24914819
-0.088119686 -0.07625348 0.029927839 -0.22524326 0.045374196 -0.059100058 0.03754107 -0.10005691
-0.0072014276 0.0033162616 -0.107938394 -0.025906216 -0.17879707 -0.34902072 -0.23925036 -0.017973602
0.039831895 0.30457795 0.044164546 0.016935145 0.12157476 0.22657846 -0.0952314 0.2049422
0.18045287 0.2769022 -0.06306904 0.053461373 0.15960023 0.25223097 -0.06864659 -0.029148562
-0.0017516906 -0.26559362 0.0059736036 -0.030607073 0.009197043 -0.06339174 -0.06811813 -0.04490296
-0.14824376 -0.08808125 -0.15104415 -0.3465341 -0.23010617 -0.028560752 0.057140026 0.35455588
0.051223088 0.052910402 0.10197284 0.33283946 -0.08426263 0.16792788 0.15480827 0.27647018
-0.04176136 0.13622221 0.14393646 0.30714014 -0.106567055 -0.06316013 -0.04248903 -0.2307236
0.021040693 -0.0557639 0.01430627 -0.09651674 -0.035955623 -0.040719915 -0.10884604 -0.08699982
-0.18335411 -0.3138834 -0.21887681 0.006143963 0.08034444 0.32017437 0.123479575 0.03210987

0.bias f4 [100]
00000000: eb44 013e 400c b43c 1a7f d33b fa7e 013d
00000010: a0c4 5a3e d13f e93d 58be 80bd fbe8 ab3c
00000020: 985f afbe fdc0 17bf 9bd0 13be 150e 2dbe
00000030: 9919 143d b288 473c e4c1 d6bd 2765 4a3e
00000040: be0a 813b f81b 39bc 4cba c03e 1f35 683e
00000050: 4e03 093f 6799 9cbd 2c59 01be 8b40 f83e
00000060: fb87 b33d 3f1a 313c 5b85 103e c808 673e
00000070: 508e f7bd d059 4ebd bffa 483e cc3b 0abe
00000080: 8585 52bc 31f0 f1bb 8b48 923d 14eb 97be
00000090: 1cea b8bd b5d4 d4be e6a5 ccbc 2a0e 0cbd
000000a0: a14d 40bc 8bb9 2abe be12 cdbc e7f1 7cbc
000000b0: 345e b13c b71e ccbd b277 e63a 0144 e2be
000000c0: 3679 f9bd d31d 57be c6ea 85be 895e a23e
000000d0: 493a c9bc 3638 923e 8420 d5bd 53be 50be
000000e0: 8837 22bd 9c8d 613e 5195 abbc 1d3f 6dbc
000000f0: 8151 98bb 8e9c 57be 9cc7 9ebe 8633 28bd
00000100: 0ac9 853d 9a79 b5bd 1adc 59bd fb0b 86bc
00000110: 8ca3 e6be 5156 733e 1a86 36bf 771d 483d
00000120: 2775 a8be 55ee e53b 688e bbba 0464 b0bd
00000130: d76e b1bc f17b 1ebf dc8f edbc dd08 2fbe
00000140: 4baa cb3c 291f f53d 5bad 4e3e c04c b83d
00000150: b2c6 fabc ff1c 6d3e baef 1e3e 5f76 5fbe
00000160: a2da fc3b 0612 223c 317a 053e b2da e7bc
00000170: bbfd 68be 3092 303c f02e 69bd b3c3 f5be
00000180: 0bd0 c8bd 7a27 953e e1ad 52be 6f1b 843d
0.12623946 0.021978498 0.0064543607 0.031615235 0.21364069 0.11389125 -0.06286305 0.020985117
-0.3425262 -0.5927885 -0.14435045 -0.16899903 0.036157224 0.012178587 -0.104862005 0.19765149
0.003938048 -0.011298172 0.37642133 0.22676514 0.5352067 -0.07646447 -0.12631673 0.48486742
0.087661706 0.01080948 0.14113371 0.22561944 -0.12087691 -0.05037862 0.19626902 -0.13499373
-0.012849216 -0.0073833694 0.07142743 -0.29671538 -0.09029028 -0.41568533 -0.02498145 -0.034193195
-0.011737258 -0.16672342 -0.025033351 -0.015438533 0.021651365 -0.09966796 0.0017583279 -0.44192508
-0.12181322 -0.21007471 -0.2615568 0.3171275 -0.024563925 0.2855851 -0.104065925 -0.20385103
-0.03960374 0.22026676 -0.020945223 -0.014480379 -0.004648388 -0.21055815 -0.31011665 -0.04106476
0.06532486 -0.08861084 -0.05318842 -0.016363135 -0.4504665 0.23763396 -0.7129837 0.048856225
-0.3290188 0.007016937 -0.0014309408 -0.086128265 -0.021659298 -0.6190787 -0.028999262 -0.17093225
0.024861475 0.11968834 0.20183317 0.08999014 -0.030612323 0.23155592 0.15521136 -0.21822499
0.0077164927 0.009891992 0.13034894 -0.028302524 -0.2275304 0.010777041 -0.05692953 -0.4800087
-0.09805306 0.2913168 -0.20574142 0.06450545

2.weight f4 [100, 100]
00000000: 44a4 49be ca3f b8bd 0dac 96bc c729 52bd
00000010: 78d5 76bc 8534 3f3e 47fa ab3d 43b3 00bd
00000020: 5feb 4c3e 78dc acb8 763b 8b3c 801f 523e
00000030: 3566 02be a069 653d fdea 9ebc c3ac b03d
00000040: aa8a dd3c b3c1 f3bb 15b1 f73d 9b3d 013e
00000050: 9a38 e9bd 8327 c23d a76c 3c3d f711 57be
00000060: c36f 203a fddc a53d d2e9 0fbe 1d32 25bd
00000070: cc6c 053e 9821 b93e b340 9dbd f286 58bd
00000080: fa52 4d3d 473f a4bd 8064 de3d 28f9 a0bd
00000090: 809b 36be 400e 343d 6756 86bd cda7 0fbd
000000a0: 8030 6e3d ec86 f0bd cd3a c43c 576f c5bd
000000b0: d373 28bd 82ac 203d 2d1f bd3c bb16 a03d
000000c0: 8d66 3f3e 9dba 253d 51d1 013e 8927 e13d
000000d0: cd5d 87bd aa0d 63be a42b 34bd 4e52 d6bd
000000e0: fc75 133d e31c 1fbe 1dbc b3bd fbae 8abd
000000f0: 7aa9 9f3d 7ee4 0b3e e85e 913d f91c f8bd
00000100: cba2 7d3e aab5 fabd 77b2 2bbe 3aea 723d
00000110: c4f6 723e 5ca3 1b3d 7046 f83d e219 703e
00000120: 139f 11be adc9 67be fa3e b93d 5842 493c
00000130: 6772 903b 43e5 e5bc 8085 ec3c e9a3 8abc
00000140: 5769 593d 44a5 8f3e f67b f63d 4014 fc3d
00000150: ed3f d33d de1e b23d 5357 39be 8071 923d
00000160: 1a35 61bc adae 73bd 6666 f8bc 9da2 3dbd
00000170: 293e 463e c72b 953d d2a6 263f 6d1a b13d
00000180: 09e3 683d 55af d9be 01a7 663e bc98 8dbe
00000190: b43f 2a3d 08f6 a0bc 6390 b4bd 7ee2 b93d
000001a0: e2db 543e 3bca f8bd 828d b73e 3270 cfbd
000001b0: 93bb 0b3e 1f36 d8bd 1157 a43d c3d8 f6bc
000001c0: 2c33 93bc a74f 1dbd 5e4b 1e3e 9078 19be
000001d0: 8e37 953d 0d47 febc f5b4 1d3e 7e38 3e3e
000001e0: 32e4 83be 88cc 1e3e a109 93be 36b8 143e
000001f0: e65c 873d 94e8 febc 0ef7 93bd 2283 823e
00000200: d556 083e 8529 b6be 44db 81bd 5933 c93d
00000210: 6e09 143d 9f86 8b3d 4f2a 63bd ef4a 2abd
00000220: 6856 99bc 9df4 fbbd 93da fd3c 7ff7 a33c
00000230: 98dd 663d 258d 4abd d223 22bb 8009 d43c
00000240: 2757 c93c ddf0 16be e582 f3bc 851a c43d
00000250: ff41 4d3e 6857 0ebe 80d2 b3bd fbcb 81bd
00000260: 5565 1abd cd81 963d e046 123e f3de b0bd
00000270: 5f1b 533d a8d2 553c e46d 843c 637d b23b
00000280: b16d d53d f3e0 e83c f0c4 e23d d426 1e3e
00000290: eaf6 8abd d50c 33bd a8a8 71bd 6f8f 953c
000002a0: 1a46 53be 0e94 d0bc 4a38 cc3c 8a23 6d3d
000002b0: 641c fe3d b493 46bc 1af7 42bd c89d 68bd
000002c0: 8b7f b9bd 65de fe3d 7f9f 21bd bb67 45be
000002d0: 2487 7a3d bf36 8dbd aa3d 6fbd 5264 04be
000002e0: e2fe a1bd 7543 843d c71e 2d3e 7ca6 523d
000002f0: 9ee6 0b3c d0cd 8dbd 137b 873e 14a7 7c3d
00000300: 24d5 963d 8eb5 313d 1b19 b7be 8c4f b53b
00000310: 647a 913d 2cf5 4c3e a43f f8bd 4719 9c3e
00000320: dc19 d2bb fa3b 9cbd ea9a 7f3d aa02 b43d
00000330: 7da7 7ebd b726 56bd 2651 693d 90e1 c3bd
00000340: b4ef da3c 24d5 f9bb c849 81bb 29ec fabd
00000350: fc57 85bd 46be 98bd 842b 8fbd ea8b 98bd
00000360: 9ad7 c7bb 2b0d 9bbd c039 c1bd 1c37 a83d
00000370: f8dd 15bd ea9e a5bd d8ae c43d ef6e 023d
00000380: ff27 1c3d 5a5c 2b3c c1e9 f0bc 1c19 153d
00000390: ecb8 2f3d 0bfc bebd 831e b93c e5e2 e13c
000003a0: c05e b53d 1a85 9fbd 4d06 d1bd c1a1 85bb
000003b0: 49b6 8cbd 2bc4 64bd 40ee d8bc a3a3 2abd
000003c0: 5d02 5dbd 7f8c 05bd a291 8cbd 2dd9 75bd
000003d0: 25b2 963d d08e dabc 45cc a13d 8c04 febd
000003e0: e17a 1bbd d6a7 1f3b 1b37 813b 1a66 cebc
000003f0: 5d27 323d 54f5 793d d4a1 7dbd 7a40 6cbc
-0.19691569 -0.08996542 -0.018392587 -0.051309373 -0.015065543 0.18672378 0.08397346 -0.031420957
0.20011662 -8.2426646e-05 0.016996127 0.20519829 -0.12734301 0.056008935 -0.01939916 0.08626702
0.02704366 -0.007438862 0.120943226 0.12621157 -0.11387749 0.094801925 0.046002056 -0.21002947
0.00061201694 0.08098791 -0.14054039 -0.040330995 0.13029784 0.36158442 -0.07678356 -0.05286307
0.05012796 -0.08019882 0.108590126 -0.07860023 -0.17832756 0.043958902 -0.06559449 -0.035072137
0.058151722 -0.11744484 0.02395382 -0.09640377 -0.041126084 0.039227016 0.023086155 0.078168355
0.18691464 0.04046117 0.12677504 0.10993869 -0.06609688 -0.22173181 -0.04398693 -0.10464917
0.03600119 -0.15538363 -0.08776114 -0.06771656 0.07795997 0.13661382 0.0709818 -0.12114901
0.24769132 -0.12241681 -0.16767298 0.059305407 0.23726946 0.03799759 0.1212281 0.23447374
-0.14220838 -0.22635527 0.09045215 0.012283884 0.004408169 -0.028063422 0.028872252 -0.016923862
0.053078976 0.28055775 0.120353624 0.1230855 0.10314927 0.08697294 -0.18099718 0.07150555
-0.013745571 -0.059492756 -0.030322265 -0.04629766 0.1935965 0.072837405 0.650983 0.086476184
0.056857143 -0.4251658 0.22524644 -0.2765559 0.04156466 -0.019648567 -0.08816602 0.09076403
0.20787004 -0.121479474 0.3585015 -0.101288214 0.13645773 -0.10557198 0.08024419 -0.030132657
-0.017968737 -0.03840604 0.15458438 -0.14987397 0.07285987 -0.031039739 0.15401061 0.18576238
-0.25760037 0.1550771 -0.28718284 0.14523396 0.06609516 -0.031116761 -0.07224856 0.2549067
0.13314374 -0.35578552 -0.0634065 0.09824247 0.036141805 0.06812786 -0.05546027 -0.04157537
-0.01871796 -0.12302516 0.030988013 0.020015476 0.056363672 -0.049451012 -0.002474059 0.025883436
0.02457769 -0.1474032 -0.029725501 0.09575371 0.20044707 -0.1390053 -0.08780384 -0.06337734
-0.037694294 0.07348976 0.14284849 -0.08636274 0.051539775 0.013050713 0.016165681 0.005447076
0.104213126 0.028427577 0.11072719 0.15444499 -0.06785376 -0.04371341 -0.058998734 0.018256871
-0.2063221 -0.025461223 0.024929184 0.05789522 0.12407759 -0.012120176 -0.047598936 -0.056791097
-0.0905753 0.12444762 -0.039458748 -0.19277851 0.061164036 -0.068952076 -0.058408417 -0.12928894
-0.07909943 0.06458179 0.16906272 0.051428303 0.00853887 -0.06924021 0.26461086 0.061682776
0.07364872 0.043386035 -0.3576134 0.0055331644 0.07103422 0.200154 -0.121215135 0.30488035
-0.006411774 -0.07628627 0.062403597 0.08789571 -0.062171448 -0.052283015 0.056962155 -0.09564507
0.026725627 -0.0076242853 -0.003945563 -0.12252075 -0.06510922 -0.07458167 -0.06990722 -0.074485615
-0.0060986998 -0.07570871 -0.09434843 0.08213636 -0.03658864 -0.08086951 0.09603661 0.031844076
0.03812408 0.01045903 -0.029408338 0.0364009 0.042900965 -0.09325417 0.022597557 0.027574012
0.08855963 -0.07789059 -0.1020628 -0.0040781205 -0.06870706 -0.055851143 -0.026480794 -0.041659962
-0.053957332 -0.03260469 -0.06863715 -0.060021568 0.07358197 -0.026679426 0.079002894 -0.12403211
-0.037958983 0.0024361513 0.0039433367 -0.02519517 0.04349457 0.06102498 -0.06192191 -0.014419669

2.bias f4 [100]
00000000: 5574 df3c 6680 803e 135e cabd fd0c 153f
00000010: fcaa f7bd 17e7 1a3d 68c6 313d 9f38 853e
00000020: 22b3 4d3e 5168 06be 2af7 963e d5e8 253e
00000030: f203 f53d 5d0a 7e3d 8fed f4be 5a5e 90bd
00000040: 3896 993e 20e6 473e 9e17 adbc 25be 8e3d
00000050: 6517 ad3d e2d6 08be 1424 31bd 6194 ee3d
00000060: cdbc 50bd 79f8 99bd 5bf2 053d 4b1f c5be
00000070: bac1 4ebd 8fdb febe 8208 173e ac1f 09be
00000080: 03c0 61be a510 0fbf 426a fe3e f3b3 823e
00000090: cb1e dfbc 9e4a e1bd 9116 8fbd 0b22 a73d
000000a0: ffd8 aabd 2c4a 41bd a895 a6bd de8b 623e
000000b0: 3976 82be 20f6 9f3e 8a71 0dbe a670 ccbc
000000c0: 4e1d d1be 0eb0 373d baa2 efbe a6d7 3cbe
000000d0: a3ac 223f ed9f 123e d823 8cbd bbe9 a33e
000000e0: 541b 17be f2a2 243f 390e 6c3f 1a0e df3b
000000f0: 0995 343f a859 b43e cdc0 e63e 0f8c 8e3b
00000100: ef44 52be 7329 e9bd 55f4 3dbc 087f c3be
00000110: cb2e c1be d8c2 82be 4617 9bbd ea29 9fbe
00000120: aab3 f6be bf78 c5be 90cc 2cbd 9c6e d9bb
00000130: a975 6c3d 3690 ea3d fae1 16be d1d0 d63e
00000140: 103c a9be acf4 18be 3332 ebbe e8f9 76be
00000150: f74a f03d 691f b33e fa7c e2be a09a a33d
00000160: e2d9 fe3d 13f8 f4be 116a 27bb 5504 163f
00000170: b907 eabe 681f 9bbd 2414 74be 851d dcbd
00000180: e717 ec3d 4192 32be 30cd 5dbe 0ade 0abd
0.027277151 0.2509796 -0.098812245 0.58222944 -0.120931596 0.03781804 0.043402106 0.2601976
0.20087865 -0.13125731 0.29485446 0.162021 0.11963643 0.062021602 -0.47837493 -0.07049246
0.2999742 0.1952138 -0.021129426 0.06969861 0.08451728 -0.13363221 -0.043247297 0.11649395
-0.050961304 -0.075180955 0.03270183 -0.38500437 -0.05047772 -0.49776885 0.14749339 -0.13390988
-0.22045903 -0.5588477 0.49690443 0.25527915 -0.027236363 -0.1100056 -0.06986726 0.0816079
-0.0834217 -0.047189876 -0.081340134 0.22123668 -0.25480822 0.31242466 -0.13812843 -0.024956059
-0.4084267 0.044845633 -0.46803838 -0.18441638 0.6354467 0.1431882 -0.06842774 0.3201426
-0.14756519 0.64311135 0.922092 0.006807101 0.7053991 0.35224652 0.4506897 0.0043501924
-0.20534109 -0.11384859 -0.011593898 -0.38182855 -0.37731013 -0.2553928 -0.075727984 -0.31086665
-0.48183948 -0.38568684 -0.042187274 -0.0066355 0.057729397 0.11453287 -0.1473464 0.4195619
-0.33053637 -0.14937085 -0.45936736 -0.24118769 0.117330484 0.34984902 -0.44235975 0.07988477
0.124439016 -0.47845516 -0.0025545398 0.5860036 -0.45709017 -0.0757435 -0.23835808 -0.10747818
0.115279965 -0.17438604 -0.21660304 -0.03390316

4.weight f4 [100, 100]
00000000: 1266 ffbd e328 ed3d 2810 c3bd c1d7 68be
00000010: 82bf b6bc 11ad efbc fab8 003e 2fb6 e33c
00000020: 12ed 193d 4640 3bbe 3e84 0fbe 9bab 903d
00000030: 9c12 c13c b023 113e 6f08 27bd 25b6 7f3d
00000040: 124c 9cbd 3dc7 bcbd 74f5 0fbe 6182 923c
00000050: 478b 263e 64b0 b1be d385 6cbe bea5 243e
00000060: b5be 673c b5c1 cc3c 53b3 c93d 6f84 c0bd
00000070: fddc 313d 1c54 643d 39d7 963e 6f6e 043d
00000080: 63a7 2dbc ca08 3a3d 427b 423e 11a0 623d
00000090: ff94 8a3d 53e8 743c 7e30 a53d 355c 173e
000000a0: bf69 4d3d f188 79bd dafa 703c 3428 503e
000000b0: b7f5 aabe 56b4 d4bd e9df 253e 427a e93c
000000c0: 42ef 5ebe fea5 473c 370a 543d 2290 c8bd
000000d0: eb2e 093e 47fd 2cbd 00de ff3b 2b2a 0a3e
000000e0: 34fe 8cbe 5a4c 443e 5b91 de3d 930d a83d
000000f0: b3f9 993e 737e 313e d0ce ad3d c53f 463e
00000100: dfad f9bd a006 423e ae81 64bc 247d 55be
00000110: 6314 23be 2044 20be b9c7 ca3c 739f 273d
00000120: d183 e83d f742 59be 9047 b8bd a743 1c3c
00000130: b56b 1bbe 098e 57bd b466 2f3d 45cf bf3c
00000140: bcdf 983d 2098 be3c 7c84 3c3e 8f19 d6bd
00000150: d2a7 70bd 6eb0 0b3e 0274 0dbe 52d7 cb3d
00000160: a164 b83e 1989 d9bd ebe6 0dbe cd1c 943e
00000170: 4b9f 143d 4f18 95bd 9814 45be 4319 6f3d
00000180: 498b ad3c 6e95 4cbe 4511 b7be 619d 8f3c
00000190: b402 80be e21a 3b3e 8e27 1ebd 0926 65bd
000001a0: 9d5e a8bb b10c dfbc 95da bdbe 39ab 43bd
000001b0: 35f3 a5bd 84e5 c23d af15 69be e0fe 3b3e
000001c0: 33e9 3c3e 0912 ffbc cd66 1cbe 2e82 353d
000001d0: e7bd bf3d 1014 333e 865e 023e 744d adbd
000001e0: 18be 9bbd 32d6 a7bd ff25 0a3d c90d 1f3e
000001f0: 3948 b9be 67e0 91bc 7f7f 673d b388 06bb
00000200: a96c 4fbc 6cd0 5a3e 75ed 973e 467e a9bd
00000210: 681f 263e 9f10 083e 733f 96bd db2c 13be
00000220: b9e3 c7bd 2d23 37bb dbf2 bb3d 8c17 9dbc
00000230: 4f48 1bbc 3e80 b33d e9c3 cbbd 3551 36be
00000240: dfd5 b8bd effd 463d 4371 6fbe 2d7d 42bd
00000250: 847b 223e 001b 2ab9 25f1 163e 0daf 2d3c
00000260: 87fa 06bc 05e2 243e 0ab3 36bd c420 85bd
00000270: f8ae a4be 72ed 483e 61ab 843c 922e 8e3e
00000280: 63b8 ba3d b891 043e 071a 05bd 7b6c 453e
00000290: f3d7 d9bd 4751 453e 6b6b f8bc 29d6 a4bd
000002a0: f231 6ebb 373c 10bd 125e 1bbd 510b 89bd
000002b0: 0905 c03d ce4f 73bc 4d4b bcbb 36c7 19bc
000002c0: 5433 163e b2f7 67bd 0342 e73c 742f 213d
000002d0: e34f 0b3d bcfc 863e c949 5ebb d9be 96bd
000002e0: 0480 a0be 9fdd d83c b91a 1b3e 9f06 84bd
000002f0: 4eaa 8dbe 0056 023e 252b 3dbe 540c c63e
00000300: 0f37 4d3e 7109 bc3c 2e2c b9bb 3777 d9bd
00000310: 70e7 6a3e c293 30bd 9ffe a4bd 9dfb d03d
00000320: 7004 143d d8b3 c5bb 3353 90b8 1b6c d0bd
00000330: a80e 03bd ab54 b7bd 376d 8abd 2361 68bd
00000340: 43e1 b8bd 9261 cabd bdf8 033d adc3 b7bd
00000350: c80c a53c 375f 6abd 2f39 c2bc b7e9 01be
00000360: 20c9 e8bd 4fa0 dbbd 8737 183d e1ef fdbd
00000370: 0272 91bd fce2 96bd c4b5 ec3c 6961 9839
00000380: 9c0f d9bd 20e5 f5bc 2338 27bd e383 b3bd
00000390: 8d49 983d ca0f f3bb e5c1 f2bd aa40 8c3d
000003a0: 1192 8c3d b267 a83c cc4e 713d 9152 b8bb
000003b0: 99f7 523c e3cb bdbd ad96 8ebd 3c5d 2bbb
000003c0: 9a79 003d 3ffd b2bd 1580 c93d eef1 e3bc
000003d0: 3bdc a2bd 63c5 8dbd a0cf 9fbd 7371 143c
000003e0: aa73 18bd cd26 9f3d 74f0 07bd 2cfb 9fbc
000003f0: 3a6e e9bd b483 cbbd 18b6 a73d f883 c3bd
-0.1247064 0.11580064 -0.09524566 -0.22738554 -0.022308115 -0.02925733 0.12570563 0.027796833
0.037579603 -0.18286237 -0.1401529 0.07063981 0.023568444 0.1417377 -0.040779527 0.062429566
-0.07631697 -0.09217689 -0.14058477 0.017884435 0.16264068 -0.34704888 -0.23097925 0.1607885
0.014144589 0.02499471 0.098486565 -0.0940026 0.04342364 0.055744275 0.29461077 0.03233188
-0.01059899 0.04541854 0.18992332 0.055328432 0.067667 0.014947969 0.0806589 0.14781268
0.050149675 -0.060921613 0.014708245 0.20327836 -0.3339059 -0.10385959 0.16198696 0.02850068
-0.21770957 0.012185572 0.051767554 -0.09793116 0.13396804 -0.04223373 0.007808447 0.13492648
-0.27537692 0.19169751 0.10867568 0.08205714 0.30073318 0.17333393 0.08486712 0.19360264
-0.121913664 0.1894784 -0.013946934 -0.20848519 -0.15925746 -0.15650988 0.024753438 0.040923547
0.11353267 -0.21216951 -0.089980245 0.009537614 -0.15177806 -0.05262569 0.042822555 0.023414264
0.07464549 0.023265898 0.18409914 -0.10454094 -0.058753796 0.13641521 -0.13813785 0.099531785
0.36014274 -0.106218524 -0.1385762 0.28928223 0.036284726 -0.07280027 -0.19246137 0.0583737
0.02118458 -0.19978878 -0.35755363 0.017531099 -0.25002062 0.18271974 -0.03861194 -0.055944476
-0.005138232 -0.027227731 -0.37080827 -0.047770713 -0.08103029 0.09516433 -0.22762178 0.18358946
0.18448333 -0.03113653 -0.1527359 0.044313602 0.09362393 0.17488122 0.1273137 -0.08462039
-0.07604617 -0.081951514 0.033727642 0.15532602 -0.36187914 -0.017807199 0.056518074 -0.0020528256
-0.012660184 0.21368569 0.29673353 -0.08276038 0.16222918 0.1328759 -0.07336321 -0.1437258
-0.097602315 -0.002794455 0.091771804 -0.019176267 -0.009477689 0.08764695 -0.09949476 -0.17804416
-0.09025168 0.048582014 -0.2338305 -0.04748266 0.1586743 -0.00016222522 0.14740427 0.010600817
-0.008238441 0.16101845 -0.04460434 -0.0650039 -0.3216474 0.19621828 0.016195001 0.27769905
0.091172 0.12946212 -0.032495525 0.19279663 -0.10636892 0.19269286 -0.030324658 -0.0804866
-0.0036345688 -0.035213675 -0.03793151 -0.066916116 0.093759604 -0.01485057 -0.0057462812 -0.0093858745
0.14668018 -0.056632705 0.028229719 0.039351895 0.034011733 0.26364696 -0.003391849 -0.0736062
-0.31347668 0.026472865 0.15146913 -0.064465754 -0.27668995 0.12728119 -0.1847349 0.3868128
0.20040534 0.02295372 -0.0056510186 -0.106184416 0.22939849 -0.043109663 -0.080563776 0.102042414
0.036137044 -0.006033402 -6.881952e-05 -0.101768695 -0.0319964 -0.08951696 -0.06759112 -0.05673326
-0.0902734 -0.09881891 0.032219637 -0.08972869 0.020147696 -0.05721971 -0.023708908 -0.12686811
-0.113664865 -0.10723936 0.03716233 -0.12399269 -0.071018234 -0.073675126 0.028895266 0.00029064275
-0.105986804 -0.030016482 -0.04082502 -0.0876539 0.07435904 -0.0074176537 -0.11853389 0.06848271
0.068637975 0.020557258 0.058913037 -0.005625077 0.012876415 -0.09267404 -0.06962333 -0.0026148101
0.03136597 -0.08739709 0.09838883 -0.027825322 -0.07952162 -0.06922414 -0.07803273 0.0090602515
-0.03721968 0.077710725 -0.0331883 -0.019528948 -0.11397977 -0.0993723 0.081890285 -0.095466554

4.bias f4 [100]
00000000: a296 a93e 6ce0 88bd 987b 82bd 6f98 e4bc
00000010: 0e68 b23e 73c9 5d3e a3b5 033e ac6d ff3c
00000020: 72de eabd 0e9a 873e 0e7b 663d 458d 2d3b
00000030: fdd9 96bd aed2 4cbe 0945 01be 5c2d ea3e
00000040: f702 5cbe dd6d 193d 6b62 11bd e084 4d3e
00000050: 2228 d53e d508 4c3e bd02 8dbc 9cbf acbc
00000060: a8f9 93bd 0476 d23e d561 163e 2e2a 20be
00000070: c706 bd3c 5255 c2be 87ff e43d 5744 f0be
00000080: 1f63 a83d 1b6e 423e b654 d03d 2f2c 6fbe
00000090: 31cd a0be f8bb b23e 2ef9 813f feba 96be
000000a0: bff4 85bd 097f b0bc 9c3a 233e 081e 7e3e
000000b0: 2146 a53d 4036 383e 217e d93c ddee 9bbd
000000c0: d51c dc3e a8b9 d6bd cc8e b4be fc23 91be
000000d0: b51b 983d b870 0ebb bc45 56be 91de 633e
000000e0: b65c ae3c c7f4 63be b5c2 a2bd 0890 fbbd
000000f0: a043 8e3c 08f9 4b3e 0e79 ab3d b829 84bc
00000100: db4a a5be 1ebe babe d558 d93d d22f 8c3d
00000110: 7619 6ebd b9b1 d83d 9e71 8f3e 60b0 143f
00000120: ec86 94be 0b96 d83c 0091 11bd e2f7 a2ba
00000130: b750 72bd 818c 833a 4d02 10be ee92 1d3e
00000140: a7ad 413e 7697 e6bd 407c 72be 8c3a febe
00000150: 0084 053d c16d 903c 895e a4bc eed5 e6bc
00000160: f7cc 713d bf2a 513d c6b9 c2bd 6ea2 cc3e
00000170: 065f cc3e e693 babd 3fd9 ae3e 7955 053f
00000180: 1b2f 223e f22b 143e 954b 92be afa4 ccbd
0.33122736 -0.0668343 -0.0637123 -0.027904717 0.34845012 0.21658878 0.12862258 0.031180225
-0.11468209 0.26484722 0.056269698 0.0026481908 -0.07365797 -0.20002243 -0.12623991 0.4573773
-0.21485506 0.03745829 -0.03549425 0.20070219 0.4163218 0.19925244 -0.01721322 -0.02108746
-0.072253525 0.41105664 0.14685757 -0.1564109 0.02307452 -0.3795572 0.111815505 -0.4692714
0.08222031 0.18987314 0.10172407 -0.23356698 -0.3140655 0.34909034 1.0154169 -0.2943954
-0.06540822 -0.02154495 0.15940326 0.24816144 0.08070017 0.17989445 0.0265494 -0.07613919
0.42990747 -0.1048463 -0.35265195 -0.28347766 0.0742716 -0.0021734666 -0.20925039 0.22252871
0.021284442 -0.22261344 -0.07947294 -0.12283331 0.01736623 0.19919217 0.08372699 -0.016133174
-0.32283673 -0.36473173 0.106126465 0.068450585 -0.05812975 0.10580773 0.2801637 0.58081627
-0.29009187 0.026438734 -0.035538673 -0.0012433494 -0.059159007 0.001003638 -0.14063378 0.1538808
0.189139 -0.11259358 -0.2368021 -0.49654043 0.032596588 0.01763046 -0.02006461 -0.028178181
0.05903336 0.051066156 -0.0950809 0.39967674 0.39916247 -0.09110241 0.3415012 0.52083546
0.15838282 0.14469889 -0.2857329 -0.099923484

6.weight f4 [157, 100]
00000000: fa04 57be f7c3 1a3d 72d0 973b 5b30 f13c
00000010: f738 9fbc c172 ddbd 1c1d da3d b071 1cbd
00000020: 826a 903d 2bb1 60be 42ad b7bd 910a 743b
00000030: fd8a b0bc 9eda 0e3d 0259 b2bd bd70 de3d
00000040: e1db 91be 5a11 7f3d 2973 2bbe 124f 7abc
00000050: 16a1 1e3e b085 b0be 4f3c 08bf 62c3 2abe
00000060: 3660 1b3d 08f3 37be 4031 49bb 030a f23c
00000070: bacb 4f3c 5d91 c7bc b951 613d eff2 363d
00000080: 3e12 b03c 6f5d 88bd 4efc e3bd 53ca 843e
00000090: 6284 e93d 7590 8abe 3f9c 61bd d936 5d3d
000000a0: c435 a2bd ec2d 203d 628c 053e 3884 2cbe
000000b0: 6b83 673e 4481 23be 86b9 53be 8389 813d
000000c0: 0dad cfbe 7da6 09be 855f 1c3b 0a68 9b3d
000000d0: c964 57bd c40e 8f3d fbb7 8abd 0231 44be
000000e0: 202d 11bd abe5 4abe 1e74 2e3e 521f 723d
000000f0: 00ba bebc b2ef 1c3d d628 c4bc 7a94 a93d
00000100: fe63 21bd 4b2b 4ebc 0037 e5bc 5a7f 293d
00000110: 28e5 a8bd bc2f dd3d c863 0b3e b084 de3d
00000120: 4963 1abe 1067 2f3e 8bc1 ecbc a402 133e
00000130: 405d 503d 4a50 64bd 14e6 85ba f405 2dbe
00000140: 397f 013d a218 89bd d64a 383d baf0 1f3d
00000150: 7605 133d d325 e83d 3107 10bd 8567 17bd
00000160: 45cd 53bc 828c 19be f3f5 343d cca9 52be
00000170: db6f fd3d 70bc da3b f7d6 a7bd 38fd b53d
00000180: 029c 093d f3e6 063e c6c7 d0bd 0b90 383e
00000190: 0fc5 2d3c 72ce 7d3d 6fad 8b3c 8d0d 5abd
000001a0: c8b4 303e 4139 6ebe 50d9 4abe b2b9 2ebd
000001b0: d08e 033c dc98 203e 17f9 a3bd 3c07 17bd
000001c0: 63d3 abbd 4c6f 98be 2ff9 d83d 6cd1 18bd
000001d0: f14f 2a3e 5314 ebbe 9ade 953e a0bf dd3c
000001e0: a8e6 b03d b905 31bd e184 013e 6611 dbbd
000001f0: 3d73 b33d fabe 33bf d421 aebe a385 86bc
00000200: cb0d 053e 3616 e4bd 6e34 febd b4be d2bd
00000210: f4e6 60bc c033 503d 91d2 e3be 53f3 7fbe
00000220: bcd8 4e3e 8001 2cbe f851 3dbe ab9b 19bf
00000230: eab6 70be 52b9 71bd e1a5 98be 91ee ea3d
00000240: 7e3b 6f3d a9f9 e43d 6de4 82bd de49 003d
00000250: cf6a 873d e7b5 54bd d247 cbbd a5a9 0b3e
00000260: 9c1e 7b3d c93a 9ebe cb2f 303e d3bb 07bd
00000270: b9d5 5b3c 5a25 393d d3b4 3dbc 9285 083d
00000280: 42c2 713e e364 1b3e ab4a 84bd 6cdf 3fbd
00000290: c33c 833e 51cf 80be 9abd 8c3c 0749 e73d
000002a0: 008f acbd baf4 05be b300 8cbe ac89 303e
000002b0: eb6d 6bbd c7f4 6fbd a0db 853e 1aab 5abe
000002c0: 2ea4 163e 002d 243e 822f a9bb 1b22 52bc
000002d0: 5de2 76be a316 0c3e 7358 183d c887 d7bb
000002e0: 1c6b 71bd f6ed 383c e7d8 c2be fc4d 70bb
000002f0: 203b 0c3e 1424 80bd a599 67bd 45bb 9e3c
00000300: cb35 0e3c 7f2f c6bd 629f e9bc a77f d43d
00000310: c263 eb3d c596 813d 6e07 e43c 10a3 d8bc
00000320: 5200 d2be f857 ed3b 93d6 a6bd b710 a4bd
00000330: 9532 f9be bb7d 493e 7870 c43c 9659 2f3d
00000340: 45be e03d fb6a b0bd bcc6 673d 5214 323d
00000350: 5dd2 0d3e 9cfe 84be 42df 3e3d 2143 ad3d
00000360: 54c8 d83d f2c5 b13d 7d59 ae3d 00ab bf3d
00000370: f8ca 9838 d2b0 193e 53ec ec3d cdb9 4ebd
00000380: dc48 2c3d 79ff dd3d 5687 ab3d f66d da3d
00000390: 4cc4 edbd bcf9 3cbd 8829 12bd e728 ccbc
000003a0: 72d3 c73d ea18 c4be 0686 fcba c39b 0d3e
000003b0: bcdb e13b 9566 883e 28de 07be 64da 7d3b
000003c0: 7135 e63a 90c2 25bd 4b4a 283e 4f26 163c
000003d0: 269a 803e 0f4a c8bc 5c4c 41bc 76c3 7dbc
000003e0: b964 a13d 7c37 1ebe 442e e6bd 392c 233e
000003f0: 3796 cb3b bfd9 193d 6c78 80be 1df9 82bd
-0.20997992 0.037784543 0.004633003 0.029442003 -0.019436343 -0.10812903 0.106500834 -0.03819436
0.07051565 -0.21942584 -0.08968593 0.0037237743 -0.02155065 0.03487646 -0.08708383 0.10861347
-0.28488067 0.062272407 -0.16743149 -0.015277641 0.15491137 -0.34476995 -0.53217024 -0.16676095
0.03793355 -0.17963803 -0.0030699521 0.02954579 0.01268285 -0.024361307 0.055009577 0.044665273
0.021493074 -0.06658446 -0.11132108 0.2593561 0.11402203 -0.27063337 -0.05508065 0.054007385
-0.07920411 0.039106295 0.13041833 -0.16847312 0.22608726 -0.1596728 -0.2067624 0.063250564
-0.40561715 -0.13442416 0.0023860645 0.07588203 -0.05258635 0.06985238 -0.06773373 -0.1915932
-0.035443425 -0.19814174 0.17036483 0.0591119 -0.023282051 0.03831453 -0.023945253 0.08280273
-0.039402 -0.012583564 -0.027980328 0.041381218 -0.08246833 0.1080012 0.13612282 0.10865152
-0.15076937 0.17129159 -0.028900882 0.14356476 0.05087018 -0.055740632 -0.0010215663 -0.16896802
0.03161547 -0.066941515 0.044993244 0.039047934 0.03589388 0.113353394 -0.03516311 -0.03696396
-0.012927358 -0.14995006 0.044179868 -0.20572585 0.1237485 0.0066752955 -0.08195298 0.08886188
0.033596046 0.13174038 -0.10194354 0.18023698 0.010606064 0.06196446 0.017050473 -0.05323558
0.17256463 -0.23264028 -0.1980946 -0.04265756 0.008029655 0.15683311 -0.080064945 -0.036872134
-0.08389928 -0.29772413 0.10594403 -0.037309095 0.16632058 -0.45913944 0.29271394 0.027068913
0.08637744 -0.04321835 0.12648346 -0.10696678 0.08762214 -0.7021328 -0.34010184 -0.016421145
0.12993543 -0.11137049 -0.12412344 -0.1029028 -0.0137269385 0.050830603 -0.44496587 -0.24995165
0.20199865 -0.16797447 -0.184883 -0.60003155 -0.23507276 -0.059014626 -0.29814056 0.11471284
0.058406346 0.111804314 -0.06391225 0.031320445 0.06612169 -0.051931288 -0.09925808 0.13638933
0.06130849 -0.30904225 0.17205732 -0.033138108 0.013417655 0.045201637 -0.011578756 0.033330508
0.2360926 0.15175204 -0.06459554 -0.04684393 0.25632295 -0.2515817 0.017180253 0.11293226
-0.084257126 -0.13081637 -0.27344283 0.17240018 -0.057477873 -0.058583047 0.26144123 -0.21354333
0.14711067 0.16032791 -0.005163134 -0.012825514 -0.24109788 0.1368051 0.037193727 -0.0065774657
-0.058940038 0.011287203 -0.38056108 -0.0036667576 0.1369443 -0.06256881 -0.05654301 0.019376406
0.008679817 -0.09677028 -0.028518382 0.1037591 0.11493637 0.06327585 0.027835574 -0.026444942
-0.4101587 0.0072431527 -0.081463955 -0.080110006 -0.48671404 0.19676869 0.02397941 0.042810045
0.10973791 -0.08614155 0.056586012 0.04347641 0.13849778 -0.25975502 0.046599634 0.084600694
0.105850846 0.08680333 0.08513162 0.093587875 7.285731e-05 0.15008858 0.11568513 -0.050470162
0.04206167 0.10839743 0.08375423 0.10665505 -0.11609706 -0.046136603 -0.03568414 -0.024921848
0.09757127 -0.38300258 -0.0019266016 0.1382895 0.0068926495 0.26640764 -0.1326834 0.0038734907
0.0017563534 -0.040468752 0.1643459 0.009164407 0.25117606 -0.024449376 -0.011797991 -0.015488496
0.078805394 -0.15450853 -0.11239293 0.15934838 0.0062129754 0.037561174 -0.25091875 -0.06395171

6.bias f4 [157]
00000000: 0715 c23d 5375 97bd a321 513e 6853 bfbe
00000010: a9fe 03be 0331 9cbe 309c 8cbd 8f6a cdbc
00000020: fb84 73bd 3730 1e3e 3041 32be e504 633d
00000030: 3361 2cbd 0af9 f2be 4cd6 02bf 4a6a 76bd
00000040: 2c54 b53b 3cc2 533e 0f9a bebc 83e9 773e
00000050: 1529 903d d516 223d 4010 62be 0370 e93e
00000060: 456a 8fbe 2e81 213e be7a 783b 98d2 b73e
00000070: a2d3 b9be a3eb 703e 8b33 50be 2d83 cdbc
00000080: 697f 77be 224d 8b3b 374b 173e 2049 ee3d
00000090: 9187 7e3d 94db e53e 3234 343e ce12 97bb
000000a0: d7db c2be 692d bbbd 7520 973e ae4a cf3d
000000b0: 98e2 243d 1c5c b53e 07f2 af3e 491a c33e
000000c0: c74e 5e3e 55b1 17be 677d e5bc 4754 383e
000000d0: bc4e 12be 7d96 eebd e50c 943d 09e8 f73d
000000e0: d93b bbbe e07c afbc f575 c33d 8a76 8cbe
000000f0: 914f 78bd 0b02 543e 0aaf dc3e 1ed1 d73d
00000100: 7534 11be 0486 59bd ab38 8e3e 7f11 4abe
00000110: fe31 abbe 16ac 21be d623 813d 7e5f db3d
00000120: 1246 7c3e 95c9 aabd 1648 4dbe 79c8 3dbd
00000130: e35d 62bd f68e 3fbe d4a4 82be dd2f 1f3d
00000140: c1ed d4bd b75c 91bc 34b0 2abe 46b3 473e
00000150: b9ec 273e f766 953e 319d 9abd 74c5 eb3e
00000160: 288f 9f3e 7a74 66be 100d ddbe ac32 d33e
00000170: 6f8c 97bd 2cd0 ae3e 28ca 1dbd 2831 c5be
00000180: 9c9d a73c e691 49be 2dc3 85be 842f 2cbd
00000190: 89d3 723e 4cd4 213e 92f3 97bd 4aa2 713e
000001a0: 4ab4 663d 914b 623d d0de 453e 6fbd b0bc
000001b0: 8030 e5bd d492 ab3b db95 3cbe c42a 20be
000001c0: 337a 2b3c ca7a 35bd 15b3 d73d ad8d 96be
000001d0: f87f a0bd 0d41 c2bd 5900 9cba 0e84 ccbd
000001e0: 98b3 203e 8b15 063f 43dd 0dbd 18d8 80be
000001f0: e788 543e ce31 6bbe 14eb 0bbe 1bbe 733e
00000200: 8efc ba3e 8279 20be 88f3 81bc 3746 233d
00000210: 6340 5cbe 682f 90bc 7cf9 37be 7b3c 3cbd
00000220: d5c7 e63d 8da3 4cbe 8f8c 7fbc ac53 2b3e
00000230: 2b15 1b3f 52b7 02bd b87a c0be 4a96 44bd
00000240: 5511 b2bd f65c 873d 6cb8 f2be f334 e33d
00000250: a081 ae3a d7a6 143e 6e8d d9bd ee9c ddbe
00000260: 292b 6ebe f55b 14be 8209 03bc 91cf 4e3d
00000270: 7397 173e
0.09476667 -0.07395425 0.20422988 -0.3736832 -0.12890114 -0.30506143 -0.06865728 -0.025075225
-0.059452992 0.1544808 -0.1740768 0.05542459 -0.042084884 -0.47455627 -0.5110824 -0.06015996
0.0055337157 0.20679563 -0.02326682 0.24210171 0.07039086 0.039572556 -0.22076511 0.4559327
-0.28010765 0.15771934 0.0037914957 0.35902858 -0.36294276 0.23527388 -0.20332162 -0.025086964
-0.24169697 0.0042511383 0.14774786 0.11635041 0.062141005 0.44894087 0.17598036 -0.004610396
-0.3805835 -0.09139521 0.2951695 0.10121666 0.04025516 0.35421836 0.3436434 0.3810599
0.21709739 -0.1481374 -0.028013898 0.180009 -0.14287847 -0.11649797 0.07229022 0.12104804
-0.36569098 -0.02142185 0.09543983 -0.27434188 -0.060622755 0.20703904 0.43102294 0.10537933
-0.14180167 -0.053106323 0.2777761 -0.19733237 -0.3343658 -0.15788302 0.06305663 0.10711573
0.24636105 -0.0833923 -0.2004703 -0.046333764 -0.05526532 -0.18706879 -0.2551638 0.038864005
-0.103969105 -0.017744405 -0.16668779 0.19501981 0.16398896 0.29180118 -0.07549513 0.46049082
0.31163907 -0.2250537 -0.43174028 0.41249597 -0.073998325 0.34143198 -0.03852287 -0.38514066
0.020460896 -0.19684562 -0.2612547 -0.042037502 0.23713507 0.15803641 -0.07419504 0.23597065
0.05632428 0.055247847 0.19323277 -0.021574704 -0.11190891 0.005236009 -0.1841654 -0.15641314
0.010466146 -0.044306554 0.10532204 -0.29404965 -0.07836908 -0.09485064 -0.0011901959 -0.09986125
0.1569351 0.5237662 -0.03463484 -0.25164866 0.20755349 -0.22968218 -0.13663894 0.23802988
0.3652081 -0.15671352 -0.015863195 0.039861884 -0.21508937 -0.01760073 -0.17966264 -0.045956116
0.11268584 -0.19984265 -0.015597477 0.16731137 0.60579175 -0.03191311 -0.37593627 -0.04799489
-0.08694712 0.06609528 -0.47406328 0.11094084 0.0013313778 0.1451677 -0.10622679 -0.4328379
-0.23258652 -0.14488204 -0.007997872 0.05049092 0.14803867
