neura1/bestval_e8_weights.ckpt (torch, 399055 bytes, 8 tensors)

0.weight f4 [100, 630]
-0.0044340864 0.01227833 -0.013672924 -0.30137402 -0.09323449 -0.20718566 -0.2902221 -0.05598493
-0.3175131 -0.47927037 -0.40548894 0.0001144947 0.09488839 0.4991149 -0.004592975 0.051052026
0.22756054 0.32266527 -0.06167271 0.21041733 0.2171808 0.40640673 -0.03790741 0.10955946
0.24215727 0.41439727 0.10357092 0.067351915 0.1317889 -0.16952251 -0.0057761925 -0.05577132
0.03845773 -0.09319303 -0.0785456 -0.09761676 -0.1323734 -0.007833693 -0.12714204 -0.289945
-0.27852342 -0.05648711 0.011045173 0.24176231 -0.017082227 -0.016285764 0.088186525 0.22272262
-0.10684182 0.105851345 0.08787271 0.3316368 -0.10067932 0.04944607 0.14016108 0.3147259
0.0124567095 -0.0018662441 0.04841954 -0.21359067 0.01509772 -0.009887716 0.011221097 -0.112452276
-0.09555002 -0.06609082 -0.11478923 0.012442556 -0.1485209 -0.26547825 -0.20832601 -0.06057929
0.025918704 0.2877133 0.03824813 0.0101135345 0.074152276 0.23852615 -0.059220403 0.14033633
0.07669034 0.30432022 -0.03673934 0.050320756 0.17754124 0.30972204 -0.026353633 -0.030899147
0.006250127 -0.15715618 -0.013255793 -0.079424776 0.014393765 -0.0587154 -0.050354786 -0.05734325
-0.101064295 -0.045916308 -0.15173393 -0.29369438 -0.19966467 -0.047076758 0.012143643 0.34168294
0.02492451 -0.00928646 0.083871104 0.20121355 -0.078087896 0.103201546 0.10592674 0.30716732
-0.07299716 0.05082369 0.1385376 0.24153438 -0.012958969 -0.013569439 -0.014493682 -0.18240632
-0.02209968 -0.064552486 0.02308888 -0.07210348 -0.06436699 -0.073286295 -0.121034816 -0.031581927
-0.13479468 -0.3012749 -0.2274985 -0.04373726 0.06518047 0.34789404 -0.00116177 -0.020586863
0.07691122 0.26833943 -0.057142224 0.13677177 0.11701176 0.29851848 -0.056615613 0.109620705
0.12012193 0.23013213 -0.020862581 0.0058735153 0.038786054 -0.19786614 0.029424474 -0.05753777
0.010576736 -0.111373484 -0.05454199 -0.07391525 -0.13351496 -0.06473814 -0.11637756 -0.2879976
-0.21631871 -0.02805637 0.08900948 0.30605263 0.024872683 0.0055366624 0.060973566 0.2794573
-0.098757215 0.17585559 0.11517284 0.2232561 -0.03517768 0.034309216 0.15588675 0.22934742
-0.071276784 -0.064815335 0.039664183 -0.17688091 0.041922268 -0.056485265 0.036103416 -0.09867159
-0.0063895285 0.0012348644 -0.09327519 -0.027776377 -0.17535032 -0.34020174 -0.2339402 -0.032601327
0.04887351 0.31363276 0.029151943 0.013163087 0.114751704 0.2164797 -0.0668133 0.1952879
0.1733095 0.27261958 -0.039782207 0.050848622 0.15107816 0.23969907 -0.042389713 -0.018741608
0.0074356827 -0.22806552 0.002546805 -0.028077401 0.008569115 -0.06877107 -0.06315548 -0.046987765
-0.13839346 -0.08502855 -0.14486633 -0.33752948 -0.22782397 -0.030769099 0.06712556 0.36099204
0.039453365 0.051989432 0.102699235 0.30741748 -0.06766334 0.15565291 0.13944608 0.27163005
-0.023384247 0.12536976 0.13200882 0.29116958 -0.09728982 -0.046491172 -0.040670153 -0.1963021
0.017817874 -0.053064674 0.012430194 -0.1050412 -0.03233096 -0.04356532 -0.09868596 -0.08651432
-0.17520165 -0.31266585 -0.21931204 -0.003427058 0.086993195 0.32393992 0.11409068 0.041348822
00000000: d04b 91bb 0c2b 493c 6604 60bc b24d 9abe
00000010: b9f1 bebd 7a28 54be fe97 94be 7450 65bd
00000020: 1491 a2be ed62 f5be 3f9c cfbe e01c f038
00000030: d854 c23d fd8b ff3e ab80 96bb ee1b 513d
00000040: a105 693e 6234 a53e 869c 7cbd a477 573e
00000050: a564 5e3e 8b14 d03e cd44 1bbd b660 e03d
00000060: 13f8 773e e12b d43e fe1c d43d cdef 893d
00000070: abf3 063e 4f97 2dbe 3746 bdbb 7870 64bd
00000080: da85 1d3d fddb bebd 84dc a0bd 4ceb c7bd
00000090: e48c 07be e458 00bc 8631 02be ac73 94be
000000a0: 9f9a 8ebe 075f 67bd d0f6 343c 8a90 773e
000000b0: 07f0 8bbc b969 85bc 239b b43d 6611 643e
000000c0: e2cf dabd 97c8 d83d 9bf6 b33d 4ccc a93e
000000d0: f630 cebd f687 4a3d 6386 0f3e c123 a13e
000000e0: 3a17 4c3c c39c f4ba 9153 463d 83b7 5abe
000000f0: 6d5c 773c 1600 22bc b1d8 373c 614d e6bd
00000100: bbaf c3bd a05a 87bd 9e16 ebbd dddb 4b3c
00000110: dd15 18be c4ec 87be 6a53 55be fd21 78bd
00000120: 7653 d43c 284f 933e 12aa 1c3d 3db3 253c
00000130: 26dd 973d 3340 743e 1891 72bd 54b4 0f3e
00000140: d30f 9d3d dccf 9b3e fd7b 16bd 231d 4e3d
00000150: 5fcd 353e e393 9e3e 93e3 d7bc 3520 fdbc
00000160: decd cc3b 8ded 20be d32e 59bc 75a9 a2bd
00000170: d3d3 6b3c 8f7f 70bd d240 4ebd c1e0 6abd
00000180: ccfa cebd bd12 3cbd 2460 1bbe 1c5f 96be
00000190: e574 4cbe 8fd3 40bd 21f6 463c 11f1 ae3e
000001a0: 7c2e cc3c 3c26 18bc 9dc4 ab3d ed0a 4e3e
000001b0: 8cec 9fbd 555b d33d 1ef0 d83d 0945 9d3e
000001c0: 897f 95bd 802c 503d cddc 0d3e ca54 773e
000001d0: db51 54bc 5a52 5ebc e976 6dbc b9c8 3abe
000001e0: 630a b5bc 1834 84bd e424 bd3c fdaa 93bd
000001f0: d7d2 83bd 2017 96bd 1ae1 f7bd 0d5c 01bd
00000200: 9e07 0abe b440 9abe 5ef5 68be d725 33bd
00000210: 577d 853d 2b1f b23e 8846 98ba c8a5 a8bc
00000220: a183 9d3d c963 893e f70d 6abd e60d 0c3e
00000230: dda3 ef3d 6ad7 983e c6e5 67bd d280 e03d
00000240: 7d02 f63d c2a7 6b3e 01e8 aabc 9e76 c03b
00000250: 20de 1e3d 6c9d 4abe 980b f13c baac 6bbd
00000260: 0c4a 2d3c c817 e4bd 6c67 5fbd e160 97bd
00000270: 25b8 08be 6e95 84bd 5c57 eebd 6c74 93be
00000280: a782 5dbe 79d6 e5bc 9a4a b63d eeb2 9c3e
00000290: ccc1 cb3c e46c b53b 6bbf 793d 0715 8f3e
000002a0: 3941 cabd 7d13 343e bddf eb3d 3f9d 643e
000002b0: 7916 10bd d287 0c3d c7a0 1f3e 0dda 6a3e
000002c0: 90f9 91bd e7bd 84bd e976 223d 4520 35be
000002d0: afb6 2b3d 185d 67bd 2de1 133d 5514 cabd
000002e0: 405f d1bb 2cdb a13a 1007 bfbd 498b e3bc
000002f0: 098f 33be ec2e aebe 058e 6fbe f888 05bd
00000300: 972f 483d 7994 a03e 0ed0 ee3c fda9 573c
00000310: f102 eb3d dbac 5d3e 69d5 88bd 8df9 473e
00000320: 0c78 313e cb94 8b3e abf2 22bd a546 503d
00000330: 3cb4 1a3e ac73 753e d6a0 2dbd 0088 99bc
00000340: 07a7 f33b 028a 69be 4ce8 263b 9402 e6bc
00000350: 7965 0c3c d9d7 8cbd a957 81bd 3e76 40bd
00000360: 04b7 0dbe 7323 aebd d757 14be aad0 acbe
00000370: b04a 69be 7a0f fcbc 2079 893d f3d3 b83e
00000380: da99 213d dff2 543d fa53 d23d d365 9d3e
00000390: 1493 8abd 7a63 1f3e f4ca 0e3e 1813 8b3e
000003a0: 5290 bfbc ee60 003e 522d 073e 2e14 953e
000003b0: e33f c7bd 876d 3ebd bf95 26bd 6b03 49be
000003c0: caf6 913c 585a 59bd 03a8 4b3c d71f d7bd
000003d0: 786d 04bd 8d71 32bd dd1b cabd 6b2e b1bd
000003e0: 1068 33be bd15 a0be 5693 60be 7e98 60bb
000003f0: 7d29 b23d 74db a53e 60a8 e93d 625d 293d

0.bias f4 [100]
0.11567018 0.021978498 0.0064543607 0.031615235 0.19245829 0.11180883 -0.06884133 0.020985117
-0.31140068 -0.5433345 -0.1349836 -0.15483071 0.034506302 0.0187714 -0.08966013 0.17019777
0.003938048 -0.011298172 0.34435195 0.22139663 0.49240902 -0.07693649 -0.109993055 0.4601373
0.08251393 0.01080948 0.11675271 0.21794283 -0.115814954 -0.041134153 0.16944528 -0.1397869
-0.012849216 -0.0073833694 0.0526006 -0.27634147 -0.09565494 -0.3682389 -0.02498145 -0.034193195
-0.011737258 -0.15526737 -0.025033351 -0.015438533 0.021651365 -0.08394329 0.0017583279 -0.41656414
-0.099178 -0.19869195 -0.25402924 0.28603885 -0.024563925 0.2697488 -0.083950676 -0.19258106
-0.03960374 0.20619011 -0.020945223 -0.014480379 -0.004648388 -0.19807024 -0.27294388 -0.034796678
0.06535203 -0.08187132 -0.042316552 -0.016363135 -0.42288464 0.20523965 -0.664094 0.040128004
-0.30938655 0.0134288585 -0.0014309408 -0.08518837 -0.021659298 -0.5784807 -0.028999262 -0.16281168
0.024861475 0.10635021 0.19326448 0.07854725 -0.030612323 0.20759825 0.15054215 -0.20744811
0.0077164927 0.009891992 0.12990245 -0.028302524 -0.19138701 0.010777041 -0.047325224 -0.44999546
-0.10034915 0.26892996 -0.19113569 0.052787717
00000000: 7de4 ec3d 400c b43c 1a7f d33b fa7e 013d
00000010: c913 453e 07fc e43d affc 8cbd fbe8 ab3c
00000020: e96f 9fbe f817 0bbf 2439 0abe f18b 1ebe
00000030: 7b56 0d3d 7bc6 993c bb9f b7bd 5348 2e3e
00000040: be0a 813b f81b 39bc e64e b03e ccb5 623e
00000050: 091d fc3e e190 9dbd 0a44 e1bd 1e97 eb3e
00000060: 10fd a83d 3f1a 313c 0b1c ef3d 682c 5f3e
00000070: 6430 edbd 497c 28bd 1083 2d3e 4c24 0fbe
00000080: 8585 52bc 31f0 f1bb ba73 573d a17c 8dbe
00000090: bde6 c3bd cf89 bcbe e6a5 ccbc 2a0e 0cbd
000000a0: a14d 40bc 69fe 1ebe be12 cdbc e7f1 7cbc
000000b0: 345e b13c 76ea abbd b277 e63a e547 d5be
000000c0: d61d cbbd e775 4bbe 1f10 82be af73 923e
000000d0: 493a c9bc 841c 8a3e 55ee abbd f833 45be
000000e0: 8837 22bd 8023 533e 5195 abbc 1d3f 6dbc
000000f0: 8151 98bb edd2 4abe 4dbf 8bbe f686 0ebd
00000100: 49d7 853d 27ac a7bd 1f54 2dbd fb0b 86bc
00000110: 5684 d8be 582a 523e 1002 2abf 435d 243d
00000120: ea67 9ebe b704 5c3c 688e bbba 3d77 aebd
00000130: d76e b1bc 5017 14bf dc8f edbc 1bb8 26be
00000140: 4baa cb3c 24ce d93d 20e7 453e 61dd a03d
00000150: b2c6 fabc a394 543e b927 1a3e 476d 54be
00000160: a2da fc3b 0612 223c 2605 053e b2da e7bc
00000170: f5fa 43be 3092 303c 18d8 41bd ce65 e6be
00000180: db83 cdbd 30b1 893e 13b9 43be ef37 583d

2.weight f4 [100, 100]
-0.1905406 -0.08996542 -0.018392587 -0.051309373 -0.010795409 0.17299417 0.08851597 -0.031420957
0.19094342 0.006751129 0.018738266 0.20069109 -0.12957986 0.048704617 -0.023189625 0.09330034
0.02704366 -0.007438862 0.12096758 0.13341838 -0.11378496 0.09974999 0.04784097 -0.20210163
0.012822009 0.08098791 -0.14125006 -0.036882162 0.13030048 0.36404672 -0.07881755 -0.053915124
0.05012796 -0.08019882 0.11256805 -0.07813481 -0.17542419 0.03982057 -0.06559449 -0.035072137
0.058151722 -0.122998536 0.02395382 -0.09640377 -0.041126084 0.039306335 0.023086155 0.07346469
0.1819478 0.039288186 0.134896 0.107593045 -0.06609688 -0.22703214 -0.040262155 -0.118085384
0.03600119 -0.15035138 -0.08776114 -0.06771656 0.07795997 0.13350521 0.06714534 -0.11485091
0.23758458 -0.1281547 -0.13718045 0.059305407 0.2312322 0.03042819 0.11540174 0.22905824
-0.14809641 -0.22349262 0.09045215 0.013235955 0.004408169 -0.024981428 0.028872252 -0.012813397
0.053078976 0.26624623 0.117819905 0.115368724 0.10314927 0.08475447 -0.17666061 0.069268726
-0.013745571 -0.059492756 -0.021455767 -0.04629766 0.18031451 0.072837405 0.600553 0.080864
0.056617517 -0.4129485 0.23426111 -0.2675283 0.0470304 -0.019648567 -0.08816602 0.09076403
0.20740867 -0.12606665 0.34187636 -0.101288214 0.13164134 -0.09693316 0.077594064 -0.036008336
-0.019061098 -0.038420737 0.15733646 -0.15108886 0.07285987 -0.031039739 0.14755186 0.17575817
-0.2472416 0.15467729 -0.2640623 0.13832857 0.06365445 -0.031116761 -0.07945892 0.23121542
0.13047506 -0.345912 -0.058889154 0.10306347 0.036141805 0.06812786 -0.043007944 -0.039903488
-0.010430934 -0.1285252 0.030988013 0.020015476 0.056363672 -0.05188189 -0.002474059 0.025883436
0.02457769 -0.1466611 -0.029725501 0.08880402 0.20293234 -0.12838948 -0.08106663 -0.072242305
-0.037694294 0.07022045 0.14183006 -0.07877719 0.051539775 0.013689224 0.016165681 0.005447076
0.104213126 0.026166031 0.109466374 0.16026354 -0.048431385 -0.048770383 -0.042314593 0.018256871
-0.20228289 -0.023948982 0.023964154 0.049586516 0.12155128 0.0007759533 -0.047598936 -0.05385905
-0.0905753 0.1257482 -0.039458748 -0.18892013 0.061164036 -0.07216996 -0.064437695 -0.12726158
-0.07909943 0.07620785 0.16230308 0.04686471 0.00853887 -0.06924021 0.26825967 0.061682776
0.07437239 0.043386035 -0.3283754 0.009044896 0.06842312 0.19836816 -0.124642126 0.28763112
-0.006411774 -0.07628627 0.062403597 0.08789571 -0.062171448 -0.052283015 0.056962155 -0.09564507
0.026725627 -0.0076242853 -0.003945563 -0.12252075 -0.06510922 -0.07458167 -0.06990722 -0.074485615
-0.0060986998 -0.07570871 -0.09434843 0.08213636 -0.03658864 -0.08086951 0.09603661 0.031844076
0.03812408 0.01045903 -0.029408338 0.0364009 0.042900965 -0.09325417 0.022597557 0.027574012
0.08855963 -0.07789059 -0.1020628 -0.0040781205 -0.06870706 -0.055851143 -0.026480794 -0.041659962
-0.053957332 -0.03260469 -0.06863715 -0.060021568 0.07358197 -0.026679426 0.079002894 -0.12403211
-0.037958983 0.0024361513 0.0039433367 -0.02519517 0.04349457 0.06102498 -0.06192191 -0.014419669
00000000: 131d 43be ca3f b8bd 0dac 96bc c729 52bd
00000010: 3adf 30bc 6225 313e dc47 b53d 43b3 00bd
00000020: ac86 433e 9338 dd3b fe80 993c f781 4d3e
00000030: 95b0 04be 7e7e 473d 2bf8 bdbc 4014 bf3d
00000040: aa8a dd3c b3c1 f3bb dabd f73d d49e 083e
00000050: 1708 e9bd b949 cc3d e5f4 433d bbf3 4ebe
00000060: 6713 523c fddc a53d dba3 10be c011 17bd
00000070: 7d6d 053e 5564 ba3e 186b a1bd 1bd6 5cbd
00000080: fa52 4d3d 473f a4bd 148a e63d 2505 a0bd
00000090: 66a2 33be e51a 233d 6756 86bd cda7 0fbd
000000a0: 8030 6e3d a8e6 fbbd cd3a c43c 576f c5bd
000000b0: d373 28bd aeff 203d 2d1f bd3c a874 963d
000000c0: 8650 3a3e a6ec 203d 2d22 0a3e be59 dc3d
000000d0: cd5d 87bd 1d7b 68be eee9 24bd c0d6 f1bd
000000e0: fc75 133d b6f5 19be 1dbc b3bd fbae 8abd
000000f0: 7aa9 9f3d 97b5 083e 7f83 893d f436 ebbd
00000100: 5f49 733e fc3a 03be 0879 0cbe 3aea 723d
00000110: 22c8 6c3e 8a44 f93c bf57 ec3d 3e8e 6a3e
00000120: 96a6 17be 40db 64be fa3e b93d 9edb 583c
00000130: 6772 903b daa5 ccbc 8085 ec3c 48ef 51bc
00000140: 5769 593d 6d51 883e 904b f13d 7046 ec3d
00000150: ed3f d33d c093 ad3d 85e6 34be c3dc 8d3d
00000160: 1a35 61bc adae 73bd 01c4 afbc 9da2 3dbd
00000170: 5ea4 383e c72b 953d d7bd 193f 069c a53d
00000180: c5e7 673d fc6d d3be 25e2 6f3e 78f9 88be
00000190: f3a2 403d 08f6 a0bc 6390 b4bd 7ee2 b93d
000001a0: f062 543e 9e17 01be 6b0a af3e 3270 cfbd
000001b0: fdcc 063e e584 c6bd a3e9 9e3d 7a7d 13bd
000001c0: 0526 9cbc 105f 1dbd cf1c 213e 0ab7 1abe
000001d0: 8e37 953d 0d47 febc d617 173e f3f9 333e
000001e0: e72c 7dbe b963 1e3e 2c33 87be 01a6 0d3e
000001f0: 445d 823d 94e8 febc 5cbb a2bd bcc3 6c3e
00000200: 419b 053e 611b b1be c135 71bd f112 d33d
00000210: 6e09 143d 9f86 8b3d 1929 30bd d771 23bd
00000220: 82e6 2abc 1c9c 03be 93da fd3c 7ff7 a33c
00000230: 98dd 663d 1b82 54bd d223 22bb 8009 d43c
00000240: 2757 c93c 542e 16be e582 f3bc e2de b53d
00000250: 7fcd 4f3e 8878 03be 4306 a6bd c6f3 93bd
00000260: 5565 1abd bdcf 8f3d e63b 113e ef55 a1bd
00000270: 5f1b 533d c448 603c e46d 843c 637d b23b
00000280: b16d d53d 255a d63c e82f e03d 201c 243e
00000290: fd5f 46bd 74c3 47bd 1152 2dbd 6f8f 953c
000002a0: 3f23 4fbe a830 c4bc 7950 c43c 3b1b 4b3d
000002b0: e1ef f83d 5869 4b3a 1af7 42bd 4f9b 5cbd
000002c0: 8b7f b9bd 23c4 003e 7f9f 21bd 4774 41be
000002d0: 2487 7a3d d8cd 93bd e9f7 83bd dc50 02be
000002e0: e2fe a1bd dc12 9c3d c732 263e 36f5 3f3d
000002f0: 9ee6 0b3c d0cd 8dbd 5559 893e 14a7 7c3d
00000300: 8d50 983d 8eb5 313d d220 a8be 0b31 143c
00000310: 6c21 8c3d 0621 4b3e 5f44 ffbd 6344 933e
00000320: dc19 d2bb fa3b 9cbd ea9a 7f3d aa02 b43d
00000330: 7da7 7ebd b726 56bd 2651 693d 90e1 c3bd
00000340: b4ef da3c 24d5 f9bb c849 81bb 29ec fabd
00000350: fc57 85bd 46be 98bd 842b 8fbd ea8b 98bd
00000360: 9ad7 c7bb 2b0d 9bbd c039 c1bd 1c37 a83d
00000370: f8dd 15bd ea9e a5bd d8ae c43d ef6e 023d
00000380: ff27 1c3d 5a5c 2b3c c1e9 f0bc 1c19 153d
00000390: ecb8 2f3d 0bfc bebd 831e b93c e5e2 e13c
000003a0: c05e b53d 1a85 9fbd 4d06 d1bd c1a1 85bb
000003b0: 49b6 8cbd 2bc4 64bd 40ee d8bc a3a3 2abd
000003c0: 5d02 5dbd 7f8c 05bd a291 8cbd 2dd9 75bd
000003d0: 25b2 963d d08e dabc 45cc a13d 8c04 febd
000003e0: e17a 1bbd d6a7 1f3b 1b37 813b 1a66 cebc
000003f0: 5d27 323d 54f5 793d d4a1 7dbd 7a40 6cbc

2.bias f4 [100]
0.035386257 0.23629987 -0.098812245 0.53466684 -0.112560324 0.03781804 0.03610773 0.2596141
0.19974649 -0.112265445 0.28683898 0.15533401 0.13030407 0.04204646 -0.45313212 -0.065388344
0.29412156 0.18347953 -0.022666324 0.0642502 0.0755311 -0.13357262 -0.036520455 0.11207061
-0.04622 -0.075180955 0.03270183 -0.3569141 -0.05047772 -0.45633918 0.13843013 -0.13390988
-0.20587286 -0.510326 0.47200054 0.23909819 -0.02534181 -0.1100056 -0.06986726 0.08436173
-0.0834217 -0.047189876 -0.081340134 0.21651365 -0.24658573 0.29213253 -0.13871129 -0.024956059
-0.3846449 0.044845633 -0.45322347 -0.17266768 0.5975234 0.13868916 -0.06842774 0.29629764
-0.15293011 0.5942533 0.8776929 0.010761868 0.6782019 0.3409668 0.40924037 -0.00035603013
-0.18887347 -0.12132161 -0.011593898 -0.36670324 -0.34166908 -0.248184 -0.075727984 -0.29919112
-0.4432836 -0.3666359 -0.042187274 -0.0066355 0.05327404 0.09693887 -0.13504565 0.40240926
-0.3151864 -0.14731815 -0.43325758 -0.22337252 0.10979906 0.34079745 -0.42163494 0.07107735
0.12162553 -0.4410284 0.00095648505 0.5737516 -0.43112913 -0.0757435 -0.21081793 -0.10747818
0.12133329 -0.1603469 -0.2067411 -0.033644162
00000000: 2ef1 103d 98f8 713e 135e cabd eddf 083f
00000010: 0786 e6bd 17e7 1a3d b3e5 133d 24ec 843e
00000020: 588a 4c3e 6deb e5bd 8fdc 923e e10f 1f3e
00000030: 6e6e 053e e938 2c3d ef00 e8be 53ea 85bd
00000040: 1a97 963e 0fe2 3b3e baae b9bc 9c95 833d
00000050: 0db0 9a3d 43c7 08be 7996 15bd 4785 e53d
00000060: 2f51 3dbd 79f8 99bd 5bf2 053d 72bd b6be
00000070: bac1 4ebd 4aa5 e9be a1c0 0d3e ac1f 09be
00000080: 56d0 52be baa4 02bf 0eaa f13e 28d6 743e
00000090: a199 cfbc 9e4a e1bd 9116 8fbd d8c5 ac3d
000000a0: ffd8 aabd 2c4a 41bd a895 a6bd c1b5 5d3e
000000b0: f880 7cbe 6592 953e 550a 0ebe a670 ccbc
000000c0: 2df0 c4be 0eb0 373d e80c e8be cccf 30be
000000d0: 4bf7 183f 8804 0e3e d823 8cbd 53b4 973e
000000e0: b699 1cbe fc20 183f 7bb0 603f 8c52 303c
000000f0: a49e 2d3f 3393 ae3e f487 d13e 8ea9 bab9
00000100: 0c68 41be 7777 f8bd 55f4 3dbc 87c0 bbbe
00000110: 40ef aebe f223 7ebe 4617 9bbd 942f 99be
00000120: 11f6 e2be b3b7 bbbe 90cc 2cbd 9c6e d9bb
00000130: e135 5a3d e387 c63d 6849 0abe 9608 ce3e
00000140: 1d60 a1be 92da 16be f0d3 ddbe c4bb 64be
00000150: 54de e03d 017d ae3e 89e0 d7be 0091 913d
00000160: ce16 f93d 79ce e1be a0bc 7a3a 63e1 123f
00000170: f5bc dcbe 681f 9bbd a8e0 57be 851d dcbd
00000180: 977d f83d fa31 24be f0b3 53be 76ce 09bd

4.weight f4 [100, 100]
-0.119836755 0.11800318 -0.09524566 -0.2296282 -0.019411359 -0.02925733 0.121794306 0.031062251
0.043348096 -0.18602528 -0.13382918 0.068193704 0.00960651 0.13114443 -0.044671528 0.056549948
-0.076697275 -0.08114132 -0.14820209 -0.00068285275 0.15380608 -0.3392119 -0.22953823 0.16818354
0.023823656 0.02499471 0.098486565 -0.08990107 0.04342364 0.06722985 0.28982982 0.03233188
-0.012957871 0.042938285 0.18812357 0.06372558 0.071596816 0.014947969 0.0806589 0.15143432
0.050149675 -0.060921613 0.014708245 0.19722736 -0.3272194 -0.098362334 0.16313308 0.02850068
-0.23143554 0.012185572 0.047023732 -0.09894786 0.12327204 -0.040064465 0.007808447 0.1316765
-0.25736588 0.18953595 0.09539999 0.07334 0.2819306 0.18151225 0.08489596 0.17633149
-0.12582935 0.18606558 -0.013946934 -0.21015383 -0.1558941 -0.15736432 0.024753438 0.02677657
0.11176803 -0.2044555 -0.089980245 0.009537614 -0.14300111 -0.0634491 0.034932747 0.029650606
0.08517441 0.035369016 0.17628324 -0.12275313 -0.03462385 0.12375259 -0.13960485 0.109702595
0.35925922 -0.10955959 -0.13732754 0.2932134 0.033232808 -0.07280027 -0.18217757 0.0583737
0.021920042 -0.20580883 -0.3588353 0.0024549926 -0.23798433 0.17656839 -0.03861194 -0.066755146
-0.0013359571 -0.027227731 -0.36273444 -0.04695869 -0.080857575 0.07805472 -0.21096887 0.17480451
0.17189841 -0.033562724 -0.15869704 0.043069046 0.09607976 0.18143874 0.11724115 -0.08115033
-0.07691515 -0.07794418 0.032373313 0.1396739 -0.35050082 -0.017807199 0.056518074 0.001976327
-0.012660184 0.20485097 0.29074702 -0.08276038 0.14881276 0.13384576 -0.07367877 -0.13050462
-0.08093044 -0.002794455 0.091771804 -0.010941842 -0.009477689 0.08764695 -0.09949476 -0.19085687
-0.09291658 0.029480135 -0.22536042 -0.04748266 0.1552777 -0.00016222522 0.1576159 0.00842547
-0.013621487 0.15625973 -0.04460434 -0.056997426 -0.29692358 0.2085204 0.014974834 0.28479806
0.08140508 0.12616564 -0.03992846 0.18140444 -0.10461474 0.1923944 -0.030324658 -0.085193746
-0.0054373504 -0.03245402 -0.03793151 -0.061058775 0.08271011 -0.0081377 -0.0057462812 -0.0093858745
0.14207123 -0.05819146 0.011363276 0.044162728 0.049237967 0.25091025 -0.009912004 -0.069924764
-0.3185509 -0.0069206753 0.14892562 -0.058686297 -0.2696309 0.11424517 -0.18878175 0.39937234
0.19669203 0.02295372 -0.0022286626 -0.106184416 0.21936172 -0.035584044 -0.081474826 0.09592065
0.036137044 -0.006033402 -6.881952e-05 -0.101768695 -0.0319964 -0.08951696 -0.06759112 -0.05673326
-0.0902734 -0.09881891 0.032219637 -0.08972869 0.020147696 -0.05721971 -0.023708908 -0.12686811
-0.113664865 -0.10723936 0.03716233 -0.12399269 -0.071018234 -0.073675126 0.028895266 0.00029064275
-0.105986804 -0.030016482 -0.04082502 -0.0876539 0.07435904 -0.0074176537 -0.11853389 0.06848271
0.068637975 0.020557258 0.058913037 -0.005625077 0.012876415 -0.09267404 -0.06962333 -0.0026148101
0.03136597 -0.08739709 0.09838883 -0.027825322 -0.07952162 -0.06922414 -0.07803273 0.0090602515
-0.03721968 0.077710725 -0.0331883 -0.019528948 -0.11397977 -0.0993723 0.081890285 -0.095466554
00000000: f96c f5bd a7ab f13d 2810 c3bd a823 6bbe
00000010: 9204 9fbc 11ad efbc 4b6f f93d 4376 fe3c
00000020: c68d 313d 697d 3ebe 840a 09be 24a9 8b3d
00000030: a064 1d3c ba4a 063e 7ef9 36bd eba0 673d
00000040: 7613 9dbd 6c2d a6bd 4ac2 17be 7901 33ba
00000050: 577f 1d3e 2fad adbe 120c 6bbe 4e38 2c3e
00000060: d429 c33c b5c1 cc3c 53b3 c93d 0d1e b8bd
00000070: fddc 313d ceaf 893d 9364 943e 6f6e 043d
00000080: 404d 54bc 0ee0 2f3d 77a3 403e 8f82 823d
00000090: 5aa1 923d 53e8 743c 7e30 a53d 9911 1b3e
000000a0: bf69 4d3d f188 79bd dafa 703c f8f5 493e
000000b0: 4d89 a7be 3172 c9bd 5c0c 273e 427a e93c
000000c0: 70fd 6cbe fea5 473c f59b 403d 2da5 cabd
000000d0: 0d76 fc3d a31a 24bd 00de ff3b 34d6 063e
000000e0: 76c5 83be b615 423e 1261 c33d 4833 963d
000000f0: 3559 903e 59de 393e efdd ad3d 3e90 343e
00000100: 69d9 00be fa87 3e3e ae81 64bc 9132 57be
00000110: b4a2 1fbe 1d24 21be b9c7 ca3c 8a5a db3c
00000120: a3e6 e43d c85c 51be 9047 b8bd a743 1c3c
00000130: e26e 12be 9af1 81bd a415 0f3d d4e5 f23c
00000140: ec6f ae3d 1adf 103d 9883 343e fe65 fbbd
00000150: bdd1 0dbd ff71 fd3d 93f4 0ebe c1ab e03d
00000160: d3f0 b73e c760 e0bd 979f 0cbe 1120 963e
00000170: 201f 083d 4f18 95bd c28c 3abe 4319 6f3d
00000180: a991 b33c 8dbf 52be 43b9 b7be f1e3 203b
00000190: 2ab2 73be 58ce 343e 8e27 1ebd ecb6 88bd
000001a0: 481b afba b10c dfbc 54b8 b9be c157 40bd
000001b0: a898 a5bd 27db 9f3d 3908 58be f4ff 323e
000001c0: 2306 303e 1179 09bd 7a81 22be 2b69 303d
000001d0: 77c5 c43d 14cb 393e 211c f03d 2532 a6bd
000001e0: b185 9dbd 33a1 9fbd e199 043d ad06 0f3e
000001f0: d874 b3be 67e0 91bc 7f7f 673d 4485 013b
00000200: a96c 4fbc 74c4 513e cbdc 943e 467e a9bd
00000210: 5f62 183e dd0e 093e e5e4 96bd 01a3 05be
00000220: dcbe a5bd 2d23 37bb dbf2 bb3d 6945 33bc
00000230: 4f48 1bbc 3e80 b33d e9c3 cbbd fc6f 43be
00000240: 0c4b bebd 5380 f13c e2c4 66be 2d7d 42bd
00000250: 1e01 1f3e 001b 2ab9 1066 213e fc0a 0a3c
00000260: a82c 5fbc 8d02 203e 0ab3 36bd 2276 69bd
00000270: 5e06 98be 5f86 553e 0259 753c 0dd1 913e
00000280: b5b7 a63d 9131 013e 068c 23bd 16c2 393e
00000290: 4140 d6bd 0a03 453e 6b6b f8bc 0f7a aebd
000002a0: cd2b b2bb 82ee 04bd 125e 1bbd c418 7abd
000002b0: eb63 a93d fd53 05bc 4d4b bcbb 36c7 19bc
000002c0: 1f7b 113e 2b5a 6ebd 092d 3a3c fae3 343d
000002d0: c0ad 493d 4f77 803e f565 22bc b734 8fbd
000002e0: 1b19 a3be d5c6 e2bb f57f 183e 0b61 70bd
000002f0: 100d 8abe 5ff9 e93d 0150 41be 887a cc3e
00000300: a369 493e 7109 bc3c c10e 12bb 3777 d9bd
00000310: 5ca0 603e 93c0 11bd 46dc a6bd 0c72 c43d
00000320: 7004 143d d8b3 c5bb 3353 90b8 1b6c d0bd
00000330: a80e 03bd ab54 b7bd 376d 8abd 2361 68bd
00000340: 43e1 b8bd 9261 cabd bdf8 033d adc3 b7bd
00000350: c80c a53c 375f 6abd 2f39 c2bc b7e9 01be
00000360: 20c9 e8bd 4fa0 dbbd 8737 183d e1ef fdbd
00000370: 0272 91bd fce2 96bd c4b5 ec3c 6961 9839
00000380: 9c0f d9bd 20e5 f5bc 2338 27bd e383 b3bd
00000390: 8d49 983d ca0f f3bb e5c1 f2bd aa40 8c3d
000003a0: 1192 8c3d b267 a83c cc4e 713d 9152 b8bb
000003b0: 99f7 523c e3cb bdbd ad96 8ebd 3c5d 2bbb
000003c0: 9a79 003d 3ffd b2bd 1580 c93d eef1 e3bc
000003d0: 3bdc a2bd 63c5 8dbd a0cf 9fbd 7371 143c
000003e0: aa73 18bd cd26 9f3d 74f0 07bd 2cfb 9fbc
000003f0: 3a6e e9bd b483 cbbd 18b6 a73d f883 c3bd

4.bias f4 [100]
0.32071456 -0.05484295 -0.0637123 -0.030225646 0.3138303 0.20720802 0.13177082 0.031180225
-0.11057659 0.25453314 0.056269698 0.0026481908 -0.073955216 -0.17061685 -0.09990913 0.4325531
-0.19867207 0.031495403 -0.035806455 0.18780513 0.40972888 0.17635739 -0.009411296 -0.013628086
-0.06603921 0.3643193 0.13921465 -0.16348092 0.025066208 -0.35649735 0.11253401 -0.4543069
0.06373108 0.1983472 0.10534171 -0.21463607 -0.31165737 0.328524 0.9476664 -0.27736586
-0.049653735 -0.02154495 0.14702389 0.23448227 0.09031921 0.17994691 0.015844917 -0.07613919
0.39585036 -0.10003651 -0.34374842 -0.24557012 0.08651591 0.024799341 -0.20617647 0.21631211
0.021284442 -0.22077183 -0.08878914 -0.12283331 0.014174946 0.17543197 0.094790675 -0.016133174
-0.3031472 -0.34654757 0.106825404 0.084693156 -0.05812975 0.12369621 0.26801276 0.5581353
-0.28112322 0.02668817 -0.02193483 -0.09221816 -0.060352296 0.008196918 -0.1403112 0.15112196
0.17959724 -0.11363631 -0.21518148 -0.46583012 0.019678613 0.011833049 0.008969124 -0.028178181
0.0554294 0.04612481 -0.0950809 0.39524758 0.38957185 -0.08480807 0.33656716 0.4901486
0.1501261 0.1380317 -0.26494524 -0.08368502
00000000: b334 a43e 00a3 60bd 987b 82bd c69b f7bc
00000010: 5dae a03e 572e 543e eeee 063e ac6d ff3c
00000020: fb75 e2bd 2b52 823e 0e7b 663d 458d 2d3b
00000030: d575 97bd 2fb6 2ebe 289d ccbd 9a77 dd3e
00000040: b170 4bbe 5301 013d caa9 12bd fd4f 403e
00000050: fcc7 d13e 0897 343e d631 1abc 5648 5fbc
00000060: 913f 87bd 0f88 ba3e 498e 0e3e 8b67 27be
00000070: a657 cd3c d286 b6be 3b78 e63d ea9a e8be
00000080: 7185 823d 871b 4b3e 65bd d73d 8fc9 5bbe
00000090: 8e91 9fbe 4c34 a83e 449a 723f e602 8ebe
000000a0: b761 4bbd 097f b0bc 6e8d 163e 1f1c 703e
000000b0: 47f9 b83d 0144 383e 33cd 813c ddee 9bbd
000000c0: e6ac ca3e f1df ccbd cbff afbe bc76 7bbe
000000d0: 412f b13d fd27 cb3c ed1f 53be ec80 5d3e
000000e0: b65c ae3c 0312 62be 15d7 b5bd 0890 fbbd
000000f0: 083e 683c 70a4 333e 9d21 c23d b829 84bc
00000100: 1c36 9bbe af6e b1be 47c7 da3d 9b73 ad3d
00000110: 7619 6ebd 7054 fd3d f838 893e f4e1 0e3f
00000120: 62ef 8fbe 26a1 da3c acb0 b3bc e0dc bcbd
00000130: f833 77bd 5e4c 063c bdad 0fbe b7bf 1a3e
00000140: 57e8 373e 27ba e8bd 8958 5cbe 4981 eebe
00000150: 0b35 a13c 68df 413c 3cf3 123c eed5 e6bc
00000160: f009 633d 5eed 3c3d c6b9 c2bd e45d ca3e
00000170: f675 c73e daaf adbd 8852 ac3e c2f4 fa3e
00000180: a8ba 193e 2f58 0d3e e7a6 87be 0d63 abbd

6.weight f4 [157, 100]
-0.20143846 0.039271425 0.004633003 0.035502847 -0.010664264 -0.09473067 0.094261475 -0.03819436
0.07103867 -0.20338622 -0.08968593 0.0037237743 -0.00416789 0.039056305 -0.07346911 0.10876173
-0.27577394 0.06154524 -0.16207443 -0.016516257 0.14137816 -0.32695812 -0.52341914 -0.15399945
0.024095174 -0.21998464 -0.0048280316 0.03827369 0.01654377 -0.027508803 0.05725858 0.034452412
0.023492862 -0.08879347 -0.11694751 0.25487447 0.11419731 -0.2608103 -0.045285147 0.05920439
-0.052147955 0.039106295 0.11480433 -0.16024348 0.2108548 -0.148527 -0.15992072 0.063250564
-0.40535593 -0.15121402 -0.009391899 0.082580455 -0.00821169 0.05023573 -0.06606929 -0.1894514
-0.035443425 -0.17691293 0.18806967 0.0591119 -0.013872336 0.05278704 -0.017327797 0.08280273
-0.03802479 -0.0032114917 -0.016248053 0.031090926 -0.08246833 0.114249624 0.118451126 0.09657818
-0.15138204 0.16814746 -0.043516155 0.07010976 0.03865993 -0.05367436 -0.00537921 -0.16689417
0.023857094 -0.06867169 0.040213615 0.02135749 0.04107836 0.10751973 -0.016284505 -0.03696396
-0.017072478 -0.13290659 0.044179868 -0.19971162 0.114456266 0.0050768973 -0.08189807 0.09619767
0.034613773 0.12585518 -0.09231098 0.17184605 0.012237417 0.045606717 0.017050473 -0.0535411
0.1725738 -0.23345825 -0.19848628 -0.04265756 -0.011870922 0.16607438 -0.080064945 -0.036872134
-0.07273155 -0.2668277 0.13275114 -0.02905705 0.16223061 -0.4184332 0.2927654 0.034234446
0.08190973 -0.037680555 0.12637737 -0.093408056 0.09613004 -0.6750114 -0.34572944 0.004762029
0.12693024 -0.09062525 -0.112950966 -0.08689869 -0.00527217 0.05497437 -0.440922 -0.22496812
0.20068486 -0.16021794 -0.21553117 -0.5918322 -0.22370592 -0.059014626 -0.3224859 0.111752935
0.050805498 0.11659453 -0.043747164 0.031320445 0.07363885 -0.048383396 -0.10011859 0.14877163
0.04251339 -0.31580427 0.16780467 -0.024041142 0.013417655 0.055727698 -0.019156393 0.033330508
0.2360152 0.14853612 -0.06816317 -0.04684393 0.25876206 -0.250614 0.014844728 0.12763895
-0.084257126 -0.112405814 -0.2799125 0.17176558 -0.029751286 -0.06301787 0.23856598 -0.046025947
0.16440408 0.15238331 -0.0026687898 0.02318033 -0.25552607 0.14218815 0.039948225 -0.0019961463
-0.020806244 0.021900628 -0.37096915 -0.0036667576 0.13178805 -0.051559202 -0.05654301 0.020850962
0.0029895706 -0.09045044 -0.014354511 0.09939867 0.120126545 0.08218577 0.028738115 -0.023792513
-0.40832093 0.00016832264 -0.081463955 -0.07467284 -0.49667135 0.21332252 0.02661023 0.042810045
0.092750385 -0.08318399 0.056586012 0.04347641 0.15084057 -0.27127486 0.05419374 0.072148874
0.09842911 0.08617282 0.073812105 0.095097356 -0.0050098957 0.14521302 0.107673705 -0.05241039
0.035636447 0.09851225 0.07172919 0.09039547 -0.09064653 -0.033702794 -0.03645928 -0.024370598
0.075469635 -0.38197672 -0.0069258935 0.13733713 0.012362332 0.25307083 -0.12651923 -0.008722598
-0.013064493 -0.040468752 0.16162555 0.0006941211 0.23900932 -0.024073355 -0.005975133 -0.015488496
0.07330327 -0.14599316 -0.11239151 0.16148181 0.07015721 0.03902914 -0.23156127 -0.05583649
00000000: e245 4ebe 13db 203d 72d0 973b 6f6b 113d
00000010: 2ab9 2ebc 2702 c2bd 290c c13d b071 1cbd
00000020: b97c 913d 7a44 50be 42ad b7bd 910a 743b
00000030: cc92 88bb 81f9 1f3d f976 96bd 78be de3d
00000040: 3e32 8dbe dd16 7c3d d7f6 25be 1a4d 87bc
00000050: 70c5 103e 0e67 a7be ccfe 05bf 08b2 1dbe
00000060: 3e63 c53c a743 61be 7734 9ebb dfc4 1c3d
00000070: cd86 873c 245a e1bc f987 6a3d f91d 0d3d
00000080: 1a74 c03c 5ad9 b5bd 2d82 efbd e87e 823e
00000090: 47e0 e93d ed88 85be eb7c 39bd 4d80 723d
000000a0: 1899 55bd ec2d 203d 881e eb3d de16 24be
000000b0: 52ea 573e 7617 18be 42c2 23be 8389 813d
000000c0: d08a cfbe d9d7 1abe 7be0 19bc f11f a93d
000000d0: 538a 06bc fbc3 4d3d 564f 87bd 8cff 41be
000000e0: 202d 11bd aa28 35be 5695 403e 521f 723d
000000f0: cb48 63bc 3937 583d 06f3 8dbc 7a94 a93d
00000100: e2bf 1bbd e477 52bb a31a 85bc 66b2 fe3c
00000110: 28e5 a8bd b5fb e93d 8196 f23d c8ca c53d
00000120: e503 1bbe d92e 2c3e ff3d 32bd b595 8f3d
00000130: e059 1e3d a5d9 5bbd 1644 b0bb 4ee6 2abe
00000140: f46f c33c bea3 8cbd 08b7 243d e7f5 ae3c
00000150: c841 283d 4e33 dc3d 1567 85bc 8567 17bd
00000160: 95db 8bbc aa18 08be f3f5 343d 3481 4cbe
00000170: 0c68 ea3d 1a5c a63b 2dba a7bd 4903 c53d
00000180: 2cc7 0d3d 2ee0 003e 8a0d bdbd 69f8 2f3e
00000190: 727f 483c 1cce 3a3d 6fad 8b3c ea4d 5bbd
000001a0: 30b7 303e ae0f 6fbe fd3f 4bbe b2b9 2ebd
000001b0: 417e 42bc 670f 2a3e 17f9 a3bd 3c07 17bd
000001c0: 47f4 94bd a49d 88be eaef 073e 0d09 eebc
000001d0: c81f 263e e03c d6be 59e5 953e 6b39 0c3d
000001e0: 4ac0 a73d ed56 1abd 1269 013e b94c bfbd
000001f0: d4df c43d 8ccd 2cbf 7303 b1be cb0a 9c3b
00000200: 00fa 013e bb99 b9bd d652 e7bd f1f7 b1bd
00000210: 2bc2 acbb ce2c 613d 87c0 e1be 0b5e 66be
00000220: 5580 4d3e 2c10 24be 34b4 5cbe 5182 17bf
00000230: 2a13 65be 52b9 71bd df1c a5be b9de e43d
00000240: 6d19 503d 1dc9 ee3d 3a30 33bd de49 003d
00000250: f7cf 963d ab2d 46bd fa0a cdbd 9757 183e
00000260: 8522 2e3d 19b1 a1be fdd4 2b3e eef1 c4bc
00000270: b9d5 5b3c ba42 643d deed 9cbc 9285 083d
00000280: f8ad 713e da19 183e 2299 8bbd 6cdf 3fbd
00000290: 767c 843e 7a50 80be 4d37 733c c9b3 023e
000002a0: 008f acbd 0535 e6bd b150 8fbe 51e3 2f3e
000002b0: f8b8 f3bc 830f 81bd a44a 743e b485 3cbd
000002c0: 8b59 283e 5f0a 1c3e dde6 2ebb ade4 bd3c
000002d0: 50d4 82be c599 113e c0a0 233d c7d1 02bb
000002e0: db71 aabc f268 b33c abef bdbe fc4d 70bb
000002f0: 72f3 063e be2f 53bd a599 67bd a3cf aa3c
00000300: acec 433b 153e b9bd 2f2f 6bbc 8891 cb3d
00000310: e804 f63d 0351 a83d 326c eb3c 84e8 c2bc
00000320: 710f d1be c47f 3039 93d6 a6bd 13ee 98bd
00000330: b54b febe 3871 5a3e b2fd d93c 9659 2f3d
00000340: eaf3 bd3d 5e5c aabd bcc6 673d 5214 323d
00000350: f375 1a3e 8ae4 8abe 41fa 5d3d cac2 933d
00000360: 3495 c93d 607b b03d cd2a 973d 67c2 c23d
00000370: 0d2a a4bb b9b2 143e 0884 dc3d 47ac 56bd
00000380: 86f7 113d cac0 c93d c1e6 923d 4321 b93d
00000390: e3a4 b9bd f10b 0abd 5356 15bd d9a4 c7bc
000003a0: d38f 9a3d 7492 c3be 9bf2 e2bb 1ba2 0c3e
000003b0: 618b 4a3c 8092 813e 428e 01be 3ae9 0ebc
000003c0: 750c 56bc 90c2 25bd 2b81 253e aef5 353a
000003d0: dcbe 743e 7c35 c5bc 0ccb c3bb 76c3 7dbc
000003e0: 0620 963d 3b7f 15be 852d e6bd 7d5b 253e
000003f0: 95ae 8f3d 05dd 1f3d 661e 6dbe ceb4 64bd

6.bias f4 [157]
0.09003938 -0.072807506 0.19002753 -0.344199 -0.12502523 -0.29211333 -0.0646382 -0.015692689
-0.05426412 0.14922985 -0.16315754 0.05217652 -0.041943196 -0.44802734 -0.4837751 -0.04395553
-0.005643189 0.19129483 -0.029098194 0.22555135 0.058849357 0.041406214 -0.21947698 0.43047717
-0.27728325 0.15348749 0.005161116 0.32916385 -0.3432656 0.2290037 -0.20414278 -0.018658686
-0.21091267 -0.007728499 0.13043998 0.11284966 0.056682687 0.4261537 0.16234091 -0.019128669
-0.36596662 -0.100148015 0.2721099 0.09137178 0.030588495 0.33773437 0.31851012 0.34745985
0.2043377 -0.10346772 -0.015788324 0.19005989 -0.117511556 -0.0895237 0.0722728 0.11760524
-0.34883517 -0.003597033 0.06662185 -0.24766055 -0.044720188 0.20190875 0.39920676 0.09953485
-0.14492968 -0.051626302 0.27819592 -0.17958374 -0.33047804 -0.13754092 0.05351455 0.112531014
0.23519014 -0.083328485 -0.18713139 -0.05299477 -0.06528852 -0.18152514 -0.21346584 0.025177635
-0.095909506 -0.021937352 -0.18762574 0.18059151 0.15159424 0.2715761 -0.051084228 0.42916945
0.2987847 -0.21028523 -0.4062495 0.38998777 -0.06779924 0.31302032 -0.04825733 -0.36125994
0.024454694 -0.16998628 -0.24568115 -0.04289653 0.22295903 0.1423059 -0.08216019 0.23041528
0.052374803 0.047353126 0.18203029 -0.031606544 -0.1103441 0.0021210224 -0.17893246 -0.14457269
0.017068474 -0.04901651 0.09775996 -0.28074837 -0.08330891 -0.074545704 -0.012538296 -0.09830293
0.14662589 0.5047377 -0.02804211 -0.24050169 0.19566296 -0.21908724 -0.12244189 0.22205263
0.33091584 -0.14834525 -0.022842534 0.031922553 -0.2072463 -0.022323268 -0.16403978 -0.053608608
0.10422005 -0.17902726 -0.01736715 0.16397743 0.5737614 -0.012696009 -0.35601813 -0.03351581
-0.07817842 0.07442832 -0.4239395 0.11777775 -0.0044872155 0.14279014 -0.097434 -0.40897655
-0.22568801 -0.14233531 -0.00910256 0.05760648 0.14079525
00000000: 9166 b83d 1a1c 95bd 9496 423e da3a b0be
00000010: 9d06 00be e18f 95be 0861 84bd f48d 80bc
00000020: 0e44 5ebd b6cf 183e c512 27be 0cb7 553d
00000030: a1cc 2bbd d763 e5be 5fb1 f7be b70a 34bd
00000040: 80ea b8bb cbe2 433e 565f eebc eff6 663e
00000050: 060c 713d 9099 293d 93be 60be 8167 dc3e
00000060: 12f8 8dbe d32b 1d3e 941e a93b 2a88 a83e
00000070: 82c0 afbe f27f 6a3e ce0a 51be 1ada 98bc
00000080: 7ef9 57be 593f fdbb 0f92 053e b91d e73d
00000090: 1b2c 683d d130 da3e b23c 263e bab3 9cbc
000000a0: fa5f bbbe 671a cdbd fd51 8b3e 2121 bb3d
000000b0: b994 fa3c 85eb ac3e c213 a33e 42e6 b13e
000000c0: e73d 513e e2e6 d3bd 8456 81bc 0f9f 423e
000000d0: e6a9 f0bd 3458 b7bd c303 943d 04db f03d
000000e0: 869a b2be 33bc 6bbb 0971 883d ba9a 7dbe
000000f0: 842c 37bd 2bc1 4e3e d464 cc3e edd8 cb3d
00000100: 7268 14be 1a76 53bd b26f 8e3e cde4 37be
00000110: 6b34 a9be 87d7 0cbe 1332 5b3d a976 e63d
00000120: afd5 703e 20a8 aabd 5f9f 3fbe 0b11 59bd
00000130: fdb5 85bd bae1 39be ca96 5abe 5441 ce3c
00000140: 346c c4bd f6b5 b3bc f620 40be fbec 383e
00000150: 853b 1b3e 060c 8b3e b23d 51bd 19bc db3e
00000160: 4ffa 983e 0355 57be efff cfbe 7aac c73e
00000170: 54da 8abd 3344 a03e 7aa9 45bd 10f7 b8be
00000180: 3655 c83c e210 2ebe d793 7bbe 46b4 2fbd
00000190: 5f4f 643e a3b8 113e 9a43 a8bd fcf1 6b3e
000001a0: f686 563d 5af5 413d 2666 3a3e dd75 01bd
000001b0: 16fc e1bd da00 0b3b 123a 37be dd0a 14be
000001c0: 2fd3 8b3c 89c5 48bd 6036 c83d 40be 8fbe
000001d0: dd9d aabd 6bab 98bd 6d6d 4dbc 0c53 c9bd
000001e0: 1925 163e 7d36 013f 91b8 e5bc 1346 76be
000001f0: df5b 483e 6858 60be d0c2 fabd c461 633e
00000200: cd6d a93e d1e7 17be 4420 bbbc 39c1 023d
00000210: 6038 54be 49df b6bc 0bfa 27be b394 5bbd
00000220: 5271 d53d ec52 37be 8e45 8ebc b3e9 273e
00000230: 07e2 123f ec02 50bc 0248 b6be e047 09bd
00000240: 021c a0bd e06d 983d 990e d9be 7635 f13d
00000250: 7e09 93bb 9437 123e 7a8b c7bd 6065 d1be
00000260: c21a 67be 59c0 11be e722 15bc c6f4 6b3d
00000270: a12c 103e
