neura1/bestval_e16_weights.ckpt (torch, 399055 bytes, 8 tensors)

0.weight f4 [100, 630]
0	0x3ce81092	0.028328214
1	0x3cc71464	0.024301715
2	0x3d00672d	0.031348396
3	0xbec65041	-0.38733104
4	0xbe25d0f9	-0.16192998
5	0xbe06ea7a	-0.13175383
6	0xbea73304	-0.3265611
7	0xbdbae2f2	-0.09125318
8	0xbeaab976	-0.3334462
9	0xbef36598	-0.47538447
10	0xbef9224c	-0.4865898
11	0xbcf1fea1	-0.029540362
12	0x3d2d5ae0	0.042322993
13	0x3ed99347	0.42495176
14	0xbcb1dcef	-0.021711795
15	0xbdc1e5f0	-0.09467685
16	0x3e32aa53	0.17447786
17	0x3eeb8df3	0.46006736
18	0xbe1cf054	-0.15326053
19	0x3dda0ea9	0.106473275
20	0x3e6cbbc5	0.23118503
21	0x3eb969a0	0.36213398
22	0xbe51f597	-0.20503841
23	0xba953925	-0.0011384828
24	0x3e8bb2f2	0.27284962
25	0x3f05fec5	0.5234187
26	0xbc89149c	-0.01673346
27	0xbd4be5c7	-0.04977968
28	0x3d80546b	0.062661014
29	0xbee23c64	-0.441867
30	0x3c11f8d3	0.008909422
31	0xbd0915f2	-0.033468194
32	0x3d5ed9a4	0.054406777
33	0xbde0f03f	-0.10983323
34	0xbe1c8479	-0.1528491
35	0xbc92b3a3	-0.017907923
36	0xbe2cbadf	-0.1686816
37	0xbcefb056	-0.029258888
38	0xbe1cec93	-0.15324621
39	0xbe90b8c9	-0.2826598
40	0xbe8d7b35	-0.27633062
41	0xbde25fe8	-0.11053449
42	0xbd25486a	-0.040352263
43	0x3e2f937d	0.17146106
44	0xbc2c8976	-0.01053082
45	0xbd592593	-0.05301435
46	0x3d189d7c	0.037259564
47	0x3e95322d	0.29139844
48	0xbe1f06e7	-0.15529977
49	0x3d9dd333	0.07706299
50	0x3dc1c3f3	0.094612025
51	0x3e8140af	0.25244662
52	0xbe7cc97e	-0.24686238
53	0xbcdc0a0e	-0.026860263
54	0x3e2b7e74	0.16747457
55	0x3ed2d4a3	0.41177854
56	0xbde9b2b6	-0.114110395
57	0xbde44b55	-0.11147181
58	0x3d84fe14	0.06493774
59	0xbee13053	-0.4398218
60	0x3be39b8d	0.0069460333
61	0xbc686ed6	-0.014186582
62	0x3c42f97c	0.011900302
63	0xbdf617af	-0.12016236
64	0xbe349a1b	-0.17636912
65	0xbd0e5f99	-0.034759138
66	0xbe257bf2	-0.16160563
67	0x3d1cb936	0.03826257
68	0xbe326339	-0.17420663
69	0xbe858bc6	-0.260832
70	0xbe6d6145	-0.23181637
71	0xbdf57585	-0.11985306
72	0xbb853cb2	-0.0040660733
73	0x3e83c4f0	0.2573619
74	0x3d8838d7	0.06651466
75	0x3d0889fa	0.03333471
76	0x3d4c03e2	0.04980839
77	0x3e9f8c02	0.31161505
78	0xbd732106	-0.059357665
79	0x3e268aa0	0.16263819
80	0x3da2ff6a	0.079588726
81	0x3e86df32	0.2634216
82	0xbe41d822	-0.18930104
83	0x3cc1717d	0.023613686
84	0x3e55ca2e	0.20877907
85	0x3eca31bc	0.3949107
86	0xbe0f0162	-0.13965371
87	0xbe0560fb	-0.13025276
88	0x3d1deb99	0.03855476
89	0xbec6ff10	-0.38866472
90	0xbcc979d5	-0.024594227
91	0xbdb9cd0c	-0.09072313
92	0x3c108ed5	0.008823116
93	0xbdb7b39f	-0.08969807
94	0xbe06c761	-0.13161995
95	0xbd29d012	-0.041458197
96	0xbe1e635e	-0.15467593
97	0x3a8263f6	0.0009948004
98	0xbe2a9468	-0.16658175
99	0xbe82d192	-0.25550514
100	0xbe649ab5	-0.22324641
101	0xbdd4c814	-0.103897244
102	0xbb2af266	-0.0026084422
103	0x3e970d6c	0.29502428
104	0x3d3337ed	0.043754507
105	0x3d91f229	0.071262665
106	0x3daf4104	0.085573226
107	0x3e99aef0	0.3001628
108	0xbd9aa2b0	-0.075505614
109	0x3e03d731	0.12875058
110	0x3de067bc	0.10957286
111	0x3e888e7e	0.26671213
112	0xbe6f2f68	-0.23357928
113	0x3d43e7e2	0.047828563
114	0x3e2f6ab4	0.17130548
115	0x3ea77af5	0.32710996
116	0xbe0b4c72	-0.1360338
117	0xbdaaf314	-0.08347145
118	0x3c49d4dd	0.012318817
119	0xbee64f47	-0.4498236
120	0xbcc22148	-0.02369751
121	0xbdafa3fb	-0.08576199
122	0x3c8b1a8d	0.016980434
123	0xbd9908cb	-0.0747238
124	0xbdf5ef54	-0.12008539
125	0xbd86bbfc	-0.06578824
126	0xbe3057ba	-0.17220965
127	0xba257ebc	-0.00063131354
128	0xbe397f29	-0.18114914
129	0xbe89e0ec	-0.26929414
130	0xbe7ac728	-0.24490035
131	0xbd87aa24	-0.066242486
132	0x3d20e17b	0.039277535
133	0x3ea86dad	0.32896176
134	0x3d454561	0.048161868
135	0x3d713d23	0.058896195
136	0x3df2d6a0	0.11857343
137	0x3eb5b28e	0.3548779
138	0xbd4ca2e8	-0.049960047
139	0x3e3a6520	0.18202639
140	0x3e20f67d	0.15719028
141	0x3ea76103	0.32691202
142	0xbe33f47a	-0.17573729
143	0x3de83855	0.113388695
144	0x3e0e066b	0.13869636
145	0x3eae27a3	0.34014615
146	0xbe276137	-0.16345678
147	0xbd6998a5	-0.05703034
148	0x3da72ea8	0.08163196
149	0xbee6a241	-0.45045665
150	0x3cee0a93	0.029057777
151	0xbda061ee	-0.078311786
152	0x3c75478a	0.0149706695
153	0xbdcedd3b	-0.1010079
154	0xbd9a5fbc	-0.07537791
155	0xbd597850	-0.053093255
156	0xbe3073e3	-0.17231707
157	0xbd20ccd1	-0.03925783
158	0xbe247289	-0.16059317
159	0xbe97d756	-0.29656476
160	0xbe55aac2	-0.2086592
161	0xbd2f85ad	-0.042852093
162	0x3d8da54f	0.06916296
163	0x3ea04038	0.31298995
164	0x3d86e26d	0.06586156
165	0x3d914920	0.070940256
166	0x3e094c79	0.13408078
167	0x3ec018e4	0.3751899
168	0xbdd0c806	-0.101944014
169	0x3e669c4a	0.22520557
170	0x3e2b3ece	0.16723177
171	0x3e8563ca	0.26052696
172	0xbe0a78bc	-0.13522619
173	0xbc36a1d5	-0.011146982
174	0x3e5dd4f5	0.21663268
175	0x3eb9aadc	0.36263168
176	0xbe350463	-0.17677455
177	0xbdca2d72	-0.09871949
178	0x3dd27661	0.10276485
179	0xbecee0a1	-0.40405753
180	0x3d1af267	0.03782883
181	0xbd91ba5d	-0.07115624
182	0x3d22815c	0.039674148
183	0xbdb3e36d	-0.087836124
184	0xba34ea78	-0.00069013936
185	0x3c327cb7	0.010893992
186	0xbe17c0aa	-0.1481959
187	0xbc2d67b8	-0.0105838105
188	0xbe541711	-0.20711924
189	0xbeaa511a	-0.33265
190	0xbe5eef62	-0.21771005
191	0xbd01f452	-0.031727143
192	0x3d26c575	0.040715653
193	0x3eb20c99	0.34775236
194	0x3d6e1e0c	0.058134124
195	0x3dd6a25f	0.104801886
196	0x3e28e1a7	0.1649233
197	0x3ea823cc	0.3283981
198	0xbddd7c58	-0.10814732
199	0x3e74ca49	0.2390529
200	0x3e5cafe9	0.2155148
201	0x3e9781b5	0.29591146
202	0xbe373ff5	-0.17895491
203	0x3cca0ee3	0.024665302
204	0x3e66e506	0.22548303
205	0x3ea673a7	0.3251011
206	0xbdfa2ac4	-0.12215188
207	0xbcbb0d00	-0.022833347
208	0x3d7dca9c	0.0619608
209	0xbed2eb4c	-0.41195142
210	0x39b08b5e	0.00033673173
211	0xbd0a864e	-0.03381949
212	0xba9487ee	-0.0011332014
213	0xbd942598	-0.07233733
214	0xbd82a5a4	-0.0637925
215	0xbd10c5f5	-0.035345037
216	0xbe3c7c49	-0.18406786
217	0xbd809534	-0.06278458
218	0xbe427c53	-0.18992738
219	0xbeab6aac	-0.33479822
220	0xbe5ac0b9	-0.2136258
221	0xbce55f14	-0.027999438
222	0x3d508460	0.050907493
223	0x3eba43cf	0.3637986
224	0x3d869ce9	0.06572897
225	0x3e1807e5	0.14846762
226	0x3e2eaf65	0.17059095
227	0x3ee11b3a	0.43966085
228	0xbdf3ea32	-0.119099036
229	0x3e73ea9e	0.23819968
230	0x3e259655	0.16170628
231	0x3e8a816a	0.2705186
232	0xbe0b1933	-0.13583831
233	0x3e059c9d	0.13048024
234	0x3e62a57e	0.22133443
235	0x3eb35a08	0.35029626
236	0xbdf46b0d	-0.11934481
237	0xbdbb6313	-0.09149756
238	0x3c7f46d8	0.015580855
239	0xbe9e754a	-0.3094886
240	0x3c9c8b4a	0.019109387
241	0xbd73b11e	-0.059495084
242	0x3c36ca40	0.011156619
243	0xbdec108a	-0.11526592
244	0xbcd679b1	-0.026181074
245	0xbc9ae040	-0.018905759
246	0xbdff5861	-0.12468029
247	0xbd5d7c04	-0.05407335
248	0xbe67e67d	-0.22646518
249	0xbea41409	-0.32046536
250	0xbe4ffadc	-0.20310539
251	0x3d193d37	0.037411895
252	0x3d87736e	0.06613813
253	0x3ea52868	0.3225739
254	0x3e106acf	0.14103244
255	0x3e116cf6	0.14201722

0.bias f4 [100]
0	0x3e2fbe6c	0.17162484
1	0x3cb40c40	0.021978498
2	0x3bd37f1a	0.0064543607
3	0x3d017efa	0.031615235
4	0x3ead330a	0.33828002
5	0x3e145f6c	0.14489526
6	0xbc119c55	-0.00888737
7	0x3cabe8fb	0.020985117
8	0xbeffc132	-0.49952084
9	0xbf5a0e92	-0.8517848
10	0xbe63b13f	-0.22235583
11	0xbe80ce39	-0.25157335
12	0x3d62ebdb	0.05540071
13	0xbcc78c4a	-0.024358887
14	0xbe47a547	-0.19496642
15	0x3ebe3f95	0.37157884
16	0x3b810abe	0.003938048
17	0xbc391bf8	-0.011298172
18	0x3f1a6474	0.6030953
19	0x3e5f4cd3	0.2180665
20	0x3f4a4a4f	0.79019636
21	0xbd7eb334	-0.06218262
22	0xbe5df66a	-0.21676031
23	0x3f1b33e2	0.6062604
24	0x3e13dc2d	0.14439459
25	0x3c311a3f	0.01080948
26	0x3eab869f	0.33501145
27	0x3e8269ab	0.25471243
28	0xbe21a8e5	-0.15787084
29	0xbe033f5c	-0.12817138
30	0x3eaef036	0.3416764
31	0xbd99a366	-0.07501869
32	0xbc528585	-0.012849216
33	0xbbf1f031	-0.0073833694
34	0x3e489ebc	0.19591802
35	0xbedc8b20	-0.43074894
36	0xbd5347ff	-0.051582333
37	0xbf351697	-0.70737594
38	0xbccca5e6	-0.02498145
39	0xbd0c0e2a	-0.034193195
40	0xbc404da1	-0.011737258
41	0xbe6ee0f4	-0.23328
42	0xbccd12be	-0.025033351
43	0xbc7cf1e7	-0.015438533
44	0x3cb15e34	0.021651365
45	0xbe2597cc	-0.16171187
46	0x3ae677b2	0.0017583279
47	0xbf13585b	-0.57556695
48	0xbe98310a	-0.29724914
49	0xbe886f14	-0.26647246
50	0xbe94dad5	-0.29073206
51	0x3f0524ad	0.5200909
52	0xbcc93a49	-0.024563925
53	0x3ebc18c3	0.36737642
54	0xbe6e81cc	-0.23291701
55	0xbe72670c	-0.23672122
56	0xbd223788	-0.03960374
57	0x3ea99fae	0.33129638
58	0xbcab9551	-0.020945223
59	0xbc6d3f1d	-0.014480379
60	0xbb985181	-0.004648388
61	0xbe97ecf5	-0.2967297
62	0xbf03801e	-0.51367366
63	0xbd8823cc	-0.06647453
64	0x3ce18913	0.027531182
65	0xbdf6b5af	-0.12046372
66	0xbe178676	-0.14797387
67	0xbc860bfb	-0.016363135
68	0xbf21cc96	-0.632028
69	0x3ed5aeeb	0.41735014
70	0xbf7d7ba8	-0.9901681
71	0x3e058c63	0.13041835
72	0xbee99759	-0.45623282
73	0xbd2ea878	-0.042641133
74	0xbabb8e68	-0.0014309408
75	0xbdeb358a	-0.11484821
76	0xbcb16ed7	-0.021659298
77	0xbf5af24a	-0.85525954
78	0xbced8fdc	-0.028999262
79	0xbe60c8dd	-0.21951623
80	0x3ccbaa4b	0.024861475
81	0x3e2e0c8b	0.16996972
82	0x3e87bc2a	0.26510745
83	0x3e5b68a8	0.21426642
84	0xbcfac6b2	-0.030612323
85	0x3ecbd89b	0.39813694
86	0x3e2a7f21	0.16650058
87	0xbe9002e9	-0.2812722
88	0x3bfcdaa2	0.0077164927
89	0x3c221206	0.009891992
90	0x3dd17bc8	0.102286875
91	0xbce7dab2	-0.028302524
92	0xbee28a0e	-0.44245952
93	0x3c309230	0.010777041
94	0xbe02ed88	-0.12785923
95	0xbf1e628c	-0.6186912
96	0xbdc19d51	-0.09453834
97	0x3ecf3b93	0.4047514
98	0xbe99839f	-0.2998323
99	0x3e12f84c	0.1435253

2.weight f4 [100, 100]
0	0xbe566ee7	-0.20940743
1	0xbdb83fca	-0.08996542
2	0xbc96ac0d	-0.018392587
3	0xbd5229c7	-0.051309373
4	0xbcdf0fba	-0.027229179
5	0x3e71d645	0.23616894
6	0x3d9afd70	0.075678706
7	0xbd00b343	-0.031420957
8	0x3e85f28e	0.26161617
9	0xbd84862f	-0.06470906
10	0x3bea0232	0.007141375
11	0x3e541339	0.20710458
12	0xbe0755b6	-0.1321629
13	0x3da3d1d5	0.07999007
14	0xbc1c3fe7	-0.00953672
15	0x3d244803	0.04010774
16	0x3cdd8aaa	0.02704366
17	0xbbf3c1b3	-0.007438862
18	0x3de6906d	0.11258016
19	0x3de1a791	0.11018289
20	0xbe05d24b	-0.13068502
21	0x3dc55649	0.09635598
22	0x3d09dd98	0.033658594
23	0xbe6f4082	-0.23364452
24	0xbd48721e	-0.048936956
25	0x3da5dcfd	0.08098791
26	0xbe25c58f	-0.16188644
27	0xbd8d678b	-0.06904515
28	0x3e0c8435	0.13722308
29	0x3eef57db	0.46746716
30	0xbd887007	-0.066619925
31	0xbd579953	-0.052636456
32	0x3d4d52fa	0.05012796
33	0xbda43f47	-0.08019882
34	0x3d530703	0.05152036
35	0xbda9af51	-0.08285392
36	0xbe491aa9	-0.19639076
37	0x3d65275b	0.055945735
38	0xbd865667	-0.06559449
39	0xbd0fa7cd	-0.035072137
40	0x3d6e3080	0.058151722
41	0xbdec74d5	-0.115457214
42	0x3cc43acd	0.02395382
43	0xbdc56f57	-0.09640377
44	0xbd2873d3	-0.041126084
45	0x3d2c168c	0.04201369
46	0x3cbd1f2d	0.023086155
47	0x3db516dd	0.088422514
48	0x3e60b79f	0.21945046
49	0x3d3d3062	0.04618872
50	0x3db36961	0.08760334
51	0x3dc604d0	0.09668887
52	0xbd875dcd	-0.06609688
53	0xbe4cf72e	-0.20016167
54	0xbd11fba5	-0.035640378
55	0xbd667a18	-0.05626878
56	0x3d1375fc	0.03600119
57	0xbe40175f	-0.18758915
58	0xbdb3bc1d	-0.08776114
59	0xbd8aaefb	-0.06771656
60	0x3d9fa97a	0.07795997
61	0x3e20d0ec	0.15704697
62	0x3db3f014	0.08786026
63	0xbe135326	-0.14387187
64	0x3e89b72b	0.2689756
65	0xbdf7a282	-0.12091543
66	0xbe718bd5	-0.23588498
67	0x3d72ea3a	0.059305407
68	0x3e780e88	0.24224293
69	0x3dcf782e	0.10130344
70	0x3e07fcc7	0.1328002
71	0x3e8cda3b	0.27510247
72	0xbe0c14df	-0.13679837
73	0xbe408568	-0.1880089
74	0x3db93efa	0.09045215
75	0xbc8e716d	-0.01738807
76	0x3b907267	0.004408169
77	0xbd37236f	-0.044711526
78	0x3cec8580	0.028872252
79	0xbc80723e	-0.015679475
80	0x3d596957	0.053078976
81	0x3eaca835	0.33722082
82	0x3dea8805	0.11451725
83	0x3e20014b	0.15625493
84	0x3dd33fed	0.10314927
85	0x3e0ed43a	0.13948146
86	0xbe6e107e	-0.23248479
87	0x3d990dc9	0.074733324
88	0xbc61351a	-0.013745571
89	0xbd73aead	-0.059492756
90	0xbd1e1b48	-0.038600236
91	0xbd3da29d	-0.04629766
92	0x3e88348e	0.26602596
93	0x3d952bc7	0.072837405
94	0x3f4ebbf3	0.8075554
95	0x3df306f7	0.11866563
96	0x3d195d83	0.037442695
97	0xbefc77e4	-0.4931022
98	0x3e439963	0.19101481
99	0xbe90418a	-0.28175002
100	0x3d5078fd	0.050896633
101	0xbca0f608	-0.019648567
102	0xbdb49063	-0.08816602
103	0x3db9e27e	0.09076403
104	0x3e2763e0	0.16346693
105	0xbdf2a6d1	-0.11848224
106	0x3ee03f4a	0.43798286
107	0xbdcf7032	-0.101288214
108	0x3e2dd07a	0.16974059
109	0xbe2364ed	-0.15956469
110	0x3dbacc7d	0.09121034
111	0x3ade4458	0.0016957624
112	0xbaa620fb	-0.0012674624
113	0x3c8a696d	0.016895974
114	0x3de6aa1c	0.112629145
115	0xbe1ef9d9	-0.15524997
116	0x3d95378e	0.07285987
117	0xbcfe470d	-0.031039739
118	0x3e065b9c	0.13120884
119	0x3e46df20	0.19421053
120	0xbea967b9	-0.33086947
121	0x3e04a065	0.1295181
122	0xbeb1c76e	-0.34722465
123	0x3e34fab0	0.17673755
124	0x3d96ba09	0.07359702
125	0xbcfee894	-0.031116761
126	0x3b480a51	0.0030523727
127	0x3eb5953d	0.35465422
128	0x3e165e9c	0.14684528
129	0xbea2d375	-0.31801954
130	0xbcc6b857	-0.024257822
131	0x3dc61386	0.096716926
132	0x3d14096e	0.036141805
133	0x3d8b869f	0.06812786
134	0xbe24be72	-0.16088274
135	0xbd5ba230	-0.05362147
136	0xbd436021	-0.047699098
137	0xbdc6551c	-0.09684202
138	0x3cfdda93	0.030988013
139	0x3ca3f77f	0.020015476
140	0x3d66dd98	0.056363672
141	0xbce98043	-0.028503543
142	0xbb2223d2	-0.002474059
143	0x3cd40980	0.025883436
144	0x3cc95727	0.02457769
145	0xbe246d4d	-0.1605732
146	0xbcf382e5	-0.029725501
147	0x3e0804bd	0.13283058
148	0x3e473719	0.19454612
149	0xbe41110c	-0.18854159
150	0xbe13c20c	-0.14429492
151	0xbd4c4c70	-0.049877584
152	0xbd1a6555	-0.037694294
153	0x3dcc094d	0.099627115
154	0x3e33605a	0.17517224
155	0xbdde27cb	-0.10847434
156	0x3d531b5f	0.051539775
157	0xbc8800ed	-0.016602004
158	0x3c846de4	0.016165681
159	0x3bb27d63	0.005447076
160	0x3dd56db1	0.104213126
161	0x3ce625b3	0.028094148
162	0x3de9bbf1	0.114128
163	0x3e1efda9	0.15526451
164	0xbdf5eb74	-0.120078
165	0xbcfe0c90	-0.03101185
166	0xbdc7a7a9	-0.097487755
167	0x3c958f6f	0.018256871
168	0xbe49159f	-0.19637154
169	0xbd796bf3	-0.060893964
170	0x3d3cdfe4	0.046111956
171	0x3d9a0120	0.07519746
172	0x3e1a2bb4	0.15055734
173	0xbd704d9d	-0.058667768
174	0xbd42f71a	-0.047598936
175	0xbcc48cbc	-0.023992889
176	0xbdb97f8b	-0.0905753
177	0x3e04fec9	0.12987818
178	0xbd219f7f	-0.039458748
179	0xbe6e9627	-0.23299466
180	0x3d7a8724	0.061164036
181	0xbd359b3b	-0.044337492
182	0xbd3e9fe6	-0.04653921
183	0xbe232026	-0.15930232
184	0xbda1fee2	-0.07909943
185	0x3bfef1e5	0.007780301
186	0x3e314480	0.17311287
187	0x3d0310d4	0.03199847
188	0x3c0be69e	0.00853887
189	0xbd8dcdd0	-0.06924021
190	0x3e96c923	0.2945033
191	0x3d7ca714	0.061682776
192	0x3d5e214e	0.05423098
193	0x3d31b58e	0.043386035
194	0xbebb8fff	-0.36633298
195	0xbc2920ad	-0.010322732
196	0x3dacff0d	0.084470846
197	0x3e4f672b	0.20254199
198	0xbd82abeb	-0.06380447
199	0x3e9b2b99	0.303067
200	0xbbd219dc	-0.006411774
201	0xbd9c3bfa	-0.07628627
202	0x3d7f9aea	0.062403597
203	0x3db402aa	0.08789571
204	0xbd7ea77d	-0.062171448
205	0xbd5626b7	-0.052283015
206	0x3d695126	0.056962155
207	0xbdc3e190	-0.09564507
208	0x3cdaefb4	0.026725627
209	0xbbf9d524	-0.0076242853
210	0xbb8149c8	-0.003945563
211	0xbdfaec29	-0.12252075
212	0xbd8557fc	-0.06510922
213	0xbd98be46	-0.07458167
214	0xbd8f2b84	-0.06990722
215	0xbd988bea	-0.074485615
216	0xbbc7d79a	-0.0060986998
217	0xbd9b0d2b	-0.07570871
218	0xbdc139c0	-0.09434843
219	0x3da8371c	0.08213636
220	0xbd15ddf8	-0.03658864
221	0xbda59eea	-0.08086951
222	0x3dc4aed8	0.09603661
223	0x3d026eef	0.031844076
224	0x3d1c27ff	0.03812408
225	0x3c2b5c5a	0.01045903
226	0xbcf0e9c1	-0.029408338
227	0x3d15191c	0.0364009
228	0x3d2fb8ec	0.042900965
229	0xbdbefc0b	-0.09325417
230	0x3cb91e83	0.022597557
231	0x3ce1e2e5	0.027574012
232	0x3db55ec0	0.08855963
233	0xbd9f851a	-0.07789059
234	0xbdd1064d	-0.1020628
235	0xbb85a1c1	-0.0040781205
236	0xbd8cb649	-0.06870706
237	0xbd64c42b	-0.055851143
238	0xbcd8ee40	-0.026480794
239	0xbd2aa3a3	-0.041659962
240	0xbd5d025d	-0.053957332
241	0xbd058c7f	-0.03260469
242	0xbd8c91a2	-0.06863715
243	0xbd75d92d	-0.060021568
244	0x3d96b225	0.07358197
245	0xbcda8ed0	-0.026679426
246	0x3da1cc45	0.079002894
247	0xbdfe048c	-0.12403211
248	0xbd1b7ae1	-0.037958983
249	0x3b1fa7d6	0.0024361513
250	0x3b81371b	0.0039433367
251	0xbcce661a	-0.02519517
252	0x3d32275d	0.04349457
253	0x3d79f554	0.06102498
254	0xbd7da1d4	-0.06192191
255	0xbc6c407a	-0.014419669

2.bias f4 [100]
0	0xbc19e03d	-0.0093918415
1	0x3e9c43e7	0.30520555
2	0xbdca5e13	-0.098812245
3	0x3f59e96d	0.85121804
4	0xbe167021	-0.14691211
5	0x3d1ae717	0.03781804
6	0x3d907336	0.07053225
7	0x3e89bad5	0.26900354
8	0x3e44e351	0.1922734
9	0xbe8fa133	-0.28052673
10	0x3eb1dc88	0.34738564
11	0x3e624727	0.22097455
12	0x39793271	0.00023765281
13	0x3e114a33	0.14188461
14	0xbf1e94f8	-0.6194606
15	0xbe0b095a	-0.13577786
16	0x3ea9144e	0.33023304
17	0x3eaa91ad	0.33314267
18	0xbbc228dc	-0.005925281
19	0x3ddd5c8c	0.108086675
20	0x3e06f5ab	0.13179652
21	0xbdf73c17	-0.12072008
22	0xbda52b0d	-0.08064852
23	0x3e1d140d	0.1533968
24	0xbdbe963a	-0.09305997
25	0xbd99f879	-0.075180955
26	0x3d05f25b	0.03270183
27	0xbf026e93	-0.5094997
28	0xbd4ec1ba	-0.05047772
29	0xbf3c71a7	-0.7361092
30	0x3e499f4e	0.19689676
31	0xbe091fac	-0.13390988
32	0xbe84b4c3	-0.2591916
33	0xbf522342	-0.8208505
34	0x3f20b35e	0.6277369
35	0x3ec2a018	0.38012767
36	0xbc60a9ec	-0.0137123875
37	0xbde14a9e	-0.1100056
38	0xbd8f1691	-0.06986726
39	0x3d5db63f	0.05412888
40	0xbdaad8ff	-0.0834217
41	0xbd414a2c	-0.047189876
42	0xbda695a8	-0.081340134
43	0x3e81bf6e	0.25341362
44	0xbe95756b	-0.29191145
45	0x3ee7638c	0.45193136
46	0xbe02c628	-0.12770903
47	0xbccc70a6	-0.024956059
48	0xbf0b241e	-0.54351985
49	0x3d37b00e	0.044845633
50	0xbf1127f4	-0.5670159
51	0xbe867d74	-0.26267588
52	0x3f5c93eb	0.86163205
53	0x3e409313	0.18806104
54	0xbd8c23d8	-0.06842774
55	0x3ed86039	0.42260912
56	0xbda90ed6	-0.08254783
57	0x3f603c5c	0.875921
58	0x3f97b555	1.1852213
59	0xbcc2524e	-0.023720887
60	0x3f61eab6	0.88248765
61	0x3ec9dc61	0.39425948
62	0x3f35078e	0.7071465
63	0x3ca7aa98	0.020467088
64	0xbe9b34ac	-0.30313623
65	0xbd49f2c7	-0.049303796
66	0xbc3df455	-0.011593898
67	0xbefd1c7d	-0.49435797
68	0xbf16ffde	-0.5898417
69	0xbe936c8c	-0.28793752
70	0xbd9b1746	-0.075727984
71	0xbebad720	-0.36492252
72	0xbf2fc8be	-0.68665683
73	0xbeff0ea1	-0.49815848
74	0xbd2ccc90	-0.042187274
75	0xbd1a2000	-0.037628174
76	0x3d549266	0.05189743
77	0x3e506139	0.20349588
78	0xbe5296be	-0.20565316
79	0x3f0356f6	0.51304567
80	0xbed8bcc9	-0.42331532
81	0xbe27ef6d	-0.16399927
82	0xbf1b4538	-0.60652494
83	0xbeb17677	-0.34660694
84	0x3e13f2dc	0.14448112
85	0x3ed85698	0.42253566
86	0xbf117286	-0.56815374
87	0x3e255ca4	0.16148621
88	0x3e0c0722	0.13674596
89	0xbf32ea7f	-0.6988906
90	0xbd2615b4	-0.04054804
91	0x3f1bf20a	0.609162
92	0xbf16a5a7	-0.58846515
93	0xbd9b1f68	-0.0757435
94	0xbed0736d	-0.40713063
95	0xbddc1d85	-0.10747818
96	0x3d3c87a5	0.0460278
97	0xbe7bb5c3	-0.24581055
98	0xbe904b6a	-0.28182536
99	0xbd355bdd	-0.04427706

4.weight f4 [100, 100]
0	0xbe297463	-0.16548304
1	0x3dd69f43	0.104795955
2	0xbdc31028	-0.09524566
3	0xbe7f5958	-0.24936426
4	0xbd10e8e6	-0.03537836
5	0xbcefad11	-0.02925733
6	0x3dfac548	0.1224466
7	0x3d0d2cd5	0.034466583
8	0xbc8c1e10	-0.017104179
9	0xbde594eb	-0.112100445
10	0xbe2b7c49	-0.1674663
11	0x3dbb7aba	0.091542676
12	0x3de109d2	0.10988201
13	0x3e37e742	0.17959312
14	0xbd84b1c0	-0.064792156
15	0x3dad2efe	0.08456229
16	0xbdf3e92f	-0.119097106
17	0xbe631c8b	-0.22178857
18	0xbe01e5f2	-0.12685373
19	0x3dcbd7f2	0.09953298
20	0x3e32e3d6	0.17469725
21	0xbecd4fb3	-0.40099868
22	0xbe3d76cb	-0.18502347
23	0x3e2b81a0	0.16748667
24	0xbca0fd0c	-0.019651912
25	0x3cccc1b5	0.02499471
26	0x3dc9b353	0.098486565
27	0xbe1a4351	-0.15064742
28	0x3d31dcfd	0.04342364
29	0x3cb36e1e	0.021903094
30	0x3e97d728	0.2965634
31	0x3d046e6f	0.03233188
32	0x3c96fcf1	0.018431159
33	0x3d831750	0.06400931
34	0x3e4d0bd3	0.20024042
35	0x3d366bc6	0.044536375
36	0x3d427190	0.047471583
37	0x3c74e853	0.014947969
38	0x3da5307e	0.0806589
39	0x3e235ec7	0.15954123
40	0x3d4d69bf	0.050149675
41	0xbd7988f1	-0.060921613
42	0x3c70fada	0.014708245
43	0x3e6a3d80	0.22875023
44	0xbeb4b634	-0.3529526
45	0xbdb49170	-0.088168025
46	0x3e2e6b4f	0.17033122
47	0x3ce97a42	0.02850068
48	0xbe21ffec	-0.15820283
49	0x3c47a5fe	0.012185572
50	0x3d8fff63	0.07031133
51	0xbdbb361d	-0.09141181
52	0x3e48fa95	0.1962684
53	0xbda683fd	-0.081306435
54	0x3bffde00	0.007808447
55	0x3e26e757	0.16299187
56	0xbed0a768	-0.4075272
57	0x3e0755c8	0.13216317
58	0x3e0a9d66	0.13536605
59	0x3dfa6a56	0.12227313
60	0x3ec93e7b	0.3930548
61	0x3d31c7b6	0.04340335
62	0x3cf59379	0.029977547
63	0x3e83f179	0.25770167
64	0xbe06fa04	-0.13181311
65	0x3e3deabd	0.18546577
66	0xbc6481ae	-0.013946934
67	0xbe161576	-0.14656624
68	0xbe1c2559	-0.15248622
69	0xbe211644	-0.1573115
70	0x3ccac7b9	0.024753438
71	0x3d3c2360	0.045932174
72	0x3e1857c9	0.14877237
73	0xbe4c0649	-0.19924273
74	0xbdb84790	-0.089980245
75	0x3ca0c860	0.019626796
76	0xbe7b987b	-0.24569885
77	0xbd3aed28	-0.045636326
78	0x3dcb4bb2	0.09926547
79	0x3b082b6e	0.002077784
80	0x3daec5e0	0.085338354
81	0xbd81baae	-0.063344344
82	0x3e41569e	0.18880698
83	0xbd8d91ab	-0.069125496
84	0xbdbc6677	-0.09199231
85	0x3df5bd3f	0.119989865
86	0xbdf2be57	-0.11852711
87	0x3dbe5ba5	0.092948236
88	0x3ea7efe4	0.3280021
89	0xbd9b82cf	-0.07593309
90	0xbe225545	-0.1585284
91	0x3e9be0e4	0.30445015
92	0x3d924888	0.071427405
93	0xbd95184f	-0.07280027
94	0xbe6cc1b1	-0.23120762
95	0x3d6f1943	0.0583737
96	0x3a869a81	0.0010269434
97	0xbe34602c	-0.17614812
98	0xbec7da2a	-0.39033633
99	0x3db34a38	0.087543905
100	0xbe9b1a52	-0.30293518
101	0x3e3eb9f7	0.18625627
102	0xbd1e278e	-0.03861194
103	0xbcf5a922	-0.029987875
104	0xbdcc90a8	-0.099885285
105	0xbcdf0cb1	-0.027227731
106	0xbedaddf8	-0.42747474
107	0xbd438f5c	-0.04774414
108	0xbdd838b6	-0.10557692
109	0x3e279fb9	0.16369523
110	0xbe8c0fef	-0.27355906
111	0x3e258046	0.16162214
112	0x3e5f91de	0.21832988
113	0xbb06b218	-0.002055293
114	0xbdf5f740	-0.1201005
115	0x3d4eadbe	0.050458662
116	0x3dbae55e	0.091257796
117	0x3e2c9a5b	0.16855757
118	0x3e2ab031	0.16668774
119	0xbe0967ae	-0.13418457
120	0xbdacca7e	-0.0843706
121	0xbdb30a35	-0.08742181
122	0x3ce5f6e3	0.028071826
123	0x3e7eba3e	0.24875733
124	0xbed6b99b	-0.4193848
125	0xbc91e067	-0.017807199
126	0x3d677f7f	0.056518074
127	0xbd25ec55	-0.040508587
128	0xbc4f6ca9	-0.012660184
129	0x3e7e3c1f	0.24827622
130	0x3ea334ee	0.3187632
131	0xbda97e46	-0.08276038
132	0x3e485211	0.19562556
133	0x3dbb55b0	0.09147203
134	0xbdb5c324	-0.08875111
135	0xbe531dd6	-0.2061685
136	0xbe1376f0	-0.1440084
137	0xbb37232d	-0.002794455
138	0x3dbbf2db	0.091771804
139	0xbcc5750c	-0.024103664
140	0xbc1b484f	-0.009477689
141	0x3db3803e	0.08764695
142	0xbdcbc3e9	-0.09949476
143	0xbdba5b45	-0.090994395
144	0xbdb10199	-0.08642883
145	0x3dec32a8	0.115330994
146	0xbe9bba93	-0.30415782
147	0xbd427d2d	-0.04748266
148	0x3e23053c	0.15919966
149	0xb92a1b00	-0.00016222522
150	0x3d9e37d3	0.077254914
151	0x3c8a2c76	0.016866904
152	0x3c5c5186	0.013447171
153	0x3e40a66a	0.18813482
154	0xbd36b30a	-0.04460434
155	0xbe0c79af	-0.13718294
156	0xbedcb4da	-0.4310673
157	0x3e1af80a	0.15133682
158	0x3cf86cc9	0.03032531
159	0x3e603c0e	0.21897909
160	0x3e1e1eb4	0.154414
161	0x3e1283f0	0.14308143
162	0xbceaf7df	-0.028682647
163	0x3e5c8880	0.21536446
164	0xbdd7d6c6	-0.10539012
165	0x3e132c8d	0.14372464
166	0xbcf86b6b	-0.030324658
167	0xbd50b3e0	-0.050952792
168	0x3c5c2173	0.013435709
169	0xbd19e0d8	-0.037567943
170	0xbd1b5e12	-0.03793151
171	0xbdbd31fe	-0.09238051
172	0x3e0751a2	0.13214734
173	0xbd8cdcd5	-0.06878058
174	0xbbbc4b4d	-0.0057462812
175	0xbc19c736	-0.0093858745
176	0x3e38df4a	0.18053928
177	0xbd6cb876	-0.057793103
178	0x3db062be	0.086125836
179	0xbcad1f3f	-0.021133063
180	0xbb6bed63	-0.0035999648
181	0x3e8e81a1	0.27833274
182	0x3d015992	0.03157956
183	0xbced6b8b	-0.028981945
184	0xbeb5f472	-0.3553806
185	0x3e07a7a2	0.1324754
186	0x3e0e65ad	0.13905974
187	0xbdf6827c	-0.12036607
188	0xbe9f9647	-0.3116934
189	0x3e376d5c	0.17912811
190	0xbe210bc9	-0.15727152
191	0x3eb6bfd7	0.35693237
192	0x3e3f10f5	0.18658812
193	0x3cbc0971	0.02295372
194	0xbb82a802	-0.0039873132
195	0xbdd97737	-0.106184416
196	0x3e898b52	0.26864105
197	0xbd97b2f9	-0.07407183
198	0xbd3c9bcd	-0.04604702
199	0x3e2f2392	0.17103413
200	0x3d140470	0.036137044
201	0xbbc5b3d8	-0.006033402
202	0xb8905333	-6.881952e-05
203	0xbdd06c1b	-0.101768695
204	0xbd030ea8	-0.0319964
205	0xbdb754ab	-0.08951696
206	0xbd8a6d37	-0.06759112
207	0xbd686123	-0.05673326
208	0xbdb8e143	-0.0902734
209	0xbdca6192	-0.09881891
210	0x3d03f8bd	0.032219637
211	0xbdb7c3ad	-0.08972869
212	0x3ca50cc8	0.020147696
213	0xbd6a5f37	-0.05721971
214	0xbcc2392f	-0.023708908
215	0xbe01e9b7	-0.12686811
216	0xbde8c920	-0.113664865
217	0xbddba04f	-0.10723936
218	0x3d183787	0.03716233
219	0xbdfdefe1	-0.12399269
220	0xbd917202	-0.071018234
221	0xbd96e2fc	-0.073675126
222	0x3cecb5c4	0.028895266
223	0x39986169	0.00029064275
224	0xbdd90f9c	-0.105986804
225	0xbcf5e520	-0.030016482
226	0xbd273823	-0.04082502
227	0xbdb383e3	-0.0876539
228	0x3d98498d	0.07435904
229	0xbbf30fca	-0.0074176537
230	0xbdf2c1e5	-0.11853389
231	0x3d8c40aa	0.06848271
232	0x3d8c9211	0.068637975
233	0x3ca867b2	0.020557258
234	0x3d714ecc	0.058913037
235	0xbbb85291	-0.005625077
236	0x3c52f799	0.012876415
237	0xbdbdcbe3	-0.09267404
238	0xbd8e96ad	-0.06962333
239	0xbb2b5d3c	-0.0026148101
240	0x3d00799a	0.03136597
241	0xbdb2fd3f	-0.08739709
242	0x3dc98015	0.09838883
243	0xbce3f1ee	-0.027825322
244	0xbda2dc3b	-0.07952162
245	0xbd8dc563	-0.06922414
246	0xbd9fcfa0	-0.07803273
247	0x3c147173	0.0090602515
248	0xbd1873aa	-0.03721968
249	0x3d9f26cd	0.077710725
250	0xbd07f074	-0.0331883
251	0xbc9ffb2c	-0.019528948
252	0xbde96e3a	-0.11397977
253	0xbdcb83b4	-0.0993723
254	0x3da7b618	0.081890285
255	0xbdc383f8	-0.095466554

4.bias f4 [100]
0	0x3ebde936	0.37091988
1	0xbe0d31ef	-0.1378858
2	0xbd827b98	-0.0637123
3	0x3bbac30a	0.00569952
4	0x3f0a109c	0.53931594
5	0x3e830811	0.25592092
6	0x3dbf7939	0.09349293
7	0x3cff6dac	0.031180225
8	0xbe18dc60	-0.14927816
9	0x3ea35d74	0.31907237
10	0x3d667b0e	0.056269698
11	0x3b2d8d45	0.0026481908
12	0xbdae97d8	-0.08525056
13	0xbeaa6306	-0.33278674
14	0xbe96b31e	-0.2943353
15	0x3f1736c3	0.59067935
16	0xbe9a23cd	-0.3010544
17	0x3d7a0621	0.061041
18	0xbd3033af	-0.04301804
19	0x3e64dbcb	0.2234947
20	0x3ee43e95	0.44578996
21	0x3ea88c6e	0.3291964
22	0xbd8f492c	-0.06996378
23	0xbdb2241c	-0.086982936
24	0xbdb6aee9	-0.0892008
25	0x3f2be19a	0.67141116
26	0x3e43d74a	0.19125095
27	0xbd73708d	-0.05943351
28	0x3cc9a9b4	0.024617054
29	0xbf07fef8	-0.53123426
30	0x3ded8f25	0.11599568
31	0xbf0c52f6	-0.5481409
32	0x3e5cd11f	0.21564148
33	0x3e1b153d	0.1514482
34	0x3d30dc38	0.043178767
35	0xbec41251	-0.38295224
36	0xbeb1a508	-0.3469622
37	0x3ef75995	0.48310533
38	0x3fb16111	1.3857747
39	0xbebc0792	-0.36724526
40	0xbe239d20	-0.15977907
41	0xbcb07f09	-0.02154495
42	0x3e5e9bd3	0.2173913
43	0x3e9e4c66	0.30917662
44	0x3d2cbf9a	0.042174913
45	0x3e244692	0.16042545
46	0x3e05fa30	0.1308372
47	0xbd9beedd	-0.07613919
48	0x3f24b4f9	0.6433864
49	0xbe12b4e9	-0.14326824
50	0xbebda981	-0.37043384
51	0xbee8f1db	-0.4549702
52	0x3e2787d8	0.16360414
53	0xbe3ad401	-0.18244936
54	0xbe4d619d	-0.20056768
55	0x3e863868	0.2621491
56	0x3cae5cb6	0.021284442
57	0xbe6395bf	-0.22225092
58	0xbb19f6bf	-0.002349302
59	0xbdfb9008	-0.12283331
60	0x3d22bf4b	0.039733212
61	0x3e8bff0a	0.27343017
62	0x3d4aa724	0.049475804
63	0xbc8429b8	-0.016133174
64	0xbed38f60	-0.41320324
65	0xbeeb8bf9	-0.46005228
66	0x3d9c33cd	0.07627068
67	0xbce6f505	-0.028193006
68	0xbd6e1976	-0.05812975
69	0xbca3d462	-0.019998733
70	0x3ea17c53	0.31540164
71	0x3f25e0dc	0.64796233
72	0xbe9fb77f	-0.31194684
73	0x3cd4024a	0.025879998
74	0xbda68cc9	-0.081323214
75	0x3db30570	0.087412715
76	0xbd64026f	-0.055666383
77	0xbd1047d1	-0.03522474
78	0xbe32910e	-0.17438146
79	0x3e4952a9	0.19660439
80	0x3e92579b	0.28582463
81	0xbe1d7e58	-0.15380228
82	0xbea8033a	-0.32814962
83	0xbf27b5c3	-0.6551172
84	0x3df0f60d	0.117656805
85	0x3cc04fa8	0.023475483
86	0xbe3b0af2	-0.18265894
87	0xbce6d5ee	-0.028178181
88	0x3de99d7c	0.11406991
89	0x3d7ff65d	0.06249081
90	0xbdc2b9c6	-0.0950809
91	0x3eea9cd8	0.45822787
92	0x3edff372	0.43740422
93	0xbde0d70c	-0.10978517
94	0x3ebdc135	0.37061468
95	0x3f292306	0.66069067
96	0x3e5e2d26	0.2169691
97	0x3e48d611	0.1961291
98	0xbeda29d0	-0.42610025
99	0xbe4a26b4	-0.19741327

6.weight f4 [157, 100]
0	0xbe44ee0d	-0.19231434
1	0x3c9d42a6	0.01919682
2	0x3b97d072	0.004633003
3	0x3d69d9da	0.057092525
4	0xbd74e36c	-0.0597872
5	0xbddfa581	-0.10920239
6	0x3e47a912	0.19498089
7	0xbd1c71b0	-0.03819436
8	0x3d91ce92	0.07119478
9	0xbe404c31	-0.18779065
10	0xbdb7ad42	-0.08968593
11	0x3b740a91	0.0037237743
12	0xbdb3c090	-0.08776963
13	0x3c70f0f6	0.014705887
14	0xbdf4e306	-0.11957364
15	0x3de659e5	0.11247615
16	0xbe9b8743	-0.30376634
17	0x3d2d479a	0.042304613
18	0xbe37f9b2	-0.17966345
19	0xbcb1818b	-0.021668216
20	0x3e32d4be	0.17463967
21	0xbed45221	-0.4146891
22	0xbf1db625	-0.61606055
23	0xbe40658b	-0.18788736
24	0xbc18206c	-0.009285074
25	0xbdfbafd7	-0.12289398
26	0x3beda927	0.0072528305
27	0x3c4e5d71	0.01259552
28	0x3ccb1a5d	0.024792844
29	0xbd079f3f	-0.033110853
30	0x3d5959d2	0.053064175
31	0x3dd88ee6	0.10574131
32	0xbc06e1fc	-0.00823259
33	0x3c0d31c8	0.008617826
34	0xbdc69b05	-0.096975364
35	0x3e7f1d34	0.24913484
36	0x3e0b3f42	0.1359835
37	0xbe9a0cc4	-0.30087864
38	0xbdd7b371	-0.105322726
39	0x3d8b20fb	0.067934
40	0xbe21af04	-0.1578942
41	0x3d202dec	0.039106295
42	0x3e3ef6a7	0.18648778
43	0xbe419b35	-0.18906863
44	0x3e9dee85	0.30846038
45	0xbe47fae8	-0.19529307
46	0xbe9c076e	-0.30474418
47	0x3d818983	0.063250564
48	0xbecead99	-0.4036682
49	0xbda7fe89	-0.082028456
50	0x3d5f5b7e	0.054530613
51	0x3cbcfd9a	0.023070145
52	0xbe855f12	-0.26049095
53	0x3d9a2288	0.075261176
54	0xbd926f7c	-0.0715017
55	0xbe804395	-0.2505156
56	0xbd112d20	-0.035443425
57	0xbe96c612	-0.2944799
58	0x3dde9810	0.10868847
59	0x3d721f52	0.0591119
60	0xbcc5b074	-0.024131991
61	0xbc0b77bc	-0.008512434
62	0xbbb69f22	-0.0055731693
63	0x3da9947a	0.08280273
64	0xbc93270b	-0.017962953
65	0xbd866b31	-0.06563414
66	0xbd8f8819	-0.070083804
67	0x3d81ca6e	0.063374385
68	0xbda8e528	-0.08246833
69	0x3d86bebc	0.065793484
70	0x3e7a41f8	0.24439228
71	0x3e3e4dfb	0.18584435
72	0xbe090baa	-0.13383356
73	0x3e16bf4b	0.1472141
74	0xbd10a8aa	-0.0353171
75	0x3e399751	0.18124129
76	0x3dce79dd	0.10081837
77	0xbd7a8dc6	-0.061170362
78	0x3b906102	0.0044060955
79	0xbe387087	-0.18011676
80	0x3d869855	0.06572024
81	0xbd9f2d80	-0.0777235
82	0x3ca47f34	0.020080186
83	0x3d9bbcd2	0.07604374
84	0x3c733248	0.014843531
85	0x3de848c3	0.11342003
86	0xbd96d069	-0.0736397
87	0xbd176785	-0.03696396
88	0xbd6a45ae	-0.057195358
89	0xbe1b858d	-0.15187664
90	0x3d34f5f3	0.044179868
91	0xbe7a1056	-0.24420294
92	0x3e0bfd3b	0.13670819
93	0xbaa74318	-0.0012761084
94	0xbe258271	-0.1616304
95	0x3c9b4de8	0.018958047
96	0x3d75ea8f	0.060038146
97	0x3e19cb29	0.15018906
98	0xbe3af39c	-0.18256992
99	0x3e41c16d	0.18921442
100	0xbd4e124c	-0.050310418
101	0x3e178d7a	0.14800063
102	0x3c8bad6f	0.017050473
103	0xbd3b3df1	-0.04571337
104	0x3e4aae35	0.19793017
105	0xbe3fe66b	-0.18740241
106	0xbe31e4fa	-0.17372504
107	0xbd2eb9b2	-0.04265756
108	0x3db6bcfa	0.08922763
109	0x3e5f74f2	0.21821955
110	0xbda3f917	-0.080064945
111	0xbd17073c	-0.036872134
112	0xbdc62805	-0.09675602
113	0xbeb8ed2c	-0.36118448
114	0xbd076716	-0.033057295
115	0xbd7407da	-0.0595778
116	0x3e3408fd	0.17581554
117	0xbf23d043	-0.6398966
118	0x3eb1d8d9	0.34735754
119	0x3ac54ab6	0.0015052173
120	0x3df33146	0.118746325
121	0x3c8686f2	0.016421769
122	0x3e2dec80	0.16984749
123	0xbdb52b7a	-0.08846183
124	0x3da3d833	0.08000221
125	0xbf7aa2d3	-0.979047
126	0xbe99853c	-0.29984462
127	0xbaca9afe	-0.0015457568
128	0x3e16a4c8	0.14711297
129	0xbe59aef4	-0.21258146
130	0xbd9b87ba	-0.07594247
131	0xbe162c01	-0.14665224
132	0xbb0d09bc	-0.0021520695
133	0xbd1b536d	-0.037921358
134	0xbeeca3be	-0.46218675
135	0xbea333d5	-0.31875482
136	0x3e869a61	0.26289657
137	0xbe2ed638	-0.17073905
138	0x3c2e5ef9	0.01064276
139	0xbf09eef9	-0.5388027
140	0xbe5d9e4a	-0.21642414
141	0xbd71b952	-0.059014626
142	0xbe718629	-0.23586334
143	0x3dcdf6ad	0.10056815
144	0x3d91f5c2	0.07126953
145	0x3e22ba9e	0.15891501
146	0xbdd1bb00	-0.102407455
147	0x3d0049de	0.031320445
148	0x3c8e58b0	0.017376274
149	0x3cd39c62	0.025831405
150	0xbdc03766	-0.093855664
151	0x3e1973d8	0.14985597
152	0xbe44b59a	-0.192099
153	0xbeb02431	-0.34402612
154	0x3e47639b	0.1947159
155	0xbddb1131	-0.106966384
156	0x3c5bd5b9	0.013417655
157	0x3d472656	0.048620544
158	0xbc927276	-0.017876845
159	0x3d088592	0.033330508
160	0x3e568b20	0.2095151
161	0x3defadf8	0.11703104
162	0xbd2efb5f	-0.042720195
163	0xbd3fdf6c	-0.04684393
164	0x3e9225d8	0.28544497
165	0xbe7c65f4	-0.24648267
166	0x3c92adb3	0.017905092
167	0x3df819cd	0.12114296
168	0xbdac8f00	-0.084257126
169	0xbe083964	-0.13303143
170	0xbe2f26ec	-0.17104691
171	0x3e4515ff	0.19246672
172	0xbe36b5be	-0.17842767
173	0xbe0113ef	-0.1260526
174	0x3ea06e72	0.31334263
175	0xbf2b1246	-0.6682476
176	0x3e2f825f	0.17139576
177	0x3e360760	0.17776251
178	0x3d4aec4c	0.049541757
179	0xbcc156ac	-0.023600899
180	0xbe4f0ba2	-0.20219281
181	0x3e1a5a3f	0.15073489
182	0x3d1b412e	0.037903957
183	0xbc3d6598	-0.011559866
184	0xbe76e574	-0.24110967
185	0xbcf37ee7	-0.029723598
186	0xbec0890c	-0.37604558
187	0xbb704dfc	-0.0036667576
188	0x3e36754d	0.17818184
189	0xbd6e02d9	-0.058108184
190	0xbd6799a5	-0.05654301
191	0x3d4d0737	0.05005571
192	0x3d5cf9b9	0.05394909
193	0xbe0cb65a	-0.13741437
194	0xbde5c592	-0.11219324
195	0x3e2e20c9	0.17004694
196	0x3d884a62	0.066548124
197	0x3d12423b	0.035707694
198	0x3b83c18c	0.0040208753
199	0xbccace50	-0.02475658
200	0xbeb875e8	-0.36027455
201	0x3d94c006	0.07263188
202	0xbda6d693	-0.081463955
203	0xbdde431b	-0.10852643
204	0xbef033ae	-0.46914428
205	0x3dad1daa	0.084529236
206	0x3d1fc7ae	0.03900879
207	0x3d2f5996	0.042810045
208	0x3e26045f	0.16212605
209	0xbe27df98	-0.16393888
210	0x3d67c6bc	0.056586012
211	0x3d321452	0.04347641
212	0x3d5d7b24	0.054072514
213	0xbe89e8ff	-0.26935574
214	0xbc0eaf21	-0.008708746
215	0x3da28db7	0.07937186
216	0x3e138217	0.14405094
217	0x3db8f1d2	0.090304986
218	0x3dcb0928	0.09913856
219	0x3d83c528	0.06434089
220	0x3c71afa2	0.014751347
221	0x3e08c613	0.1335681
222	0x3dfa4c66	0.12221603
223	0xbddb9f2a	-0.107237175
224	0x3dce966a	0.10087283
225	0x3dba720a	0.091037825
226	0x3e188bbe	0.14897057
227	0x3e39b328	0.18134749
228	0xbe4e84f9	-0.20167913
229	0xbd9504d5	-0.07276312
230	0xbe13f642	-0.14449409
231	0xbc4490e8	-0.011997439
232	0x3e29d7a8	0.16586173
233	0xbeca4ed7	-0.39513275
234	0xbc80df2b	-0.015731415
235	0x3db80304	0.0898495
236	0xbcf03953	-0.02932421
237	0x3e9dfa34	0.30854952
238	0xbe01e51c	-0.12685055
239	0x3d1e8e2c	0.038709804
240	0x3d33e556	0.043919884
241	0xbd25c290	-0.040468752
242	0x3e28770c	0.16451663
243	0x3c1b9a42	0.009497227
244	0x3e8a036d	0.2695574
245	0xbd8dec46	-0.06929831
246	0xbc90b03d	-0.017662162
247	0xbc7dc376	-0.015488496
248	0x3df70afa	0.120626405
249	0xbe29aa23	-0.16568808
250	0xbe30320a	-0.17206588
251	0x3db35003	0.087554954
252	0x3d252e38	0.04032728
253	0x3c624a40	0.013811648
254	0xbe989665	-0.29802242
255	0xbdc9abc2	-0.09847213

6.bias f4 [157]
0	0x3df6a5c5	0.12043337
1	0xbd9c2ed9	-0.07626123
2	0x3e864aae	0.2622885
3	0xbf09af86	-0.5378345
4	0xbdeed431	-0.11661566
5	0xbebcb310	-0.36855364
6	0xbd92595c	-0.0714595
7	0xbd9f4cf0	-0.077783465
8	0xbd903bbd	-0.07042644
9	0x3e2097bb	0.1568288
10	0xbe9817f3	-0.29705772
11	0x3d345b15	0.044032175
12	0xbc957344	-0.01824344
13	0xbf1baedb	-0.60813683
14	0xbf29ce36	-0.6633028
15	0xbe0fe27b	-0.14051239
16	0x3d612834	0.05496998
17	0x3e9c4e3d	0.3052844
18	0x3c3c1a0f	0.011480822
19	0x3eae6d4c	0.34067762
20	0x3e0a5884	0.13510329
21	0x3d475209	0.04866222
22	0xbe80539c	-0.2506379
23	0x3f1cb1a9	0.6120859
24	0xbe8e4c98	-0.2779281
25	0x3e48b00d	0.19598408
26	0xbcb505a8	-0.022097424
27	0x3f0c3eaf	0.5478315
28	0xbeedaeca	-0.46422416
29	0x3e65bbdf	0.22434948
30	0xbe4d0c47	-0.20024215
31	0xbdacda09	-0.084400244
32	0xbeef6ce5	-0.46762767
33	0x3d8d1ae8	0.068898976
34	0x3e78c4a6	0.24293765
35	0x3e255c0c	0.16148394
36	0x3dd5908b	0.1042796
37	0x3f13ff70	0.5781164
38	0x3e7405cb	0.23830335
39	0x3db636d2	0.08897175
40	0xbed959a3	-0.424512
41	0xbd89ca61	-0.06728054
42	0x3ec689e6	0.38777083
43	0x3e0ac94f	0.13553356
44	0x3dddf3a3	0.10837486
45	0x3ed5eed8	0.41783786
46	0x3efa2712	0.48857933
47	0x3f137084	0.5759356
48	0x3e7a43fd	0.24439998
49	0xbede0853	-0.43365726
50	0xbd9b4e96	-0.075833485
51	0x3e110c80	0.14164925
52	0xbe80b630	-0.25138998
53	0xbe94dd4d	-0.2907509
54	0x3dce4109	0.10070998
55	0x3df019c3	0.11723664
56	0xbeddeb6d	-0.43343678
57	0xbe00b8fa	-0.12570563
58	0x3e8d497a	0.2759512
59	0xbed9e3c0	-0.42556572
60	0xbe42af69	-0.19012226
61	0x3e873aa1	0.26411918
62	0x3f12b351	0.57304865
63	0x3df800a7	0.121094994
64	0xbdea393b	-0.11436697
65	0xbd66a59d	-0.056310285
66	0x3e704996	0.23465571
67	0xbe8ab09d	-0.2708787
68	0xbea66979	-0.32502344
69	0xbe6eea68	-0.23331606
70	0x3dbeb2a2	0.09311415
71	0x3cfc18e2	0.030773584
72	0x3eac34b8	0.3363397
73	0xbd9a798f	-0.07542717
74	0xbe92a88f	-0.28644225
75	0x3c7228ad	0.014780206
76	0x3cc78d82	0.024359468
77	0xbe44d060	-0.19220114
78	0xbf090782	-0.5352708
79	0x3e1e191e	0.15439269
80	0xbdf4a978	-0.11946386
81	0xb928dbff	-0.00016103683
82	0xbd26808a	-0.04064993
83	0x3e3e66c8	0.18593895
84	0x3e6818b8	0.2266568
85	0x3ec1b68a	0.3783458
86	0xbe633063	-0.22186427
87	0x3f2680b5	0.6504014
88	0x3ed42585	0.41434875
89	0xbea034f0	-0.31290388
90	0xbf114c58	-0.56757116
91	0x3f09c8d6	0.53822076
92	0xbdeb1e21	-0.11480356
93	0x3efbc674	0.49174845
94	0x3d29a162	0.041413672
95	0xbf044962	-0.51674473
96	0x3bae7baf	0.005324803
97	0xbeb1a77a	-0.34698087
98	0xbeb83aef	-0.35982463
99	0xbc87616c	-0.016525947
100	0x3e94a794	0.29034102
101	0x3e87a79d	0.26495066
102	0xbc7963ba	-0.015221531
103	0x3e968c55	0.2940394
104	0x3d8ca5d7	0.06867569
105	0x3dac1314	0.08402076
106	0x3e79610a	0.24353424
107	0x3d69f89b	0.057121854
108	0xbe02f197	-0.12787472
109	0x3d0a4b0c	0.033762977
110	0xbe5af83a	-0.21383753
111	0xbe86af1d	-0.26305476
112	0x3b085731	0.0020803923
113	0xbd072138	-0.032990664
114	0x3e449921	0.19199039
115	0xbec3a403	-0.3821107
116	0xbcf134fa	-0.029444207
117	0xbe700ab8	-0.23441589
118	0x3de548b5	0.111955084
119	0xbdd87b02	-0.10570337
120	0x3e60df6e	0.21960232
121	0x3f2533c9	0.6453214
122	0xbd8ae509	-0.06781966
123	0xbe8a2350	-0.26980066
124	0x3e859d16	0.2609641
125	0xbe9b26ab	-0.3030294
126	0xbe72afe4	-0.2369991
127	0x3eaf3942	0.34223372
128	0x3f0d04cf	0.5508546
129	0xbe31c694	-0.17360908
130	0x3d5da452	0.054111786
131	0x3d1be492	0.03805978
132	0xbe80c66b	-0.2515138
133	0xbd3d65ca	-0.04623965
134	0xbe817d2c	-0.2529081
135	0xbcc7c747	-0.024387015
136	0x3e33f77d	0.17574878
137	0xbeacbda6	-0.3373844
138	0x3d2010eb	0.039078634
139	0x3e332e7b	0.174982
140	0x3f4664a3	0.7749731
141	0xbe121d90	-0.1426909
142	0xbef2e2df	-0.47438714
143	0xbdd1079c	-0.102065295
144	0xbe083d3c	-0.13304609
145	0x3d089ec4	0.033354536
146	0xbf4232a3	-0.75858516
147	0x3d037a20	0.03209889
148	0x3d1fa3dd	0.03897463
149	0x3e36aae9	0.17838635
150	0xbe3af7af	-0.18258546
151	0xbf107b65	-0.56438285
152	0xbead24bc	-0.3381709
153	0xbe45ac77	-0.19304071
154	0x3d4e5930	0.050378025
155	0x3d43d63c	0.04781173
156	0x3e36bc64	0.17845303
