neura1/bestval_e12_weights.ckpt (torch, 399055 bytes, 8 tensors)

0.weight f4 [100, 630]
00000000: 9354 723c bf38 813c 2c4c 973b 0277 b7be
00000010: bd77 23be 5ab1 36be 9253 a4be 1bec 84bd
00000020: 1f54 acbe f2be f7be 5687 eebe d241 57bb
00000030: c00e 663d b237 ea3e 3715 8cbc 5556 64bd
00000040: bc8c 643e 65e2 c23e 9861 09be 651b 0c3e
00000050: db63 5a3e 79cc c13e f9ca f8bd e5c2 603d
00000060: f3f1 8a3e 12dd eb3e 67f2 043d 39dd 0f3c
00000070: 65c7 8e3d 99c5 aebe 89cb 4d3b ca86 31bd
00000080: 000d 4d3d a33a e4bd eaea 0cbe 3ec6 70bd
00000090: 7665 21be 5517 b5bc 4111 20be 2a20 9bbe
000000a0: f7e1 96be 5428 9ebd 2cdc 12bd c76e 3f3e
000000b0: 63cf bebc 1337 95bd 363f 9b3d 2441 783e
000000c0: 2b08 22be 3a3e 943d 9cd3 7e3d 0422 903e
000000d0: 0d03 30be e86f fd3b 59b6 2f3e 3740 b53e
000000e0: a03e 85bd 1580 18bd f5e3 fa3c 3311 bfbe
000000f0: d45b 413c d84f 42bc 0dc9 2b3c 3ab0 fbbd
00000100: 4ef5 16be 65c2 2bbd 56db 17be 8d07 fd3c
00000110: 6b3c 3dbe c307 8cbe ff37 6abe 80b3 c1bd
00000120: bc8e b6bb aef8 813e d9b6 463d 906e 1d3b
00000130: 1c59 843d 693d 873e 711a c1bd 8a8f 0a3e
00000140: bb89 893d e0f2 943e d6b8 f7bd 1e52 983c
00000150: 3c1b 5f3e c9b6 a93e 98dc c7bd baa2 a8bd
00000160: c758 02ba a8bf a2be 4f3d 97bc d4f0 b3bd
00000170: 06db 0d3c f47b a2bd 4abe bfbd e3bb 26bd
00000180: b6bd 0dbe 8274 f8bc deb0 33be c4bb 8bbe
00000190: 6256 5fbe 865c 9cbd 71f1 2cbc 0f36 9e3e
000001a0: b9f2 533d 7207 f73c 2288 a33d 71e4 743e
000001b0: 94d8 cdbd 79b5 d73d 8b2b da3d 9655 973e
000001c0: 0d8a 1ebe fc3e 543d c2af 233e 4ca4 8c3e
000001d0: b1b9 b2bd 3229 89bd ea84 d5bc 8ba5 b9be
000001e0: fd55 afbc 381f a3bd 7746 863c 2f33 9cbd
000001f0: b780 bcbd b06c 5dbd 3549 1ebe 5155 82bc
00000200: 4e45 36be 632b 95be 1e2d 79be 76a9 3ebd
00000210: d4a9 163d a3fa a43e 3d49 203d e17f 9c3b
00000220: a507 cc3d f514 913e 94e9 94bd b5e1 133e
00000230: 2c8d 033e b2a8 9f3e 4672 f9bd 3f76 e13d
00000240: 516b 033e 6d80 943e 91e2 f5bd 1022 17bd
00000250: 1204 283d b6d3 bbbe cd43 013d 7b70 95bd
00000260: b2b7 743c 3a9e e8bd b700 83bd 7041 78bd
00000270: 7df6 22be c4c2 70bd 0feb 1abe ccc1 97be
00000280: 52b5 59be bfcc c4bc 7833 893d 014d 9d3e
00000290: 651c 7c3d 3c1b 253d 54e7 af3d 42b7 9e3e
000002a0: 2c52 f2bd 6348 5f3e 7895 003e fb9d 773e
000002b0: e737 c8bd 87eb 18bc ae65 543e 3148 943e
000002c0: 4aa7 14be d008 c0bd 255b 2c3d 88ab a8be
000002d0: 8843 2c3d 90ed 8cbd ddb4 373d b3a8 dfbd
000002e0: a28d 04bc ac7b 7b3c 3e28 01be c1f2 9fbc
000002f0: 554d 4dbe e78e a9be 6784 6abe 1530 92bc
00000300: 0c44 263d f29c a83e c225 7a3d 6cb6 1f3d
00000310: ef5d 103e 02b7 853e 24f8 ccbd d9be 6d3e
00000320: 99e6 343e f754 963e 2480 febd e369 af3c
00000330: 6920 533e 88fe 963e ce8a cdbd 6a6f fdbc
00000340: 2266 c93b 9e0e b4be 6410 8e3b ed63 1bbd
00000350: 6304 0b3c a1cf b0bd 7b7d 8bbd d128 00bd
00000360: 2526 2abe 5777 bbbd 4490 30be 5bc1 a8be
00000370: 6a80 60be adcc 3bbc 3777 4d3d e61c bd3e
00000380: eb5e 853d e775 a53d 3ba9 f23d 2474 bd3e
00000390: 9226 cebd 1f5e 553e 1bbe 1d3e 424f 8f3e
000003a0: a492 c0bd 4278 053e 75df 283e 957a b03e
000003b0: febc e2bd a002 b2bd 8df8 02bd d3c7 90be
000003c0: bdfa b33c ff41 7fbd 5a04 893c df12 e9bd
000003d0: 2dff 07bd 0c3e cfbc 4e8b ffbd 810c b0bd
000003e0: e7a3 4dbe 7c95 9dbe 6926 5ebe b29c 193d
000003f0: d199 8f3d 4019 a53e 0d71 153e 0d3b 913d
0.014790672 0.015774129 0.0046172347 -0.35832983 -0.15963645 -0.17841092 -0.3209501 -0.06490346
-0.3365793 -0.48387867 -0.46587628 -0.0032845628 0.05616641 0.45745617 -0.01709996 -0.055746395
0.22319311 0.3806335 -0.13416135 0.13682325 0.21327154 0.37851313 -0.12148089 0.054873366
0.27137718 0.460671 0.032457735 0.008780771 0.06971625 -0.3413513 0.0031401834 -0.043341435
0.050061226 -0.111439966 -0.13761488 -0.05878281 -0.1576136 -0.022105852 -0.15631582 -0.30297977
-0.29469272 -0.07722536 -0.035854504 0.18694602 -0.023292249 -0.07285895 0.07580416 0.24243599
-0.15823428 0.07238431 0.062213525 0.28150952 -0.17188664 0.0077342875 0.17159404 0.35400555
-0.065060854 -0.037231524 0.030626277 -0.3731781 0.011801679 -0.011859857 0.010484946 -0.12289472
-0.14742014 -0.041933436 -0.14829764 0.03088739 -0.18480079 -0.27349672 -0.22872923 -0.09458065
-0.0055712145 0.2538504 0.04851422 0.00240222 0.06462309 0.2641404 -0.094288714 0.13531318
0.06715723 0.2909155 -0.120958015 0.018593844 0.21787733 0.33147267 -0.09758872 -0.08234163
-0.00049723353 -0.31786847 -0.018461851 -0.08786169 0.008658176 -0.079337984 -0.09362467 -0.040706526
-0.138419 -0.030328993 -0.17547938 -0.2729169 -0.21810296 -0.07634835 -0.010555611 0.30900618
0.05174515 0.030154917 0.0798495 0.23915268 -0.100510746 0.1053266 0.106528364 0.29557484
-0.1548235 0.05181788 0.15985015 0.274691 -0.08726824 -0.066973105 -0.026064355 -0.36259112
-0.021403307 -0.07964939 0.016391022 -0.0762695 -0.09204238 -0.05405873 -0.15457614 -0.015909823
-0.17799875 -0.29134664 -0.24333617 -0.04654833 0.036783054 0.3222247 0.039132345 0.0047759865
0.099623956 0.283363 -0.07271114 0.14441569 0.12846822 0.31183392 -0.12179999 0.11008882
0.12833907 0.2900423 -0.12006105 -0.03689772 0.041019507 -0.3668496 0.0315588 -0.072968446
0.0149363745 -0.11358304 -0.06396621 -0.06060928 -0.1591434 -0.058779493 -0.1512873 -0.29640043
-0.21260574 -0.024023412 0.0669927 0.30722812 0.061550517 0.040309176 0.08589044 0.3099919
-0.11832079 0.21804957 0.12557018 0.24181359 -0.097762875 -0.009333498 0.20741913 0.28961328
-0.1451694 -0.09376681 0.04207911 -0.32943368 0.04205659 -0.06881249 0.04485022 -0.10920849
-0.0080904085 0.01534931 -0.12613007 -0.019524934 -0.20049031 -0.33116838 -0.2290207 -0.017845193
0.04059224 0.3293224 0.061071165 0.03899233 0.14098333 0.26116186 -0.100082666 0.23217334
0.17666091 0.29361698 -0.12426785 0.021412795 0.20617832 0.29491067 -0.100362405 -0.030936915
0.0061462084 -0.35167402 0.00433545 -0.037937094 0.008484933 -0.08633352 -0.06811043 -0.031288926
-0.16616113 -0.09153622 -0.17242533 -0.3296002 -0.21923986 -0.011462373 0.05016252 0.3693611
0.06512245 0.08079129 0.118486844 0.3700267 -0.100659505 0.20836686 0.1540455 0.27990156
-0.094029695 0.13034156 0.16491492 0.34468523 -0.11071204 -0.08691907 -0.031975318 -0.28277454
0.021970147 -0.0623188 0.016725708 -0.113805525 -0.03320234 -0.025298141 -0.12477742 -0.08596135
-0.20082055 -0.3077811 -0.2169434 0.037502952 0.0701176 0.32245827 0.14593907 0.07091341

0.bias f4 [100]
00000000: 07ca 123e 400c b43c 1a7f d33b fa7e 013d
00000010: 8e21 8a3e 02a6 033e e1c7 20bd fbe8 ab3c
00000020: ee63 d5be b5e4 38bf fa14 34be 17b4 55be
00000030: d62f 323d 2729 67bb 3d9c 17be 5bd9 8e3e
00000040: be0a 813b f81b 39bc 4baa f33e 436b 6e3e
00000050: 463a 283f 9029 95bd ecca 2fbe 2d89 0b3f
00000060: 2145 df3d 3f1a 313c 32d6 5f3e c36a 793e
00000070: eac7 0cbe e0b0 9fbd f8f9 883e f9e0 e7bd
00000080: 8585 52bc 31f0 f1bb 6916 fe3d 0ad6 b5be
00000090: c5c0 9abd e13f 0cbf e6a5 ccbc 2a0e 0cbd
000000a0: a14d 40bc 4d36 49be be12 cdbc e7f1 7cbc
000000b0: 345e b13c 8cde 0cbe b277 e63a 6467 01bf
000000c0: e1d8 4ebe 034e 78be 4283 8fbe ac70 d03e
000000d0: 493a c9bc a42b aa3e 38af 29be 6439 68be
000000e0: 8837 22bd 912a 883e 5195 abbc 1d3f 6dbc
000000f0: 8151 98bb 3b78 7cbe 82f6 d1be 09ab 6ebd
00000100: 39b3 5f3d e990 d2bd 5816 b7bd fb0b 86bc
00000110: 221e 08bf ae7a a63e 376e 57bf 9a33 ae3d
00000120: b4f1 c3be 1a75 29bc 688e bbba 2a6f c9bd
00000130: d76e b1bc 6fe5 3abf dc8f edbc 4d8e 46be
00000140: 4baa cb3c 30b3 143e 9184 6b3e d08a 113e
00000150: b2c6 fabc 906d 9c3e 24df 283e bdf0 7bbe
00000160: a2da fc3b 0612 223c a22e f53d b2da e7bc
00000170: 5eab a6be 3092 303c 062a bcbd 098d 0dbf
00000180: 92ba c0bd bda1 b03e a68f 80be a997 c63d
0.1433488 0.021978498 0.0064543607 0.031615235 0.26978725 0.12856296 -0.03925312 0.020985117
-0.41677803 -0.7222398 -0.17586127 -0.2086948 0.04350265 -0.0035272331 -0.14805694 0.27900204
0.003938048 -0.011298172 0.4759086 0.23283105 0.6571392 -0.07283318 -0.17167252 0.5450619
0.10901857 0.01080948 0.21859053 0.24357133 -0.13748136 -0.07797408 0.2675321 -0.11322207
-0.012849216 -0.0073833694 0.12406618 -0.3551486 -0.07556299 -0.5478497 -0.02498145 -0.034193195
-0.011737258 -0.1964962 -0.025033351 -0.015438533 0.021651365 -0.1375677 0.0017583279 -0.50548387
-0.2019992 -0.24248509 -0.2802983 0.40710962 -0.024563925 0.3323642 -0.16570747 -0.22678143
-0.03960374 0.26594976 -0.020945223 -0.014480379 -0.004648388 -0.2465524 -0.41008383 -0.05826858
0.05461428 -0.10281546 -0.089398086 -0.016363135 -0.5317098 0.32515472 -0.8415255 0.08505936
-0.38270342 -0.010342861 -0.0014309408 -0.09835656 -0.021659298 -0.7300634 -0.028999262 -0.19390221
0.024861475 0.1452148 0.22999789 0.14213109 -0.030612323 0.3055234 0.16491371 -0.24603553
0.0077164927 0.009891992 0.11971785 -0.028302524 -0.32552618 0.010777041 -0.09187703 -0.5529333
-0.094105855 0.34498397 -0.25109595 0.09696896

2.weight f4 [100, 100]
00000000: d35a 5abe ca3f b8bd 0dac 96bc c729 52bd
00000010: 3f56 bfbc 4433 543e f3f5 a73d 43b3 00bd
00000020: b50e 673e 1767 ebbc c40f 213c fa7c 553e
00000030: 1ab3 f8bd 4db1 8d3d 5d99 0dbc bcc6 603d
00000040: aa8a dd3c b3c1 f3bb 12c3 f13d 3bc8 e23d
00000050: 03cf f8bd aace b93d 6869 1d3d 53bc 6abe
00000060: c04c e0bc fddc a53d b95f 24be 20a9 59bd
00000070: d3a8 013e 6199 c43e d1ba 94bd 163e 61bd
00000080: fa52 4d3d 473f a4bd 894c ae3d 6755 a2bd
00000090: 9229 43be c386 503d 6756 86bd cda7 0fbd
000000a0: 8030 6e3d db6d efbd cd3a c43c 576f c5bd
000000b0: d373 28bd e592 2b3d 2d1f bd3c 3d6b ae3d
000000c0: de04 4c3e 90ee 113d 69a5 d33d 4675 e13d
000000d0: cd5d 87bd c156 59be 0c45 2cbd c0b2 96bd
000000e0: fc75 133d 1181 2ebe 1dbc b3bd fbae 8abd
000000f0: 7aa9 9f3d 6599 123e 03d3 a73d 067b 09be
00000100: fb0b 883e 59e6 f3bd b297 60be 3aea 723d
00000110: 5a64 703e 67cb 823d 76cf 013e df6a 813e
00000120: f4b8 0ebe 965f 65be fa3e b93d cb6b 7ebb
00000130: 6772 903b 9452 22bd 8085 ec3c 5c4b b5bc
00000140: 5769 593d 4afe 9e3e ab69 fa3d d679 0e3e
00000150: ed3f d33d bd29 d93d 8f9f 4dbe 810a 923d
00000160: 1a35 61bc adae 73bd e5ed 12bd 9da2 3dbd
00000170: 2fa7 6c3e c72b 953d 528f 3c3f 92c9 cb3d
00000180: 5d0d 3e3d fc18 eebe 1829 543e 8d51 8fbe
00000190: 1a27 2b3d 08f6 a0bc 6390 b4bd 7ee2 b93d
000001a0: 2d71 3c3e 3c76 f6bd 4917 cc3e 3270 cfbd
000001b0: 4c2e 1e3e 83f1 03be 140a bc3d 664b 43bc
000001c0: 17d9 b7bc 9477 2dbc b11e 083e f42a 0fbe
000001d0: 8e37 953d 0d47 febc 357d 143e 898b 403e
000001e0: 5259 95be f769 183e 2554 adbe ebad 1f3e
000001f0: f855 9d3d 94e8 febc 86b7 17bd df31 983e
00000200: daf4 073e 7c53 b5be 4122 3abd 987f c93d
00000210: 6e09 143d 9f86 8b3d deb8 e6bd 6451 52bd
00000220: c6e1 07bd d64f e7bd 93da fd3c 7ff7 a33c
00000230: 98dd 663d cae4 1dbd d223 22bb 8009 d43c
00000240: 2757 c93c 1dba 1bbe e582 f3bc c54c ef3d
00000250: f36b 483e b41e 2abe c2d2 dcbd 715f 52bd
00000260: 5565 1abd 5593 af3d f5cc 1f3e 8b7b c2bd
00000270: 5f1b 533d fcea b4bb e46d 843c 637d b23b
00000280: b16d d53d 17b7 cd3c 4a0b e63d 460d 1d3e
00000290: e802 c0bd 623a 12bd 18f6 a9bd 6f8f 953c
000002a0: 07bf 4fbe dde8 26bd 502d 133d 7fba 8a3d
000002b0: fa6f 093e c9ba 0cbd 1af7 42bd 8ffa 3bbd
000002c0: 8b7f b9bd be0e f83d 7f9f 21bd 251f 5bbe
000002d0: 2487 7a3d 4a3e 7dbd f0ba 54bd ecab 0fbe
000002e0: e2fe a1bd a1a1 473d 4227 333e fa3c 293d
000002f0: 9ee6 0b3c d0cd 8dbd 73b6 883e 14a7 7c3d
00000300: a76e 983d 8eb5 313d e2e2 c7be 5dfa 9c3a
00000310: ce5f a53d c2e5 4e3e 7bbb d9bd 3bf3 a03e
00000320: dc19 d2bb fa3b 9cbd ea9a 7f3d aa02 b43d
00000330: 7da7 7ebd b726 56bd 2651 693d 90e1 c3bd
00000340: b4ef da3c 24d5 f9bb c849 81bb 29ec fabd
00000350: fc57 85bd 46be 98bd 842b 8fbd ea8b 98bd
00000360: 9ad7 c7bb 2b0d 9bbd c039 c1bd 1c37 a83d
00000370: f8dd 15bd ea9e a5bd d8ae c43d ef6e 023d
00000380: ff27 1c3d 5a5c 2b3c c1e9 f0bc 1c19 153d
00000390: ecb8 2f3d 0bfc bebd 831e b93c e5e2 e13c
000003a0: c05e b53d 1a85 9fbd 4d06 d1bd c1a1 85bb
000003b0: 49b6 8cbd 2bc4 64bd 40ee d8bc a3a3 2abd
000003c0: 5d02 5dbd 7f8c 05bd a291 8cbd 2dd9 75bd
000003d0: 25b2 963d d08e dabc 45cc a13d 8c04 febd
000003e0: e17a 1bbd d6a7 1f3b 1b37 813b 1a66 cebc
000003f0: 5d27 323d 54f5 793d d4a1 7dbd 7a40 6cbc
-0.21323709 -0.08996542 -0.018392587 -0.051309373 -0.023356555 0.20722681 0.08201208 -0.031420957
0.22564204 -0.02873568 0.009830419 0.20848456 -0.12143536 0.06918583 -0.008642522 0.054877028
0.02704366 -0.007438862 0.11804785 0.11073347 -0.12148859 0.09072621 0.0384306 -0.22923402
-0.027380347 0.08098791 -0.1605214 -0.053139806 0.12662058 0.3839827 -0.07262195 -0.05499085
0.05012796 -0.08019882 0.08510692 -0.079264455 -0.19058827 0.05090977 -0.06559449 -0.035072137
0.058151722 -0.11690875 0.02395382 -0.09640377 -0.041126084 0.041888136 0.023086155 0.08516548
0.19923732 0.0356279 0.10334284 0.11008696 -0.06609688 -0.212245 -0.042058036 -0.073583126
0.03600119 -0.17041422 -0.08776114 -0.06771656 0.07795997 0.14316328 0.08194544 -0.13425836
0.2657164 -0.1190917 -0.21932867 0.059305407 0.23475781 0.06386452 0.12676796 0.2527685
-0.13937742 -0.22399744 0.09045215 -0.0038821574 0.004408169 -0.039629534 0.028872252 -0.02213066
0.053078976 0.31053382 0.12227186 0.13913664 0.10314927 0.10603664 -0.20080398 0.0713091
-0.013745571 -0.059492756 -0.035871405 -0.04629766 0.2311065 0.072837405 0.7365619 0.09950556
0.046399463 -0.46503437 0.20718801 -0.27991906 0.041785337 -0.019648567 -0.08816602 0.09076403
0.18402548 -0.1203427 0.39861515 -0.101288214 0.15447348 -0.12885098 0.0918161 -0.011919832
-0.022442384 -0.010587592 0.13292958 -0.13981229 0.07285987 -0.031039739 0.14500888 0.18803228
-0.29169708 0.14884172 -0.3385326 0.15593688 0.07682413 -0.031116761 -0.037040256 0.2972555
0.13276997 -0.35415256 -0.045442823 0.0983879 0.036141805 0.06812786 -0.11265729 -0.05134715
-0.0331743 -0.11294524 0.030988013 0.020015476 0.056363672 -0.03854827 -0.002474059 0.025883436
0.02457769 -0.15207715 -0.029725501 0.116845645 0.1957243 -0.16613275 -0.10782386 -0.05136055
-0.037694294 0.08573023 0.15605529 -0.0949622 0.051539775 -0.0055211764 0.016165681 0.005447076
0.104213126 0.025111718 0.11232622 0.15337095 -0.09375554 -0.03570021 -0.08298892 0.018256871
-0.20287715 -0.04074942 0.035931885 0.067738526 0.13421622 -0.03435782 -0.047598936 -0.04589325
-0.0905753 0.12112187 -0.039458748 -0.213986 0.061164036 -0.06182698 -0.05193609 -0.14030427
-0.07909943 0.048738126 0.17495444 0.041317917 0.00853887 -0.06924021 0.26701698 0.061682776
0.0744298 0.043386035 -0.39040285 0.001197647 0.08074914 0.20204833 -0.10631462 0.3143557
-0.006411774 -0.07628627 0.062403597 0.08789571 -0.062171448 -0.052283015 0.056962155 -0.09564507
0.026725627 -0.0076242853 -0.003945563 -0.12252075 -0.06510922 -0.07458167 -0.06990722 -0.074485615
-0.0060986998 -0.07570871 -0.09434843 0.08213636 -0.03658864 -0.08086951 0.09603661 0.031844076
0.03812408 0.01045903 -0.029408338 0.0364009 0.042900965 -0.09325417 0.022597557 0.027574012
0.08855963 -0.07789059 -0.1020628 -0.0040781205 -0.06870706 -0.055851143 -0.026480794 -0.041659962
-0.053957332 -0.03260469 -0.06863715 -0.060021568 0.07358197 -0.026679426 0.079002894 -0.12403211
-0.037958983 0.0024361513 0.0039433367 -0.02519517 0.04349457 0.06102498 -0.06192191 -0.014419669

2.bias f4 [100]
00000000: e0c2 0c3c 2983 903e 135e cabd c2e2 353f
00000010: 3830 0ebe 17e7 1a3d 719d 6a3d 7d94 883e
00000020: 33a7 4d3e c34b 48be cfce a53e ea9c 3e3e
00000030: 202c a43d 858f e33d 019d 0bbf 4b18 c0bd
00000040: 4ded a03e c92d 833e 2020 38bc 4502 ac3d
00000050: 90cf d73d b1aa ffbd 6015 84bd 2ef2 083e
00000060: 3499 89bd 79f8 99bd 5bf2 053d 4e55 e7be
00000070: bac1 4ebd 1af3 1dbf bc8f 323e ac1f 09be
00000080: cb95 80be e32e 30bf 7939 0f3f 67ef 9b3e
00000090: da11 b5bc 9e4a e1bd 9116 8fbd 62d4 8d3d
000000a0: ffd8 aabd 2c4a 41bd a895 a6bd a80c 6f3e
000000b0: cdd7 8cbe 248c be3e 4227 07be a670 ccbc
000000c0: 8b93 f1be 0eb0 373d f3b7 02bf 0c70 5dbe
000000d0: 50f5 3d3f bd24 253e d823 8cbd 9532 be3e
000000e0: 0242 fcbd d1ea 413f ed22 863f 01dd 18bb
000000f0: bdb2 483f a4d8 bf3e dbc8 103f 6349 5b3c
00000100: 402f 81be ae5f afbd 55f4 3dbc a5a5 ddbe
00000110: 1197 f4be ea29 8cbe 4617 9bbd c463 b0be
00000120: 6e97 15bf c05b e0be 90cc 2cbd 0020 1abd
00000130: c543 803d 04b1 243e 97b1 36be a9e9 eb3e
00000140: 05ca bebe 8159 20be 6dea 08bf 40f5 93be
00000150: 3ac4 073e 9485 c33e c9b9 febe 91f0 f03d
00000160: baf8 043e bd50 16bf ebe8 9bbc 33da 1a3f
00000170: 0ec0 06bf 681f 9bbd d59d a1be 851d dcbd
00000180: 5498 af3d 78e6 56be 7445 7dbe 4a9e 0bbd
0.008591384 0.28225067 -0.098812245 0.7104913 -0.13885581 0.03781804 0.057279054 0.26675788
0.20083313 -0.19560151 0.32384345 0.18614545 0.08016229 0.111113586 -0.54536444 -0.093796335
0.31431046 0.2562087 -0.011238128 0.083988704 0.10537636 -0.12483729 -0.064493895 0.13373634
-0.06718674 -0.075180955 0.03270183 -0.4518227 -0.05047772 -0.6169907 0.17437643 -0.13390988
-0.25114283 -0.68821543 0.5594707 0.30456087 -0.022103239 -0.1100056 -0.06986726 0.069252744
-0.0834217 -0.047189876 -0.081340134 0.23344672 -0.27508393 0.37216294 -0.1319857 -0.024956059
-0.4718288 0.044845633 -0.51061934 -0.21624774 0.7420244 0.16127296 -0.06842774 0.37147966
-0.123172775 0.75748926 1.0479409 -0.0023325088 0.7839773 0.3746997 0.5655648 0.013384196
-0.2523136 -0.08563171 -0.011593898 -0.4329044 -0.47771505 -0.27375728 -0.075727984 -0.34451115
-0.5843419 -0.4382 -0.042187274 -0.037628174 0.06262926 0.16083151 -0.17841183 0.46076706
-0.37263504 -0.15659143 -0.53482705 -0.28898048 0.13258448 0.3818785 -0.49751118 0.117646344
0.12985507 -0.58716947 -0.019031962 0.60489196 -0.526368 -0.0757435 -0.3156573 -0.10747818
0.08573976 -0.20986354 -0.24733526 -0.034086503

4.weight f4 [100, 100]
00000000: a82a 11be e93a e03d 2810 c3bd 242e 81be
00000010: 3cf4 12bd 11ad efbc 4229 f03d 6955 f73c
00000020: 5f2c 973c 69a7 32be e821 26be 80b3 ac3d
00000030: 1c0a 993d b951 243e f955 68bd 1093 623d
00000040: 9857 bdbd f0e6 13be 7129 05be 27b3 503d
00000050: c6e9 333e f110 babe 3c73 5ebe 655e 253e
00000060: 1dfb 65bc b5c1 cc3c 53b3 c93d ed81 02be
00000070: fddc 313d 379e 0a3d 47c5 9d3e 6f6e 043d
00000080: 6ccc 83bb f7ed 563d 2a31 4b3e c484 2a3d
00000090: 6279 593d 53e8 743c 7e30 a53d 83b8 163e
000000a0: bf69 4d3d f188 79bd dafa 703c fcdc 5c3e
000000b0: b585 b4be 9b68 debd 95b4 253e 427a e93c
000000c0: 2289 38be fea5 473c 540b 713d 95d5 b7bd
000000d0: b212 273e 972b 51bd 00de ff3b 2d04 1d3e
000000e0: efb2 aabe 12b3 393e 13cb fe3d 509c ce3d
000000f0: 8a48 b53e c5c9 f93d 40ae 813d a2cd 673e
00000100: 24ca 03be 9c07 443e ae81 64bc 0622 3bbe
00000110: f05f 23be 1257 22be b9c7 ca3c 5527 2a3d
00000120: a00b 013e 3475 57be 9047 b8bd 60c8 a03c
00000130: 36ca 45be b2e8 46bd 1914 903d 1907 e43b
00000140: 5de4 9d3d 5727 bcbb e3c0 3e3e cfb1 90bd
00000150: db37 b5bd c2eb 083e 3c99 10be c7d8 b83d
00000160: b882 b13e 89ea a7bd 26d8 1abe 802e 953e
00000170: 1765 463d 4f18 95bd 7815 60be 4319 6f3d
00000180: 9721 c03c 4ccc 40be 7984 bdbe 06e7 673d
00000190: 450d 92be 7853 3f3e 8e27 1ebd 8a52 24bd
000001a0: 28f4 47bd b10c dfbc e964 cabe ceb1 53bd
000001b0: 9f49 b4bd fda9 063e aa20 86be c8f0 413e
000001c0: c262 553e 81ee b8bc b115 0ebe 4d54 323d
000001d0: 28ff bb3d 8757 263e 2206 123e 6d4f bcbd
000001e0: a33d 9ebd f3ba bebd ab32 0a3d 92ab 553e
000001f0: 0d8e c9be 67e0 91bc 7f7f 673d ccd6 b2bc
00000200: a96c 4fbc 7e44 6e3e d618 9c3e 467e a9bd
00000210: ea51 3d3e 89b9 f83d 2b38 9fbd c077 33be
00000220: fde1 06be 2d23 37bb dbf2 bb3d dce2 d2bc
00000230: 4f48 1bbc 3e80 b33d e9c3 cbbd a4e8 0ebe
00000240: e734 b8bd 935b a73d 8947 86be 2d7d 42bd
00000250: a1f2 2b3e 001b 2ab9 2d3b e03d d442 813c
00000260: a479 ae3b 8da0 2f3e 0ab3 36bd 1e4d c3bd
00000270: eeb8 bdbe fa42 373e 7b14 043d 353a 823e
00000280: 912f 023e c976 033e 058a dcbc 9bfb 5b3e
00000290: 9dac e5bd dcc2 363e 6b6b f8bc a0a6 90bd
000002a0: 34ce db3b 71cf 1cbd 125e 1bbd a7ed aabd
000002b0: 238b f33d f247 0dbd 4d4b bcbb 36c7 19bc
000002c0: 53da 253e 6036 5cbd 9e83 633d 1f57 f33c
000002d0: bfeb 793c bc32 903e 5964 903c 33d4 6dbd
000002e0: a2f2 a1be f73d a83d fcfd 153e 4565 b2bd
000002f0: 77b1 99be ef97 1c3e 0c2d 37be 4109 b93e
00000300: 40b4 4c3e 7109 bc3c 7018 0ebc 3777 d9bd
00000310: 2865 843e fca2 6bbd d628 92bd 3980 063e
00000320: 7004 143d d8b3 c5bb 3353 90b8 1b6c d0bd
00000330: a80e 03bd ab54 b7bd 376d 8abd 2361 68bd
00000340: 43e1 b8bd 9261 cabd bdf8 033d adc3 b7bd
00000350: c80c a53c 375f 6abd 2f39 c2bc b7e9 01be
00000360: 20c9 e8bd 4fa0 dbbd 8737 183d e1ef fdbd
00000370: 0272 91bd fce2 96bd c4b5 ec3c 6961 9839
00000380: 9c0f d9bd 20e5 f5bc 2338 27bd e383 b3bd
00000390: 8d49 983d ca0f f3bb e5c1 f2bd aa40 8c3d
000003a0: 1192 8c3d b267 a83c cc4e 713d 9152 b8bb
000003b0: 99f7 523c e3cb bdbd ad96 8ebd 3c5d 2bbb
000003c0: 9a79 003d 3ffd b2bd 1580 c93d eef1 e3bc
000003d0: 3bdc a2bd 63c5 8dbd a0cf 9fbd 7371 143c
000003e0: aa73 18bd cd26 9f3d 74f0 07bd 2cfb 9fbc
000003f0: 3a6e e9bd b483 cbbd 18b6 a73d f883 c3bd
-0.14176428 0.10948736 -0.09524566 -0.25230515 -0.03587745 -0.02925733 0.11726619 0.030192094
0.018453775 -0.17446674 -0.16223872 0.084326744 0.07472631 0.160468 -0.056722615 0.05531603
-0.09245223 -0.14443564 -0.1300409 0.050952103 0.17569646 -0.3634105 -0.21723646 0.1614929
-0.014036921 0.02499471 0.098486565 -0.12744875 0.04342364 0.03384229 0.30814573 0.03233188
-0.0040221717 0.052473035 0.19842973 0.04163052 0.053094275 0.014947969 0.0806589 0.14718823
0.050149675 -0.060921613 0.014708245 0.21568674 -0.3525826 -0.10859796 0.16182168 0.02850068
-0.18021062 0.012185572 0.058848694 -0.089762844 0.16315725 -0.05106696 0.007808447 0.15333624
-0.3333964 0.18134716 0.12441077 0.10088408 0.35406905 0.121966876 0.06332064 0.22637036
-0.1287008 0.19143528 -0.013946934 -0.18274698 -0.15954566 -0.15853527 0.024753438 0.041541416
0.12602091 -0.21040803 -0.089980245 0.019626796 -0.19315419 -0.04856176 0.07035083 0.006958854
0.077095725 -0.0057419944 0.18628268 -0.07065164 -0.08848544 0.13371184 -0.14120954 0.09025722
0.34670043 -0.08199031 -0.15121517 0.2913704 0.04843625 -0.07280027 -0.2188319 0.0583737
0.023453517 -0.18827933 -0.3701513 0.056616805 -0.2852575 0.18684185 -0.03861194 -0.040117778
-0.04881683 -0.027227731 -0.39530113 -0.05168324 -0.088031046 0.13150783 -0.26196796 0.18939507
0.20838454 -0.022574665 -0.13875462 0.043537427 0.091795266 0.16244327 0.14260152 -0.09194837
-0.077266 -0.093130015 0.033739727 0.2086623 -0.3936619 -0.017807199 0.056518074 -0.021830939
-0.012660184 0.23268315 0.30487698 -0.08276038 0.18488279 0.12144763 -0.07774385 -0.1752615
-0.13172145 -0.002794455 0.091771804 -0.02574294 -0.009477689 0.08764695 -0.09949476 -0.13955933
-0.08994465 0.08171763 -0.26226452 -0.04748266 0.16791774 -0.00016222522 0.10948787 0.015778936
0.0053245593 0.17151089 -0.04460434 -0.09536193 -0.37055153 0.17896643 0.032246094 0.25435033
0.12713458 0.12838282 -0.026921282 0.21482699 -0.11214564 0.1784777 -0.030324658 -0.07063031
0.006707931 -0.03828377 -0.03793151 -0.0834611 0.118917726 -0.03449244 -0.0057462812 -0.0093858745
0.16196565 -0.053762794 0.05554544 0.029704629 0.01525396 0.28163707 0.017625974 -0.058063697
-0.31630427 0.08214944 0.14647669 -0.08710722 -0.30018207 0.15292333 -0.17888278 0.36139873
0.19990635 0.02295372 -0.008672819 -0.106184416 0.25858426 -0.05752848 -0.07136695 0.1313485
0.036137044 -0.006033402 -6.881952e-05 -0.101768695 -0.0319964 -0.08951696 -0.06759112 -0.05673326
-0.0902734 -0.09881891 0.032219637 -0.08972869 0.020147696 -0.05721971 -0.023708908 -0.12686811
-0.113664865 -0.10723936 0.03716233 -0.12399269 -0.071018234 -0.073675126 0.028895266 0.00029064275
-0.105986804 -0.030016482 -0.04082502 -0.0876539 0.07435904 -0.0074176537 -0.11853389 0.06848271
0.068637975 0.020557258 0.058913037 -0.005625077 0.012876415 -0.09267404 -0.06962333 -0.0026148101
0.03136597 -0.08739709 0.09838883 -0.027825322 -0.07952162 -0.06922414 -0.07803273 0.0090602515
-0.03721968 0.077710725 -0.0331883 -0.019528948 -0.11397977 -0.0993723 0.081890285 -0.095466554

4.bias f4 [100]
00000000: da40 b43e aa9b cdbd 987b 82bd 0ab9 9dbc
00000010: 3846 e13e 73e9 763e 5173 e73d ac6d ff3c
00000020: 4049 0abe f915 973e 0e7b 663d 458d 2d3b
00000030: 2c1b a3bd 1e2b 8abe 8289 4ebe 66e5 063f
00000040: 0218 84be a675 5c3d cba6 19bd 99bd 653e
00000050: 8763 dd3e 6edc 863e aea2 25bd 3acb 4ebd
00000060: 717e a8bd e59f 083f 1d3a 2b3e 9bf6 fcbd
00000070: 787a e13c b841 e8be 7392 e23d 52b9 01bf
00000080: 51c3 103e 4aed 2c3e 001c 973d 4449 99be
00000090: 20df a8be bab1 d13e a62a 993f d2c9 aabe
000000a0: 064a e0bd 097f b0bc f93e 453e e703 8f3e
000000b0: 896d 843d 0540 343e 76b1 943d ddee 9bbd
000000c0: e12e 063f 8779 f7bd b2d8 b9be 0531 c0be
000000d0: 6447 0a3e 0395 aebd 9cdf 58be b026 773e
000000e0: b65c ae3c f7d0 67be 8a7d 33bd 0890 fbbd
000000f0: 6065 f33c 9ecb 7e3e f0be 863d b829 84bc
00000100: 36e3 bcbe 7e52 d4be ccb0 c13d 73fa af3c
00000110: 7619 6ebd 7475 523d e50e 9b3e 79fb 1f3f
00000120: 3594 9abe 563c 013d 175b 8abd 6612 4b3d
00000130: 7693 5ebd d973 7bbc 1c46 1bbe 1d35 343e
00000140: a001 693e ca1b 06be 539a 8fbe c39d 12bf
00000150: 2e42 983d dbc2 c53c 4201 bebd eed5 e6bc
00000160: 8d78 a53d 324c 663d c6b9 c2bd 7dd2 d73e
00000170: 6c8f d83e 36a6 d0bd f211 b53e 8c90 173f
00000180: 199c 3d3e 35b8 2b3e 6b30 b1be 848f 0fbe
0.35205728 -0.10039456 -0.0637123 -0.019253273 0.43998885 0.24112491 0.11301292 0.031180225
-0.13504505 0.2950895 0.056269698 0.0026481908 -0.07964167 -0.2698602 -0.20169643 0.52693784
-0.25799567 0.053823136 -0.03751258 0.22435607 0.43239996 0.2634005 -0.040438347 -0.05048678
-0.08227242 0.5336898 0.16721387 -0.12351724 0.027524218 -0.4536264 0.11063089 -0.506734
0.14137007 0.16887394 0.073783875 -0.2993871 -0.3298273 0.40955907 1.196614 -0.33357102
-0.10951619 -0.02154495 0.19262303 0.27932665 0.06466205 0.17602547 0.072604105 -0.07613919
0.5241528 -0.120837264 -0.36298138 -0.375374 0.13503796 -0.085245155 -0.2117905 0.24135852
0.021284442 -0.22638308 -0.043820895 -0.12283331 0.029711425 0.24882361 0.06579387 -0.016133174
-0.36892098 -0.41469187 0.094575495 0.021481728 -0.05812975 0.051381543 0.302848 0.6249309
-0.30191198 0.03155168 -0.06755655 0.049578093 -0.05433985 -0.015347444 -0.15163463 0.17598386
0.22754526 -0.13096538 -0.28047428 -0.57271975 0.07434498 0.024140766 -0.09277584 -0.028178181
0.08079634 0.05622501 -0.0950809 0.42152777 0.42296922 -0.10187952 0.35365254 0.59204936
0.18516578 0.16769488 -0.34607252 -0.1401959

6.weight f4 [157, 100]
00000000: 2d37 57be 629c bf3c 72d0 973b c1c9 1f3d
00000010: 1746 20bd a594 fbbd 96eb 103e b071 1cbd
00000020: 95e5 923d 3d8b 60be 42ad b7bd 910a 743b
00000030: 554e 61bd da5c c83c 0841 eebd d8fa e73d
00000040: 08a2 95be 97e1 663d 99e2 2fbe d0b7 9bbc
00000050: 0b4a 2d3e be29 c2be f873 14bf c041 3fbe
00000060: 2f8f b73c 5840 1abe 2201 7b3a 7ae2 993c
00000070: 5236 863c 4a8f 8fbc 44d4 323d e23d 9a3d
00000080: 41d2 093c 247d 96bc c09e c2bd 8535 803e
00000090: 40fb f93d 7af6 99be 0d80 a8bd 6212 663d
000000a0: f929 01be ec2d 203d 448f 213e 60e9 32be
000000b0: 2ec6 913e 720c 3bbe 8a27 87be 8389 813d
000000c0: 289a ccbe 8c0b dbbd 43b0 fb3c c07e 363d
000000d0: e3b1 b2be c5f0 a83d da42 a2bd eb02 51be
000000e0: 202d 11bd d7fb 71be 9baa 0b3e 521f 723d
000000f0: a132 eabc cb53 1a3c aa64 d6bc 7a94 a93d
00000100: d847 8cbc 3015 0cbd 4776 7bbd bd1f 663d
00000110: 28e5 a8bd de9b b43d 2539 3d3e 6caa 193e
00000120: 10a9 19be 1855 233e 6cc0 12bd f965 3f3e
00000130: 6d8d 9e3d 5bf7 47bd 8eb2 f03b ace8 3fbe
00000140: 1d7b 553d 942c 79bd a034 e53c c33e 403d
00000150: c922 e13c fa85 ea3d 4928 97bd 8567 17bd
00000160: eb64 00bd fc01 27be f3f5 343d 58cf 61be
00000170: f626 013e 3273 c53a c880 f2bd 8fae 843d
00000180: 76a9 193d 51fa 113e 966b 10be 860c 443e
00000190: eba4 aebc d106 d33d 6fad 8b3c c3b2 32bd
000001a0: efd0 3e3e d5ac 5ebe 4bbc 28be b2b9 2ebd
000001b0: d2f6 783d 3a05 2f3e 17f9 a3bd 3c07 17bd
000001c0: 2862 b6bd 8ff4 a8be 70b1 5d3d 694b 10bd
000001d0: 6fe7 323e 0517 0cbf 6b04 a73e 5729 5f3c
000001e0: ac54 da3d 666c 8abc 719d 1c3e df50 e5bd
000001f0: 9b35 9e3d 8a6a 55bf a492 9dbe c3c8 99bc
00000200: 4c52 0e3e b3fc 14be 4ed1 dbbd 4c1d e7bd
00000210: 2d9c 2bbc 2cf0 3e3c 24bf dfbe a5b4 94be
00000220: e62f 783e 37ff 3cbe ab10 c6bd 205d 12bf
00000230: a7a5 68be 52b9 71bd 6a82 7dbe b568 d43d
00000240: b5a7 803d 2e61 023e b085 bdbd de49 003d
00000250: ace1 513d 9a6a 32bb d92c c9bd c385 163e
00000260: cbb1 20be 2018 98be 6f30 413e 4468 76bd
00000270: b9d5 5b3c 09c4 503d 5ed2 52bc 9285 083d
00000280: 5c0f 6d3e 1e75 233e 3485 4cbd 6cdf 3fbd
00000290: 6666 873e fa64 71be 0c38 cc3c 01a0 d93d
000002a0: 008f acbd 85c2 0dbe 8027 62be 83ac 383e
000002b0: 574e f2bd 15fc 93bd b55d 9d3e c8eb 0cbf
000002c0: dfca 193e aff2 433e 37f9 923c c24f 21bd
000002d0: 776a 49be 7569 0b3e a4a0 283d 7861 eb3b
000002e0: 0666 0ebe 22e0 cc39 4372 c2be fc4d 70bb
000002f0: d353 1d3e 3044 a4bd a599 67bd 3a21 d83c
00000300: 7075 093d b362 d7bd 69c0 47bd 516a 023e
00000310: 8135 be3d f73f 4e3d 67a2 a73c 15c0 8bbc
00000320: 8249 cbbe ff18 133d 93d6 a6bd 1370 d6bd
00000330: 97e8 f3be 0ff8 083e c840 063d 9659 2f3d
00000340: 56c1 083e 8662 fdbd bcc6 673d 5214 323d
00000350: b662 e53d 91d5 84be c41a e93c 28b3 9e3d
00000360: 4208 043e 74de b33d 78f0 c33d a561 993d
00000370: 76ce de3b ef8d 143e e5b4 023e 7131 a0bd
00000380: 690c 893d fbf1 c03d 85ac ec3d eb01 123e
00000390: 1ab2 38be 34ec 76bd 13a1 85bd 966e 93bc
000003a0: 934a 043e d1cd c4be 1d64 2bbc d3c2 e03d
000003b0: d34a 6fbc b3c7 913e b3ef 0cbe 74fd fc3c
000003c0: faeb 0f3d 90c2 25bd 68fd 2c3e 13a8 943c
000003d0: 7a1d 813e d4df 60bd 79a6 e2bc 76c3 7dbc
000003e0: 104c c33d 7a86 1bbe 1e29 0cbe 7fd8 173e
000003f0: b2ee 0abd b0b6 bf3c 2005 97be 087a 9fbd
-0.21017142 0.023389999 0.004633003 0.039010767 -0.039129343 -0.12284211 0.14152369 -0.03819436
0.071726955 -0.21928115 -0.08968593 0.0037237743 -0.055006344 0.024458338 -0.116334975 0.113271415
-0.29225183 0.056367483 -0.17176284 -0.019008547 0.16922776 -0.37922472 -0.57989454 -0.18677425
0.022407142 -0.15063608 0.0009575059 0.01878475 0.016383324 -0.01752438 0.043659464 0.075313345
0.008411945 -0.018370219 -0.095029354 0.25040832 0.12206125 -0.3007086 -0.08227549 0.056169875
-0.12613668 0.039106295 0.15777308 -0.17471838 0.28471512 -0.18266466 -0.26397353 0.063250564
-0.39961362 -0.10695562 0.030723697 0.044554472 -0.34901342 0.08249048 -0.07922907 -0.2041127
-0.035443425 -0.23631226 0.136393 0.0591119 -0.028588595 0.009419392 -0.026171047 0.08280273
-0.017124102 -0.034199893 -0.061392095 0.05618261 -0.08246833 0.08818792 0.1847883 0.15006417
-0.15005898 0.1595043 -0.03582804 0.18691243 0.077418186 -0.04881988 0.007345504 -0.18741101
0.052119363 -0.06083353 0.027979195 0.046934854 0.027482407 0.11451335 -0.07380731 -0.03696396
-0.031346243 -0.1630935 0.044179868 -0.22051752 0.12612519 0.0015064238 -0.11840969 0.06478607
0.037515126 0.14255644 -0.14103541 0.19145402 -0.021318873 0.103040345 0.017050473 -0.04362751
0.1863439 -0.21745618 -0.16478078 -0.04265756 0.06078226 0.17091838 -0.080064945 -0.036872134
-0.089054406 -0.32999083 0.054124296 -0.035228167 0.17471097 -0.54722625 0.32620558 0.013620696
0.10660681 -0.016897392 0.15294434 -0.111970656 0.07725068 -0.8336569 -0.3077594 -0.018772488
0.13898581 -0.14549522 -0.10733281 -0.11284885 -0.010474247 0.011653941 -0.43700516 -0.2904407
0.24237022 -0.18456732 -0.09671148 -0.5717335 -0.22719441 -0.059014626 -0.2475678 0.10371534
0.062819876 0.12732384 -0.092540145 0.031320445 0.051240608 -0.0027224184 -0.09823007 0.14699464
-0.15692823 -0.29705906 0.18866132 -0.06015803 0.013417655 0.050968204 -0.012867538 0.033330508
0.2315039 0.15962645 -0.04993172 -0.04684393 0.2644531 -0.23573676 0.024929069 0.106262214
-0.084257126 -0.13843735 -0.2208538 0.18034558 -0.118313484 -0.07225815 0.30735555 -0.55047274
0.15018795 0.19135545 0.0179411 -0.039382704 -0.1966952 0.13614447 0.041168824 0.00718325
-0.13906106 0.00039076904 -0.379778 -0.0036667576 0.15364008 -0.08020818 -0.05654301 0.026383031
0.033559263 -0.10516872 -0.04876748 0.12735869 0.09287549 0.05035397 0.020463182 -0.017059365
-0.3970452 0.03591251 -0.081463955 -0.10470595 -0.4763839 0.13375877 0.032776624 0.042810045
0.13355002 -0.123723075 0.056586012 0.04347641 0.11200468 -0.25944188 0.028455146 0.07749015
0.12893775 0.08782664 0.0956735 0.07489327 0.0067995144 0.14507268 0.12764318 -0.0782193
0.0669182 0.09421154 0.11556343 0.14258544 -0.1803669 -0.060283855 -0.06524863 -0.017997067
0.12919073 -0.38438275 -0.010460881 0.1097466 -0.014605242 0.2847267 -0.13763313 0.030882575
0.035137154 -0.040468752 0.16893542 0.01814655 0.252178 -0.05490096 -0.027667271 -0.015488496
0.09535992 -0.15188017 -0.1368756 0.1482868 -0.033919044 0.023402542 -0.29496098 -0.077869475

6.bias f4 [157]
00000000: d0dd df3d 2b50 84bd ded5 6b3e 4268 e7be
00000010: 4f42 04be c8a2 adbe 7086 97bd d8cb 5dbd
00000020: 4990 82bd ccd1 213e 7077 61be af66 663d
00000030: 87df 26bd c816 0bbf a14b 14bf f1af cbbd
00000040: 3605 0a3d bce9 7f3e d67c 3dbc 43a4 923e
00000050: d187 c73d ab25 233d 52a0 6cbe c6a6 053f
00000060: 6c7b 8fbe 25b0 2c3e b0e5 d9bb c5ee e23e
00000070: a63f d3be dd40 753e 7004 4fbe 4238 50bd
00000080: e71d afbe 8a15 143d f875 453e 63ef 003e
00000090: b373 a13d 6221 033f 6d26 523e b757 003d
000000a0: cfe3 cfbe d1f0 9abd e1ff ac3e 4968 f63d
000000b0: f5e2 9d3d 57ab cb3e 946a d33e 96d0 ef3e
000000c0: 6cf8 723e c00e 8cbe 1bfb 5bbd 2c29 233e
000000d0: 9ee3 4ebe af4f 48be aeca a83d 10b9 043e
000000e0: a672 ccbe a40d 91bd a8a0 3c3e 4cc0 b2be
000000f0: ded1 f1bd b89d 6a3e db43 013f dbcc e43d
00000100: 1199 07be d7a7 69bd f7de 833e 80ca 6abe
00000110: c062 adbe d9d4 4cbe a3e4 a13d 3abd 9b3d
00000120: f787 8f3e 0184 a4bd 163a 75be 3ba5 e6bc
00000130: bb9a adbc be65 49be 099c c2be 3df2 c13d
00000140: ba6f eebd 3d7b ccbb b7c9 e0bd 0647 4f3e
00000150: 5d61 453e 6d71 ac3e 1828 0ebe 244c 0c3f
00000160: cbbd b63e 8a1c 88be 9afa fbbe 9a17 f23e
00000170: 5b42 c3bd 4bf5 d43e 5423 b5ba d35f e6be
00000180: e0ee 653c 11f5 89be 05c5 9dbe 88cc e3bc
00000190: 4313 873e fbe4 573e 12b5 48bd 75db 863e
000001a0: e051 833d 51b9 8b3d b4f5 5d3e 3fbc 603c
000001b0: 2018 e6bd 0f8d 983c a283 4dbe 1336 4abe
000001c0: 5234 063b cc94 13bd 4902 0c3e d92c adbe
000001d0: 30d2 7cbd e8de 19be aae8 293d 2261 dfbd
000001e0: de06 3d3e d50e 153f 9def 69bd 4d21 86be
000001f0: c1f3 6e3e 5ce1 85be ebf0 3abe 61b6 953e
00000200: c3d2 ea3e 3c34 29be 84fb 8d3c 30df 4d3d
00000210: a5e5 6bbe f825 e4bc cd35 62be 7c56 17bd
00000220: 6874 113e 25fc 85be ff2e 6a3a 2c77 363e
00000230: 37ca 303f 76f3 a7bd 19a7 dabe a9d2 a2bd
00000240: d494 dabd 79ae 3f3d 8688 1abf e4d4 9f3d
00000250: d5e6 8c3c fa72 223e 61bf 0bbe f66f fbbe
00000260: 467a 8dbe 9e01 29be 2a31 223c 81b6 3a3d
00000270: e91d 293e
0.10930979 -0.06460603 0.23030803 -0.4519673 -0.1291592 -0.33913255 -0.07398689 -0.05414948
-0.063751765 0.15802687 -0.22018218 0.05625027 -0.040740516 -0.54331636 -0.579279 -0.099456675
0.033696376 0.24991506 -0.011565408 0.28640947 0.09742702 0.039830845 -0.23108032 0.522076
-0.2802385 0.16864069 -0.0066496953 0.44322792 -0.41259497 0.23950525 -0.20216537 -0.0508349
-0.342025 0.036153354 0.19283283 0.12591319 0.07883396 0.51222813 0.20522471 0.03133365
-0.40603492 -0.07565463 0.3378897 0.120316096 0.07709304 0.3977916 0.4129225 0.46838826
0.23727578 -0.27355003 -0.05370627 0.15933675 -0.20204017 -0.19561647 0.08241783 0.1296122
-0.3993122 -0.0708268 0.1842066 -0.34912336 -0.11807607 0.22911727 0.50494164 0.111718856
-0.13241984 -0.05704483 0.25756046 -0.2292881 -0.33864403 -0.2000307 0.07904937 0.076044515
0.2803342 -0.0803299 -0.2394794 -0.02815496 -0.021191945 -0.19667718 -0.3800967 0.094700314
-0.11642404 -0.006240277 -0.10975974 0.20241937 0.19275422 0.33680287 -0.13882482 0.5480368
0.35691676 -0.26584274 -0.4921463 0.47283632 -0.09534141 0.41593394 -0.0013819733 -0.44994983
0.014034003 -0.26944783 -0.30814376 -0.027807489 0.26381883 0.21083443 -0.049000807 0.26339307
0.06412101 0.06822456 0.2167576 0.013716756 -0.1123507 0.01862195 -0.20069745 -0.1974719
0.0020477963 -0.036030576 0.13672747 -0.3382328 -0.061723888 -0.15026438 0.04148165 -0.109071985
0.18459651 0.58225757 -0.05711328 -0.2619728 0.23335172 -0.26148498 -0.18255965 0.29240707
0.45863923 -0.16523832 0.017331846 0.050261676 -0.23036821 -0.027850136 -0.22090836 -0.036947712
0.14204562 -0.26168934 0.00089333946 0.17818898 0.69058555 -0.08200733 -0.4270561 -0.079503365
-0.10672918 0.04679725 -0.6036457 0.078042775 0.017199913 0.15864173 -0.13647224 -0.49108857
-0.2763235 -0.16504523 0.009899417 0.045584206 0.16515316
