neura1/bestval_e5_weights.ckpt (torch, 399055 bytes, 8 tensors)

0.weight f4 [100, 630]
-0.01259009 0.03534344 -0.03145215 -0.23962624 -0.02009842 -0.14917198 -0.24900563 -0.10170236
-0.31574678 -0.44500193 -0.3144733 -0.03694972 0.12120228 0.47834778 0.028207498 0.1731908
0.20546648 0.26674566 0.06474975 0.26761088 0.20424508 0.3753777 0.03558461 0.13646756
0.17755842 0.30364528 0.12101405 0.1067905 0.17520759 -0.041463338 -0.013470411 -0.04245717
0.0047759134 -0.067846686 -0.0050647883 -0.053330984 -0.095216095 -0.04211734 -0.14054275 -0.2571754
-0.21875188 -0.035119455 0.047181387 0.2635917 0.0033370566 0.08948429 0.07626207 0.19269377
-0.0314299 0.15444823 0.07453711 0.30979145 -0.047536537 0.07917911 0.08539486 0.20406482
0.028485896 -0.006945605 0.06986185 -0.08774374 0.013461392 0.0071367216 -0.014460075 -0.082764
-0.044959508 -0.04280415 -0.069915086 -0.0067465976 -0.1539786 -0.229401 -0.15685897 -0.027836831
0.05220129 0.26565582 0.055532724 0.097106144 0.05578985 0.18357556 0.00772608 0.16263826
0.07500392 0.28724697 0.035752606 0.07851044 0.13051447 0.20130013 -0.002905066 -0.030330932
0.03024926 -0.034751143 -0.014262597 -0.061937585 -0.001501497 -0.026854122 -0.012661701 -0.048681315
-0.062888406 -0.0713111 -0.1526976 -0.27323964 -0.14857754 -0.009956144 0.026483366 0.2941892
0.043392796 0.06912202 0.06814299 0.15845105 -0.018968958 0.1289705 0.078727886 0.28124896
-0.008411808 0.049592163 0.12036709 0.13451944 0.0071912077 0.013673373 0.01277915 -0.040980775
-0.028920295 -0.0502696 0.012859185 -0.04286576 -0.047362562 -0.07684787 -0.09300016 -0.06160373
-0.12417592 -0.2847954 -0.17528082 -0.020907836 0.07247201 0.29680085 0.010454186 0.038867127
0.05763981 0.2015097 0.010470674 0.14190562 0.0928331 0.27937037 -0.015358032 0.099329226
0.1218083 0.1469042 0.01712013 0.027414095 0.061486185 -0.044753212 0.018094236 -0.043671455
0.008667677 -0.085580565 -0.046352163 -0.07000196 -0.11195015 -0.07808615 -0.114745215 -0.26776364
-0.16893968 -0.018558659 0.10248969 0.28948665 0.020772431 0.028556343 0.02419257 0.21056436
-0.034876958 0.14560476 0.075498626 0.19034913 -0.011786179 0.04844107 0.14557943 0.15575443
-0.029445015 -0.03318482 0.06676661 -0.05833629 0.03120837 -0.046818122 0.032682706 -0.08022816
-0.0038246613 -0.0014449251 -0.07578136 -0.053643867 -0.17258903 -0.32502502 -0.19724052 -0.02671012
0.053602535 0.297262 0.032499593 0.060360644 0.0824145 0.13561782 -0.0061912425 0.15973301
0.124146454 0.23340818 -0.013221994 0.04284376 0.10319005 0.18750785 -0.017187942 0.029841859
0.052944493 -0.10653579 -0.009039622 -0.014245843 0.009186193 -0.05105543 -0.0547556 -0.047275294
-0.12474866 -0.09571328 -0.13612375 -0.3268875 -0.20205191 -0.04286502 0.06630164 0.32086185
0.03259043 0.090870164 0.06353384 0.22514302 -0.030018162 0.13152699 0.08433465 0.22775556
-0.003668219 0.106927186 0.10463514 0.23347844 -0.06455703 0.0034256917 0.008814429 -0.105163775
0.0036428967 -0.036697708 0.01703206 -0.08112484 -0.026114551 -0.04245756 -0.093098685 -0.10104771
-0.16968322 -0.29747972 -0.19624037 -0.02445717 0.0731617 0.29077834 0.10021484 0.061609577
00000000: aa46 4ebc 48c4 103d f8d3 00bd 9560 75be
00000010: 71a5 a4bc 8ac0 18be 55fb 7ebe 5449 d0bd
00000020: 90a9 a1be 4bd7 e3be a502 a1be 9758 17bd
00000030: e738 f83d 00ea f43e 6913 e73c ee58 313e
00000040: ce65 523e e392 883e 849b 843d 4b04 893e
00000050: 9f25 513e 8231 c03e 2bc1 113d 27be 0b3e
00000060: e0d1 353e 6577 9b3e 37d6 f73d fab4 da3d
00000070: 9e69 333e 76d5 29bd 00b3 5cbc 92e7 2dbd
00000080: 447f 9c3b 34f3 8abd 86f6 a5bb 9771 5abd
00000090: a800 c3bd 3b83 2cbd 70ea 0fbe 7eac 83be
000000a0: 7e00 60be 6bd9 0fbd 4541 413d 7ef5 863e
000000b0: 85b2 5a3b 8a43 b73d 4a2f 9c3d 8451 453e
000000c0: a4bc 00bd ad27 1e3e eaa6 983d fc9c 9e3e
000000d0: acb5 42bd a828 a23d 80e3 ae3d 5ef6 503e
000000e0: 415b e93c f597 e3bb bb13 8f3d fdb2 b3bd
000000f0: 2c8d 5c3c 29db e93b f3e9 6cbc 2c80 a9bd
00000100: 7627 38bd 6853 2fbd a42f 8fbd 9012 ddbb
00000110: 91ac 1dbe 19e8 6abe a39f 20be 110a e4bc
00000120: 05d1 553d 0a04 883e 4876 633d 96df c63d
00000130: e683 643d 3bfb 3b3e 0e2b fd3b a58a 263e
00000140: a89b 993d 0912 933e 5371 123d 15ca a03d
00000150: 96a5 053e 9f21 4e3e eb62 3ebb 9378 f8bc
00000160: 4ccd f73c 3757 0ebd abad 69bc 44b2 7dbd
00000170: e1cd c4ba 2dfd dbbc 0673 4fbc 0f66 47bd
00000180: a3cb 80bd 8e0b 92bd c25c 1cbe 11e6 8bbe
00000190: b624 18be 181f 23bc a5f3 d83c f89f 963e
000001a0: a5bc 313d d88f 8d3d 8d8e 8b3d fe40 223e
000001b0: ca64 9bbc d810 043e 163c a13d ddff 8f3e
000001c0: aed1 09bc 2721 4b3d 0583 f63d 77bf 093e
000001d0: 39a4 eb3b 4806 603c a45f 513c 75db 27bd
000001e0: 41ea ecbc 7fe7 4dbd 55af 523c 0294 2fbd
000001f0: 3fff 41bd 6b62 9dbd de76 bebd 3154 7cbd
00000200: f24f febd b4d0 91be d17c 33be e946 abbc
00000210: 356c 943d 48f6 973e 0948 2b3c 2333 1f3d
00000220: b917 6c3d 8f58 4e3e 318d 2b3c b54f 113e
00000230: 481f be3d a209 8f3e 41a0 7bbc 1f6d cb3d
00000240: a176 f93d 0e6e 163e 843f 8c3c 8693 e03c
00000250: f0d8 7b3d 254f 37bd 5d3a 943c d7e0 32bd
00000260: df02 0e3c dd44 afbd c4db 3dbd 305d 8fbd
00000270: 1f46 e5bd a2eb 9fbd 8aff eabd 5118 89be
00000280: 86fe 2cbe 5408 98bc 1de6 d13d 9837 943e
00000290: f22a aa3c feee e93c 7f2f c63c 2f9e 573e
000002a0: 24db 0ebd 6a19 153e 069f 9a3d e2ea 423e
000002b0: d11a 41bc 256a 463d c612 153e 177e 1f3e
000002c0: ac36 f1bc ceec 07bd efbc 883d 09f2 6ebd
000002d0: b2a8 ff3c 5cc4 3fbd 4dde 053d a94e a4bd
000002e0: 2ba7 7abb a463 bdba 4233 9bbd acb9 5bbd
000002f0: 2ebb 30be ae69 a6be 6bf9 49be 2ecf dabc
00000300: 558e 5b3d ba32 983e 4b1e 053d b93c 773d
00000310: efc8 a83d 66df 0a3e e8df cabb 0d91 233e
00000320: 7f40 fe3d 8e02 6f3e 10a1 58bc f07c 2f3d
00000330: 4e55 d33d 0f02 403e bacd 8cbc ea76 f43c
00000340: 53dc 583d 702f dabd ec1a 14bc 6567 69bc
00000350: b081 163c 801f 51bd 6847 60bd bda3 41bd
00000360: 3a7c ffbd 5305 c4bd 0664 0bbe cc5d a7be
00000370: b2e6 4ebe 3b93 2fbd 27c9 873d 0148 a43e
00000380: 8b7d 053d 231a ba3d 081e 823d e48b 663e
00000390: a6e8 f5bc 03af 063e a5b7 ac3d c138 693e
000003a0: 8166 70bb a4fc da3d f34a d63d f914 6f3e
000003b0: 7a36 84bd 9281 603b 656a 103c 1b60 d7bd
000003c0: aabd 6e3b 5650 16bd d286 8b3c c824 a6bd
000003d0: 2fee d5bc fae7 2dbd 86aa bebd 1af2 cebd
000003e0: 70c1 2dbe 434f 98be 3cf3 48be 675a c8bc
000003f0: cdd5 953d e6e0 943e 703d cd3d 535a 7c3d

0.bias f4 [100]
0.0820299 0.021978498 0.0064543607 0.031615235 0.12157571 0.09736877 -0.07516243 0.020985117
-0.20224404 -0.38295525 -0.11407834 -0.11502547 0.026391156 0.035631273 -0.043056242 0.087168686
0.003938048 -0.011298172 0.23552167 0.1933894 0.35479575 -0.07380539 -0.05696477 0.374095
0.072335966 0.01080948 0.045471013 0.18056966 -0.10080137 -0.014244757 0.08175668 -0.13919552
-0.012849216 -0.0073833694 0.0035917829 -0.21221492 -0.11422151 -0.23452981 -0.02498145 -0.034193195
-0.011737258 -0.11224734 -0.025033351 -0.015438533 0.021651365 -0.040999215 0.0017583279 -0.32884783
-0.038232356 -0.16211997 -0.21855453 0.20858131 -0.024563925 0.21768259 -0.025227083 -0.14874639
-0.03960374 0.17121412 -0.020945223 -0.014480379 -0.004648388 -0.14664951 -0.15505065 -0.015620714
0.046700306 -0.05682617 -0.009585552 -0.016363135 -0.3310819 0.10692529 -0.50580996 0.022507839
-0.22657351 0.025009412 -0.0014309408 -0.08808401 -0.021659298 -0.428501 -0.028999262 -0.11987185
0.024861475 0.054265752 0.15352675 0.051510915 -0.030612323 0.1547191 0.13981518 -0.15720005
0.0077164927 0.009891992 0.12370204 -0.028302524 -0.081617124 0.010777041 -0.018853078 -0.34387857
-0.11980055 0.19250472 -0.14437877 0.036278334
00000000: 4bff a73d 400c b43c 1a7f d33b fa7e 013d
00000010: b0fc f83d 4769 c73d c3ee 99bd fbe8 ab3c
00000020: 1019 4fbe b612 c4be e8a1 e9bd 7992 ebbd
00000030: 4432 d83c 19f2 113d be5b 30bd 7f85 b23d
00000040: be0a 813b f81b 39bc 982c 713e df07 463e
00000050: caa7 b53e 4827 97bd e453 69bd 6189 bf3e
00000060: e124 943d 3f1a 313c d03f 3a3d 41e7 383e
00000070: f370 cebd d762 69bc 0c70 a73d 4589 0ebe
00000080: 8585 52bc 31f0 f1bb 1e64 6b3b de4e 59be
00000090: f8ec e9bd 9528 70be e6a5 ccbc 2a0e 0cbd
000000a0: a14d 40bc efe1 e5bd be12 cdbc e7f1 7cbc
000000b0: 345e b13c cbee 27bd b277 e63a be5e a8be
000000c0: 8899 1cbd c702 26be c2cc 5fbe 5796 553e
000000d0: 493a c9bc 2fe8 5e3e 07a9 cebc f950 18be
000000e0: 8837 22bd c152 2f3e 5195 abbc 1d3f 6dbc
000000f0: 8151 98bb 4a2b 16be 99c5 1ebe 06ee 7fbc
00000100: d248 3f3d 8fc2 68bd b80c 1dbc fb0b 86bc
00000110: 9183 a9be a5fb da3d c37c 01bf 5c62 b83c
00000120: e302 68be 8ae0 cc3c 688e bbba 6465 b4bd
00000130: d76e b1bc 7c64 dbbe dc8f edbc 5f7f f5bd
00000140: 4baa cb3c c445 5e3d 1e36 1d3e 1cfd 523d
00000150: b2c6 fabc af6e 1e3e b62b 0f3e 0df9 20be
00000160: a2da fc3b 0612 223c 7f57 fd3d b2da e7bc
00000170: e126 a7bd 3092 303c c571 9abc da10 b0be
00000180: fe59 f5bd f51f 453e 07d8 13be 9798 143d

2.weight f4 [100, 100]
-0.15686041 -0.08996542 -0.018392587 -0.051309373 0.006523966 0.13564996 0.07360175 -0.031420957
0.17151469 0.0296505 0.019766744 0.18541387 -0.12746562 0.00956959 -0.036008503 0.12909405
0.02704366 -0.007438862 0.12083102 0.13133307 -0.10807674 0.11448914 0.07827266 -0.15873498
0.04345307 0.08098791 -0.120246604 -0.01946358 0.14087947 0.37296897 -0.055214893 -0.043190252
0.05012796 -0.08019882 0.12260651 -0.069324255 -0.14720644 0.032174475 -0.06559449 -0.035072137
0.058151722 -0.12225417 0.02395382 -0.09640377 -0.041126084 0.041414138 0.023086155 0.06245641
0.17426223 0.06073945 0.16358629 0.089971244 -0.06609688 -0.2475916 -0.028256191 -0.13813743
0.03600119 -0.13272966 -0.08776114 -0.06771656 0.07795997 0.13221428 0.0551678 -0.106879406
0.20662682 -0.15046394 -0.06839467 0.059305407 0.21062763 0.018517785 0.10161487 0.22246227
-0.15928616 -0.1831803 0.09045215 0.013987376 0.004408169 -0.004315886 0.028872252 0.009801348
0.053078976 0.21303691 0.109433204 0.103837796 0.10314927 0.081133746 -0.14962645 0.04410692
-0.013745571 -0.059492756 0.0057351612 -0.04629766 0.13734432 0.072837405 0.41585267 0.06893822
0.06089012 -0.37328932 0.25255275 -0.22622034 0.07552369 -0.019648567 -0.08816602 0.09076403
0.20477061 -0.11205284 0.29778948 -0.101288214 0.11710731 -0.04880689 0.07018824 -0.035965238
-0.013591649 -0.048906285 0.1542592 -0.16620845 0.07285987 -0.031039739 0.13500263 0.141569
-0.21724461 0.1437687 -0.17059946 0.14091517 0.05253587 -0.031116761 -0.06626675 0.14219964
0.12745097 -0.31087697 -0.084935695 0.0897614 0.036141805 0.06812786 -0.016051922 -0.02708972
-0.0004976009 -0.12787943 0.030988013 0.020015476 0.056363672 -0.068903364 -0.002474059 0.025883436
0.02457769 -0.1438564 -0.029725501 0.07312311 0.22710313 -0.098178744 -0.07025641 -0.07990375
-0.037694294 0.05169247 0.14014998 -0.04554799 0.051539775 -0.0076058228 0.016165681 0.005447076
0.104213126 0.004241004 0.1078401 0.17337152 0.020923896 -0.063606486 0.0042334963 0.018256871
-0.20247044 -0.03378649 0.012921554 0.011281646 0.10428614 0.07682322 -0.047598936 -0.019171055
-0.0905753 0.12419972 -0.039458748 -0.17897768 0.061164036 -0.050464053 -0.077495985 -0.13191983
-0.07909943 0.08225801 0.14363444 0.019656576 0.00853887 -0.06924021 0.25468335 0.061682776
0.0679518 0.043386035 -0.21827506 0.03013143 0.05290138 0.22125608 -0.11293357 0.23439032
-0.006411774 -0.07628627 0.062403597 0.08789571 -0.062171448 -0.052283015 0.056962155 -0.09564507
0.026725627 -0.0076242853 -0.003945563 -0.12252075 -0.06510922 -0.07458167 -0.06990722 -0.074485615
-0.0060986998 -0.07570871 -0.09434843 0.08213636 -0.03658864 -0.08086951 0.09603661 0.031844076
0.03812408 0.01045903 -0.029408338 0.0364009 0.042900965 -0.09325417 0.022597557 0.027574012
0.08855963 -0.07789059 -0.1020628 -0.0040781205 -0.06870706 -0.055851143 -0.026480794 -0.041659962
-0.053957332 -0.03260469 -0.06863715 -0.060021568 0.07358197 -0.026679426 0.079002894 -0.12403211
-0.037958983 0.0024361513 0.0039433367 -0.02519517 0.04349457 0.06102498 -0.06192191 -0.014419669
00000000: 04a0 20be ca3f b8bd 0dac 96bc c729 52bd
00000010: fec6 d53b d3e7 0a3e 84bc 963d 43b3 00bd
00000020: 8ca1 2f3e 9be5 f23c deed a13c 22dd 3d3e
00000030: 5986 02be c5c9 1c3c a77d 13bd 3b31 043e
00000040: aa8a dd3c b3c1 f3bb 4176 f73d 2d7c 063e
00000050: 5657 ddbd 4879 ea3d 6b4d a03d 6c8b 22be
00000060: d9fb 313d fddc a53d da43 f6bd 1672 9fbc
00000070: b542 103e caf5 be3e 0329 62bd 43e8 30bd
00000080: fa52 4d3d 473f a4bd 1f19 fb3d e0f9 8dbd
00000090: 49bd 16be 62c9 033d 6756 86bd cda7 0fbd
000000a0: 8030 6e3d 6560 fabd cd3a c43c 576f c5bd
000000b0: d373 28bd dfa1 293d 2d1f bd3c 4bd2 7f3d
000000c0: cc71 323e eec9 783d 2a83 273e d842 b83d
000000d0: cd5d 87bd a788 7dbe 8779 e7bc e673 0dbe
000000e0: fc75 133d 49ea 07be 1dbc b3bd fbae 8abd
000000f0: 7aa9 9f3d 2e63 073e a2f7 613d 97e3 dabd
00000100: fb95 533e 3813 1abe 8112 8cbd 3aea 723d
00000110: c5ae 573e 9cb2 973c 751b d03d 26cd 633e
00000120: e91b 23be 9e93 3bbe fa3e b93d 4f2b 653c
00000130: 6772 903b 476c 8dbb 8085 ec3c d595 203c
00000140: 5769 593d 5926 5a3e 841e e03d e9a8 d43d
00000150: ed3f d33d 7329 a63d ad37 19be 75a9 343d
00000160: 1a35 61bc adae 73bd 05ee bb3b 9da2 3dbd
00000170: fda3 0c3e c72b 953d a4ea d43e 7b2f 8d3d
00000180: eb67 793d c71f bfbe 984e 813e 4ea6 67be
00000190: 2aac 9a3d 08f6 a0bc 6390 b4bd 7ee2 b93d
000001a0: 63af 513e f67b e5bd dd77 983e 3270 cfbd
000001b0: f5d5 ef3d bce9 47bd dabe 8f3d 4950 13bd
000001c0: 82af 5ebc f551 48bd 20f6 1d3e 8c32 2abe
000001d0: 8e37 953d 0d47 febc 213e 0a3e 77f7 103e
000001e0: 5f75 5ebe 1a38 133e a0b1 2ebe 114c 103e
000001f0: da2f 573d 94e8 febc ddb6 87bd c89c 113e
00000200: 8282 023e 442b 9fbe c4f2 adbd d3d4 b73d
00000210: 6e09 143d 9f86 8b3d 527f 83bc 43eb ddbc
00000220: 6e71 02ba d3f2 02be 93da fd3c 7ff7 a33c
00000230: 98dd 663d 351d 8dbd d223 22bb 8009 d43c
00000240: 2757 c93c 184f 13be e582 f3bc 92c1 953d
00000250: b98d 683e f011 c9bd 98e2 8fbd 94a4 a3bd
00000260: 5565 1abd 7cbb 533d 7a83 0f3e 8790 3abd
00000270: 5f1b 533d 443a f9bb e46d 843c 637d b23b
00000280: b16d d53d 1ff8 8a3b 45db dc3d 4e88 313e
00000290: 9768 ab3c 1e44 82bd 24b9 8a3b 6f8f 953c
000002a0: 6954 4fbe b463 0abd edb4 533c a7d6 383c
000002b0: f993 d53d 7e55 9d3d 1af7 42bd 9e0c 9dbc
000002c0: 8b7f b9bd 6c5c fe3d 7f9f 21bd ed45 37be
000002d0: 2487 7a3d 65b3 4ebd 37b6 9ebd fe15 07be
000002e0: e2fe a1bd e376 a83d e814 133e d406 a13c
000002f0: 9ee6 0b3c d0cd 8dbd db65 823e 14a7 7c3d
00000300: 502a 8b3d 8eb5 313d 7f83 5fbe 30d6 f63c
00000310: 1eaf 583d f490 623e b749 e7bd 0404 703e
00000320: dc19 d2bb fa3b 9cbd ea9a 7f3d aa02 b43d
00000330: 7da7 7ebd b726 56bd 2651 693d 90e1 c3bd
00000340: b4ef da3c 24d5 f9bb c849 81bb 29ec fabd
00000350: fc57 85bd 46be 98bd 842b 8fbd ea8b 98bd
00000360: 9ad7 c7bb 2b0d 9bbd c039 c1bd 1c37 a83d
00000370: f8dd 15bd ea9e a5bd d8ae c43d ef6e 023d
00000380: ff27 1c3d 5a5c 2b3c c1e9 f0bc 1c19 153d
00000390: ecb8 2f3d 0bfc bebd 831e b93c e5e2 e13c
000003a0: c05e b53d 1a85 9fbd 4d06 d1bd c1a1 85bb
000003b0: 49b6 8cbd 2bc4 64bd 40ee d8bc a3a3 2abd
000003c0: 5d02 5dbd 7f8c 05bd a291 8cbd 2dd9 75bd
000003d0: 25b2 963d d08e dabc 45cc a13d 8c04 febd
000003e0: e17a 1bbd d6a7 1f3b 1b37 813b 1a66 cebc
000003f0: 5d27 323d 54f5 793d d4a1 7dbd 7a40 6cbc

2.bias f4 [100]
0.061484873 0.18421936 -0.098812245 0.3684738 -0.08598903 0.03781804 0.015828364 0.24245247
0.17518169 -0.06130091 0.24932307 0.13815941 0.15430973 0.012929489 -0.36324793 -0.05400198
0.2696457 0.15424748 -0.019543665 0.06234246 0.05377297 -0.11797541 -0.02467583 0.098551154
-0.03361456 -0.05810427 0.03270183 -0.26877278 -0.030941729 -0.3381117 0.11026959 -0.13390988
-0.14176175 -0.35292602 0.3880438 0.19774227 -0.013591743 -0.1100056 -0.06986726 0.07632159
-0.0834217 -0.047189876 -0.081340134 0.19055419 -0.20979892 0.24326643 -0.13173804 -0.024956059
-0.28346097 0.044845633 -0.3826109 -0.1327291 0.47384575 0.13233635 -0.06842774 0.23448294
-0.1555745 0.41322958 0.72389925 0.020254876 0.59290314 0.29324177 0.28074217 -0.021367403
-0.13851056 -0.14290132 -0.011593898 -0.3070613 -0.24236923 -0.2127085 -0.075727984 -0.254672
-0.3164703 -0.30719268 -0.042187274 -0.0066355 0.030999923 0.057037175 -0.09135665 0.33286604
-0.2622076 -0.12987208 -0.3486592 -0.1633454 0.08823934 0.29506162 -0.35140023 0.05096909
0.11823627 -0.32323548 0.011759284 0.51474285 -0.34119368 -0.0757435 -0.11578534 -0.10747818
0.13205892 -0.11429979 -0.17018205 -0.035273425
00000000: 90d7 7b3d 00a4 3c3e 135e cabd 99a8 bc3e
00000010: 041b b0bd 17e7 1a3d 7caa 813c 7645 783e
00000020: d462 333e aa16 7bbd 8c4e 7f3e a979 0d3e
00000030: 5f03 1e3e 35d6 533c a2fb b9be 2e31 5dbd
00000040: 000f 8a3e 0df3 1d3e 091a a0bc cf5a 7f3d
00000050: 0c41 5c3d 179d f1bd f724 cabc 30d5 c93d
00000060: 6caf 09bd befe 6dbd 5bf2 053d 969c 89be
00000070: 8279 fdbc fa1c adbe 06d5 e13d ac1f 09be
00000080: fe29 11be b8b2 b4be adad c63e f37c 4a3e
00000090: e7af 5ebc 9e4a e1bd 9116 8fbd 7e4e 9c3d
000000a0: ffd8 aabd 2c4a 41bd a895 a6bd a320 433e
000000b0: 87d5 56be d61a 793e 56e6 06be a670 ccbc
000000c0: cc21 91be 0eb0 373d 93e5 c3be 23ea 07be
000000d0: e99b f23e 2e83 073e d823 8cbd 4c1c 703e
000000e0: ec4e 1fbe d492 d33e 7651 393f 8eed a53c
000000f0: 80c8 173f c923 963e 70bd 8f3e b10a afbc
00000100: b6d5 0dbe b954 12be 55f4 3dbc 2437 9dbe
00000110: a42f 78be 42d0 59be 4617 9bbd 5e64 82be
00000120: 6508 a2be 5c48 9dbe 90cc 2cbd 9c6e d9bb
00000130: 8df3 fd3c d09f 693d 3219 bbbd 6b6d aa3e
00000140: 1340 86be 30fd 04be 7583 b2be 0444 27be
00000150: d4b6 b43d 5112 973e bbea b3be f7c4 503d
00000160: dc25 f23d 1f7f a5be 03aa 403c 30c6 033f
00000170: f0b0 aebe 681f 9bbd dd20 edbd 851d dcbd
00000180: 743a 073e 0216 eabd 3444 2ebe de7a 10bd

4.weight f4 [100, 100]
-0.11524895 0.11644153 -0.09524566 -0.27862653 -0.036493573 -0.02925733 0.1079755 0.07816032
0.03902779 -0.19510785 -0.11205129 0.048747793 -0.038358185 0.111982934 -0.044512168 0.048800644
-0.07431777 -0.099148184 -0.12434158 -0.047467414 0.13169158 -0.3223761 -0.210676 0.12963122
0.05559188 0.02499471 0.098486565 -0.07711763 0.05140065 0.09964864 0.2702647 0.03233188
-0.008255474 0.04298524 0.18165585 0.090500645 0.10846806 0.014947969 0.0806589 0.1757506
0.050149675 -0.060921613 0.014708245 0.1921935 -0.28854364 -0.039379317 0.1633751 0.02850068
-0.25393566 0.012185572 0.01510188 -0.0959175 0.11170031 -0.050481033 0.007808447 0.1394084
-0.15492596 0.17916231 0.07537215 0.06871433 0.24686925 0.20161319 0.09625792 0.12851843
-0.12082001 0.16601084 -0.013946934 -0.21210662 -0.15044685 -0.14767091 0.024753438 -0.011915028
0.10578572 -0.15615478 -0.089980245 0.009537614 -0.107017875 -0.077669464 -0.022931773 0.031243121
0.11032167 0.054256294 0.16160285 -0.17300649 0.030802617 0.113293864 -0.13085912 0.11283326
0.36650357 -0.12985301 -0.07658017 0.285451 0.037245058 -0.07280027 -0.14383534 0.0583737
0.0030438988 -0.2043906 -0.32715115 -0.029412294 -0.19158378 0.15923575 -0.03861194 -0.13531838
-0.003282118 -0.027227731 -0.32904783 -0.015366759 -0.067036785 0.047791254 -0.18666728 0.14290152
0.13939515 -0.00071517867 -0.15275031 0.04453228 0.08766469 0.14258772 0.0882732 -0.059028223
-0.072352946 -0.05426091 0.07290045 0.0512261 -0.3017905 -0.017807199 0.056518074 0.0021671366
-0.047445145 0.17800765 0.23678745 -0.08276038 0.12753806 0.1368985 -0.061590306 -0.077577
-0.037987094 -0.002794455 0.091771804 0.03666318 -0.009477689 0.08764695 -0.09949476 -0.14269084
-0.09736951 -0.035004023 -0.19989726 -0.04748266 0.13665734 -0.00016222522 0.17020676 0.0077383164
-0.025577102 0.15018031 -0.04460434 -0.010094328 -0.20225841 0.24003732 -0.003759412 0.2814997
0.050979048 0.07136237 -0.061872907 0.13387498 -0.09789597 0.1956744 -0.030324658 -0.078682795
0.0032954323 -0.021168452 -0.03793151 -0.02235742 0.051732063 0.0038416875 -0.0057462812 -0.0093858745
0.12768412 -0.05080047 -0.041723736 0.0698166 0.085527204 0.1731509 -0.061382808 -0.082383454
-0.31592938 -0.07144764 0.15062276 -0.033016305 -0.23819347 0.08655826 -0.1812783 0.40956366
0.17664655 0.02295372 -0.0029336722 -0.106184416 0.17600034 -0.013176226 -0.06873211 0.087524675
0.036137044 -0.006033402 -6.881952e-05 -0.101768695 -0.0319964 -0.08951696 -0.06759112 -0.05673326
-0.0902734 -0.09881891 0.032219637 -0.08972869 0.020147696 -0.05721971 -0.023708908 -0.12686811
-0.113664865 -0.10723936 0.03716233 -0.12399269 -0.071018234 -0.073675126 0.028895266 0.00029064275
-0.105986804 -0.030016482 -0.04082502 -0.0876539 0.07435904 -0.0074176537 -0.11853389 0.06848271
0.068637975 0.020557258 0.058913037 -0.005625077 0.012876415 -0.09267404 -0.06962333 -0.0026148101
0.03136597 -0.08739709 0.09838883 -0.027825322 -0.07952162 -0.06922414 -0.07803273 0.0090602515
-0.03721968 0.077710725 -0.0331883 -0.019528948 -0.11397977 -0.0993723 0.081890285 -0.095466554
00000000: a407 ecbd e678 ee3d 2810 c3bd 23a8 8ebe
00000010: 497a 15bd 11ad efbc 4222 dd3d 8512 a03d
00000020: 9bdb 1f3d 5aca 47be 267b e5bd c4ab 473d
00000030: 791d 1dbd 4f57 e53d 6452 36bd 2fe3 473d
00000040: ea33 98bd 340e cbbd cca6 febd 316d 42bd
00000050: 28da 063e 7b0e a5be 73bb 57be 0cbe 043e
00000060: 50b4 633d b5c1 cc3c 53b3 c93d d9ef 9dbd
00000070: 7d89 523d 9614 cc3d 2260 8a3e 6f6e 043d
00000080: f841 07bc 4b11 303d fe03 3a3e 6758 b93d
00000090: 8124 de3d 53e8 743c 7e30 a53d f7f7 333e
000000a0: bf69 4d3d f188 79bd dafa 703c 5fce 443e
000000b0: febb 93be 354c 21bd cd4b 273e 427a e93c
000000c0: db03 82be fea5 473c e06d 773c 6570 c4bd
000000d0: 22c3 e43d 33c5 4ebd 00de ff3b 13c1 0e3e
000000e0: e9a4 1ebe 5376 373e b75c 9a3d 19ba 8c3d
000000f0: 4bcb 7c3e b073 4e3e df22 c53d 569a 033e
00000100: 7b70 f7bd bffe 293e ae81 64bc 7a32 59be
00000110: bd0e 1abe 0b37 17be b9c7 ca3c 4037 43bc
00000120: 2fa6 d83d 0ae7 1fbe 9047 b8bd a743 1c3c
00000130: 302c dbbd 2b11 9fbd 6adb bbbc 93f1 ff3c
00000140: 54f0 e13d d93b 5e3d 387b 253e 9d28 31be
00000150: c555 fc3c 9d06 e83d efff 05be 2015 e73d
00000160: 5ba6 bb3e 30f8 04be 10d6 9cbd a226 923e
00000170: 468e 183d 4f18 95bd 9249 13be 4319 6f3d
00000180: 267c 473b c54b 51be 5b80 a7be 0df2 f0bc
00000190: 8a2e 44be b20e 233e 8e27 1ebd e790 0abe
000001a0: cd18 57bb b10c dfbc f578 a8be dcc4 7bbc
000001b0: 954a 89bd c3c0 433d b525 3fbe c754 123e
000001c0: 9abd 0e3e d47a 3bba 946a 1cbe 7b67 363d
000001d0: 8c89 b33d 8402 123e 94c8 b43d 94c7 71bd
000001e0: c82d 94bd b040 5ebd d54c 953d 76d2 513d
000001f0: 4984 9abe 67e0 91bc 7f7f 673d 8506 0e3b
00000200: d755 42bd a347 363e 6978 723e 467e a9bd
00000210: 5699 023e 1f2f 0c3e 1e46 7cbd b1e0 9ebd
00000220: 5b98 1bbd 2d23 37bb dbf2 bb3d 212c 163d
00000230: 4f48 1bbc 3e80 b33d e9c3 cbbd 8c1d 12be
00000240: aa69 c7bd 6160 0fbd deb1 4cbe 2d7d 42bd
00000250: e7ef 0b3e 001b 2ab9 ae4a 2e3e b491 fd3b
00000260: 1287 d1bc dec8 193e 0ab3 36bd ae62 25bc
00000270: d41c 4fbe 58cc 753e 7860 76bb bb20 903e
00000280: 68cf 503d 6f26 923d 726e 7dbd 8616 093e
00000290: af7d c8bd df5e 483e 6b6b f8bc 7224 a1bd
000002a0: 2ef8 573b 7669 adbc 125e 1bbd e826 b7bc
000002b0: 00e5 533d d2c4 7b3b 4d4b bcbb 36c7 19bc
000002c0: a0bf 023e 2714 50bd 82e6 2abd 01fc 8e3d
000002d0: e328 af3d 784e 313e 8a6c 7bbd a8b8 a8bd
000002e0: 7fc1 a1be 2453 92bd da3c 1a3e 1b3c 07bd
000002f0: fde8 73be 7545 b13d 05a1 39be 54b2 d13e
00000300: d5e2 343e 7109 bc3c da42 40bb 3777 d9bd
00000310: 6f39 343e 19e1 57bc 6cc3 8cbd 2340 b33d
00000320: 7004 143d d8b3 c5bb 3353 90b8 1b6c d0bd
00000330: a80e 03bd ab54 b7bd 376d 8abd 2361 68bd
00000340: 43e1 b8bd 9261 cabd bdf8 033d adc3 b7bd
00000350: c80c a53c 375f 6abd 2f39 c2bc b7e9 01be
00000360: 20c9 e8bd 4fa0 dbbd 8737 183d e1ef fdbd
00000370: 0272 91bd fce2 96bd c4b5 ec3c 6961 9839
00000380: 9c0f d9bd 20e5 f5bc 2338 27bd e383 b3bd
00000390: 8d49 983d ca0f f3bb e5c1 f2bd aa40 8c3d
000003a0: 1192 8c3d b267 a83c cc4e 713d 9152 b8bb
000003b0: 99f7 523c e3cb bdbd ad96 8ebd 3c5d 2bbb
000003c0: 9a79 003d 3ffd b2bd 1580 c93d eef1 e3bc
000003d0: 3bdc a2bd 63c5 8dbd a0cf 9fbd 7371 143c
000003e0: aa73 18bd cd26 9f3d 74f0 07bd 2cfb 9fbc
000003f0: 3a6e e9bd b483 cbbd 18b6 a73d f883 c3bd

4.bias f4 [100]
0.28880832 -0.020073932 -0.0637123 -0.017149728 0.20676993 0.14572169 0.12932287 0.031180225
-0.10022595 0.1984594 0.059447803 0.0026481908 -0.086504385 -0.07064188 -0.03255247 0.35875767
-0.15266517 0.010417592 -0.058837373 0.13270748 0.38082293 0.0921836 0.013124576 -0.005126749
-0.03738221 0.19815777 0.11926525 -0.17080873 0.03064945 -0.2706728 0.1117582 -0.38506326
0.015277538 0.22230835 0.12829778 -0.15417416 -0.28940734 0.2704637 0.7316156 -0.21653134
-0.0061739665 -0.02154495 0.10990099 0.18929619 0.12630267 0.1526446 -0.027320098 -0.07613919
0.2978884 -0.075889744 -0.29902884 -0.14830643 0.08651591 0.097883716 -0.17038777 0.18983527
0.021284442 -0.18945608 -0.100202896 -0.12283331 -0.016251331 0.09212755 0.10521354 -0.016133174
-0.23777896 -0.27709648 0.10492845 0.113243535 -0.05812975 0.16779356 0.22027603 0.48630005
-0.25715622 0.032529064 0.01790549 -0.09221816 -0.05358227 0.011661513 -0.13855155 0.1453627
0.16001275 -0.103935786 -0.13468355 -0.35518613 -0.0013122099 -0.005222437 0.09463136 -0.028178181
0.040653344 0.013468011 -0.09487622 0.36493737 0.35701546 -0.06447148 0.3082676 0.38008177
0.12886369 0.09569263 -0.19747084 -0.030588914
00000000: afde 933e 1672 a4bc 987b 82bd 967d 8cbc
00000010: 7fbb 533e 1138 153e 376d 043e ac6d ff3c
00000020: 4343 cdbd f138 4b3e 8a7f 733d 458d 2d3b
00000030: 3629 b1bd b1ac 90bd bd55 05bd 16af b73e
00000040: 4254 1cbe 8cae 2a3c 75ff 70bd 78e4 073e
00000050: 39fb c23e c1ca bc3d 7608 573c 4afe a7bb
00000060: 171e 19bd dfe9 4a3e 5741 f43d 7ce8 2ebe
00000070: 8e14 fb3c a095 8abe 7ce1 e43d 0327 c5be
00000080: a44e 7a3c cda4 633e 7e60 033e d5df 1dbe
00000090: 332d 94be 387a 8a3e 294b 3b3f 64ba 5dbe
000000a0: fc4e cabb 097f b0bc c513 e13d dcd6 413e
000000b0: 7d55 013e de4e 1c3e 66ce dfbc ddee 9bbd
000000c0: d484 983e 156c 9bbd 4f1a 99be a4dd 17be
000000d0: 412f b13d 4277 c83d 227a 2ebe 2d64 423e
000000e0: b65c ae3c c600 42be 2d37 cdbd 0890 fbbd
000000f0: 8321 85bc 5ead bc3d 327a d73d b829 84bc
00000100: 547c 73be 97df 8dbe bae4 d63d 3aec e73d
00000110: 7619 6ebd 13d2 2b3e 0a90 613e 52fc f83e
00000120: fba9 83be 323d 053d 89ae 923c e0dc bcbd
00000130: 1579 5bbd ee0f 3f3c 75e0 0dbe f6d9 143e
00000140: 62da 233e 49dc d4bd 7cea 09be f5da b5be
00000150: 75fe abba fa20 abbb 16ce c13d eed5 e6bc
00000160: 1f84 263d efa8 5c3c 774e c2bd 12d9 ba3e
00000170: bbca b63e a009 84bd 40d5 9d3e 149a c23e
00000180: d8f4 033e 7ffa c33d cc35 4abe 9a95 fabc

6.weight f4 [157, 100]
-0.18456371 0.057518125 0.004633003 0.0136354035 0.026476366 -0.073301345 0.029249713 -0.03819436
0.06485077 -0.1162449 -0.08968579 0.0037237743 0.0049669403 0.05329435 -0.036342382 0.06891424
-0.26046976 0.06269383 -0.12154367 -0.0261526 0.0943648 -0.24700207 -0.5070874 -0.13688856
-0.02069004 -0.35767493 -0.004533614 0.045987047 0.012028466 -0.017931541 0.054806944 0.003012677
0.009675238 -0.1643105 -0.12935725 0.21891978 0.12144341 -0.27307492 -0.021016134 0.0650794
-0.016577225 0.039106295 0.045298394 -0.14463598 0.103809945 -0.14471738 -0.018780109 0.063250564
-0.33033293 -0.14645462 -0.00806307 0.08324117 -0.00821169 0.0006271363 -0.05858385 -0.24263623
-0.035443425 -0.13248852 0.24103498 0.0591119 -0.018481875 0.0777088 -0.0009594229 0.08280273
-0.060524497 0.00024705933 0.010578228 0.032320566 -0.08246833 0.12909344 0.08871966 0.031073652
-0.110607535 0.1621737 -0.054661777 0.07010976 -0.013385455 -0.072382994 -0.015254693 -0.17957717
-0.005868156 -0.09201669 0.06944245 0.010825255 0.072933696 0.092192434 0.04896274 -0.03696396
-0.046038598 -0.10776635 0.04420163 -0.16904137 0.084850155 0.0066230274 -0.051462427 0.15613729
0.004940686 0.09288569 -0.03643935 0.12338476 0.033807706 0.009294052 0.017050473 -0.078073956
0.16186212 -0.17775217 -0.23850362 -0.04265756 -0.08809172 0.1686933 -0.07970731 -0.036872134
-0.0976092 -0.19688572 0.11568613 -0.016441671 0.14683384 -0.30994645 0.26979744 0.033287916
0.08206568 -0.028463582 0.1366975 -0.09120143 0.09134822 -0.5130688 -0.36861607 0.049025763
0.109261245 -0.061453234 -0.085359365 -0.12205217 -0.0064142165 0.04470237 -0.3880065 -0.13618743
0.14758892 -0.12487635 -0.23832317 -0.5165737 -0.17357032 -0.059014626 -0.36293644 0.11953433
-0.0009486657 0.08219435 0.009687967 0.031320445 0.07727375 -0.02604773 -0.13052887 0.13297434
0.04251339 -0.3928803 0.12711447 0.024880046 0.013417655 0.06558779 -0.04414642 0.033330508
0.21636863 0.12804767 -0.087877154 -0.04684393 0.24745786 -0.25662833 -0.014153276 0.13791354
-0.084257126 -0.07305684 -0.2928837 0.22224788 0.034464028 -0.1377505 0.09882542 -0.046025947
0.13658306 0.11908965 -0.013318642 0.15405849 -0.3207035 0.13689275 0.003180544 -0.015027749
0.043216802 0.009474532 -0.38393012 -0.0036667576 0.11860718 -0.009264618 -0.056541406 0.040327605
-0.010644672 -0.0835646 0.012717799 0.10903519 0.12087515 0.07176753 0.0055903005 -0.018906584
-0.3942668 -0.001988569 -0.081463955 -0.028678112 -0.46767092 0.2728504 0.03648712 0.042810045
0.065728895 -0.08584783 0.056651752 0.04347641 0.16854447 -0.2799868 0.071597666 0.042696368
0.07336998 0.09909538 0.01926599 0.10336585 -0.009729679 0.12702866 0.07312706 -0.015891692
0.004586211 0.030526783 0.05490729 0.04517795 -0.031320773 0.03421163 -0.062185653 -0.005949843
0.02238513 -0.31463742 -0.030229101 0.13997805 -0.007944988 0.21985723 -0.07961373 -0.052695513
-0.03892884 -0.040468752 0.16904192 -0.07301157 0.20162977 -0.01881904 0.0052646017 -0.015488496
0.067385845 -0.1715577 -0.057512075 0.15406862 0.07015721 0.06730741 -0.14850706 -0.02942565
00000000: 45fe 3cbe 2098 6b3d 72d0 973b 0767 5f3c
00000010: f7e4 d83c 041f 96bd 189d ef3c b071 1cbd
00000020: 7bd0 843d ce11 eebd 2fad b7bd 910a 743b
00000030: b7c1 a23b 2d4b 5a3d c0db 14bd e922 8d3d
00000040: 4b5c 85be 9f65 803d e3eb f8bd fa3d d6bc
00000050: 5542 c13d 1cee 7cbe 7bd0 01bf 842c 0cbe
00000060: 297e a9bc 2b21 b7be b68e 94bb ea5c 3c3d
00000070: 0b13 453c 2be5 92bc 3f7d 603d 5570 453b
00000080: e484 1e3c 0341 28be 3a76 04be 822c 603e
00000090: 53b7 f83d 7ad0 8bbe 072a acbc 5948 853d
000000a0: f6cc 87bc ec2d 203d cf8a 393d 741b 14be
000000b0: 4f9a d43d cb30 14be bed8 99bc 8389 813d
000000c0: 6621 a9be 33f8 15be f71a 04bc 597a aa3d
000000d0: 538a 06bc 6866 243a 9ef5 6fbd a275 78be
000000e0: 202d 11bd 12ab 07be e0d1 763e 521f 723d
000000f0: 4d67 97bc cb25 9f3d c881 7bba 7a94 a93d
00000100: 89e8 77bd be87 8139 4e50 2d3c 9262 043d
00000110: 28e5 a8bd 1231 043e a7b2 b53d 2c8e fe3c
00000120: 3486 e2bd dd10 263e 07e5 5fbd b595 8f3d
00000130: ab4e 5bbc 893d 94bd d2ee 79bc 14e3 37be
00000140: a949 c0bb 3f73 bcbd d837 8e3d 695c 313c
00000150: 435e 953d 63cf bc3d 278d 483d 8567 17bd
00000160: f892 3cbd 9bb4 dcbd c50c 353d 2e19 2dbe
00000170: ebc5 ad3d fb05 d93b 44ca 52bd 74e2 1f3e
00000180: 7ae5 a13b da3a be3d 6e41 15bd 26b1 fc3d
00000190: f379 0a3d 1446 183c 6fad 8b3c 3de5 9fbd
000001a0: 2fbf 253e aa04 36be 4b3a 74be b2b9 2ebd
000001b0: 6f69 b4bd f0bd 2c3e 963d a3bd 3c07 17bd
000001c0: 55e7 c7bd 699c 49be daec ec3d afb0 86bc
000001d0: 9c5b 163e 4db1 9ebe e422 8a3e e958 083d
000001e0: 0d12 a83d 752c e9bc 6efa 0b3e d1c7 babd
000001f0: c714 bb3d 7a58 03bf 3fbb bcbe 3dcf 483d
00000200: 5cc4 df3d 63b6 7bbd e4d0 aebd 7df6 f9bd
00000210: 592e d2bb d519 373d caa8 c6be b874 0bbe
00000220: 8d21 173e 2cbf ffbd fd0a 74be 2d3e 04bf
00000230: 6bbc 31be 52b9 71bd ced2 b9be 6ace f43d
00000240: e1af 78ba 8355 a83d 47ba 1e3c de49 003d
00000250: b341 9e3d 0d62 d5bc 5ca9 05be 6d2a 083e
00000260: 8522 2e3d 9b27 c9be 4c2a 023e 3dd1 cb3c
00000270: b9d5 5b3c e452 863d e0d2 34bd 9285 083d
00000280: bd8f 5d3e ee1e 033e f0f8 b3bd 6cdf 3fbd
00000290: 9865 7d3e ca64 83be 24e3 67bc 3539 0d3e
000002a0: 008f acbd d39e 95bd daf4 95be f394 633e
000002b0: 272a 0d3d 780e 0dbe fb64 ca3d b485 3cbd
000002c0: 6edc 0b3e 46e5 f33d 6f36 5abc 82c1 1d3e
000002d0: 4033 a4be 9d2d 0c3e ac70 503b f336 76bc
000002e0: 1a04 313d 113b 1b3c 7d92 c4be fc4d 70bb
000002f0: 52e8 f23d a0ca 17bc f697 67bd 8f2e 253d
00000300: fe66 2ebc eb23 abbd 515e 503c d74d df3d
00000310: 648d f73d dbfa 923d d72e b73b fbe1 9abc
00000320: 57dd c9be a752 02bb 93d6 a6bd 5cee eabc
00000330: 9072 efbe 0cb3 8b3e 8573 153d 9659 2f3d
00000340: df9c 863d fdd0 afbd ab0b 683d 5214 323d
00000350: ec96 2c3e 6e5a 8fbe cca1 923d 63e2 2e3d
00000360: 0043 963d 85f2 ca3d b6d3 9d3c 7ab1 d33d
00000370: 3b69 1fbc cd13 023e a4c3 953d 4b2f 82bc
00000380: ed47 963b 4e13 fa3c 77e6 603d 840c 393d
00000390: 364a 00bd 7e21 0c3d 62b6 7ebd e7f6 c2bb
000003a0: 0561 b73c 2818 a1be 05a3 f7bc 6856 0f3e
000003b0: b22b 02bc 4122 613e 860c a3bd 40d7 57bd
000003c0: d973 1fbd 90c2 25bd 5319 2d3e 1787 95bd
000003d0: 0978 4e3e 632a 9abc ae82 ac3b 76c3 7dbc
000003e0: 9701 8a3d d2ac 2fbe c891 6bbd 2ac4 1d3e
000003f0: 95ae 8f3d 78d8 893d 3c12 18be 100e f1bc

6.bias f4 [157]
0.0770877 -0.08076458 0.1354001 -0.2577628 -0.104378045 -0.24551332 -0.049759697 0.015533774
-0.058109965 0.11780246 -0.12414454 0.033204433 -0.04220887 -0.3392422 -0.40407962 0.012227896
-0.033539165 0.16869791 -0.040278647 0.17669657 0.03329719 0.052822817 -0.18556301 0.33426273
-0.2499803 0.13819267 -0.0047441716 0.23737122 -0.27832192 0.1877105 -0.19950303 -0.019349214
-0.1350856 -0.04329868 0.078270085 0.11849866 0.043873407 0.32498914 0.097830124 -0.047618777
-0.29223233 -0.121602714 0.17457804 0.072048925 0.014717514 0.2746721 0.22820662 0.2220088
0.15795174 0.01657984 0.0052278275 0.22256021 -0.03486769 -0.03571664 0.07841496 0.10677224
-0.29628402 0.040388133 -0.01801658 -0.1507925 0.011994347 0.1887288 0.2937481 0.08623129
-0.11240578 -0.04104805 0.25534636 -0.11513966 -0.28966784 -0.075975224 0.016561043 0.13182004
0.1939036 -0.06564497 -0.12103816 -0.06668426 -0.105379656 -0.16410421 -0.09674307 -0.014957137
-0.09375944 -0.04478573 -0.2163375 0.122707404 0.12238104 0.19497283 0.03130167 0.30306682
0.24220674 -0.14326452 -0.3134798 0.30992416 -0.033339724 0.21941495 -0.059766438 -0.2853651
0.035573706 -0.09518109 -0.19737734 -0.04953607 0.15575036 0.09880393 -0.1063183 0.1996155
0.04130324 0.030435057 0.15623432 -0.058259394 -0.09295065 -0.020138571 -0.17503855 -0.121450566
0.040865052 -0.040825102 0.078245655 -0.21483171 -0.07172205 -0.024660368 -0.041695688 -0.08058105
0.11805352 0.43408406 -0.023531113 -0.20027727 0.157983 -0.17047463 -0.07370145 0.15234861
0.21244298 -0.12412172 -0.043006204 -0.0051241103 -0.18387906 -0.032367177 -0.10554509 -0.092322916
0.06855054 -0.12739974 -0.017620109 0.13033725 0.4633727 0.045662504 -0.28179905 0.023658045
-0.05641068 0.08037462 -0.27915666 0.12711024 -0.0134636825 0.12024467 -0.065900326 -0.3200822
-0.19957684 -0.12102513 -0.0059456546 0.07745428 0.124220245
00000000: 28e0 9d3d e667 a5bd 53a6 0a3e 7cf9 83be
00000010: 28c4 d5bd d867 7bbe d3d0 4bbd 5f81 7e3c
00000020: b704 6ebd 6b42 f13d 7e3f febd 5f01 083d
00000030: 35e3 2cbd 27b1 adbe 86e3 cebe 8357 483c
00000040: 5d60 09bd 25bf 2c3e 39fb 24bd f2ef 343e
00000050: a262 083d bd5c 583d 3b04 3ebe 7c24 ab3e
00000060: d6fa 7fbe 6182 0d3e ff74 9bbb 7111 733e
00000070: 3680 8ebe 2e37 403e 864a 4cbe 3e82 9ebc
00000080: e153 0abe f559 31bd 114c a03d 6daf f23d
00000090: 9ab4 333d fa64 a63e 295b c83d e80b 43bd
000000a0: 7a9f 95be d80a f9bd 96c4 323e 638e 933d
000000b0: ba21 713c d2a1 8c3e ffae 693e 4656 633e
000000c0: 1abe 213e 72d2 873c 324e ab3b d3e6 633e
000000d0: 6cd1 0ebd 9d4b 12bd 0698 a03d 67ab da3d
000000e0: 8ab2 97be 076e 253d 8297 93bc 5969 1abe
000000f0: f083 443c 1f42 413e 2766 963e 089a b03d
00000100: 0035 e6bd 0022 28bd c2bc 823e 58ce ebbd
00000110: 584f 94be e698 9bbd 06ab 873c d5fb 063e
00000120: aa8e 463e df70 86bd dbe2 f7bd c291 88bd
00000130: 4ad1 d7bd ef0a 28be 3b21 c6bd c80e 75bc
00000140: f304 c0bd 3e71 37bd 9487 5dbe 054e fb3d
00000150: e9a2 fa3d f5a6 473e 2e36 003d 932b 9b3e
00000160: 0b05 783e efb3 12be 6d80 a0be 61ae 9e3e
00000170: 3c8f 08bd 50ae 603e a7cd 74bd 601b 92be
00000180: bcb5 113d 4eee c2bd 491d 4abe 56e6 4abd
00000190: 067d 1f3e b759 ca3d 69bd d9bd 0168 4c3e
000001a0: 962d 293d f152 f93c e4fb 1f3e 67a1 6ebd
000001b0: e95c bebd a5f9 a4bc 4e3d 33be 13bb f8bd
000001c0: 1d62 273d 3938 27bd 423f a03d d8fc 5bbe
000001d0: 03e3 92bd 8a04 cabc 19c9 2abd ad07 a5bd
000001e0: 0bc6 f13d 4440 de3e 52c4 c0bc 7c15 4dbe
000001f0: 4cc6 213e e790 2ebe c9f0 96bd 4601 1c3e
00000200: a78a 593e 8733 febd 4627 30bd 27e8 a7bb
00000210: cb4a 3cbe 7293 04bd 0628 d8bd cc13 bdbd
00000220: 3a64 8c3d 1475 02be 0c58 90bc 2177 053e
00000230: 303f ed3e 9b08 3b3d f747 90be 84ce c13c
00000240: e30e 67bd 739b a43d 9fed 8ebe 3029 023e
00000250: c796 5cbc d642 f63d c0f6 86bd d0e1 a3be
00000260: df5d 4cbe 06dc f7bd c4d3 c2bb 59a0 9e3d
00000270: 2f67 fe3d
