neura1/e13_weights.ckpt (torch, 399055 bytes, 8 tensors)

0.weight f4 [100, 630]
00000000: 44ac 9f3c d751 a13c 9538 093c 772b bbbe
00000010: eccb 28be f4e1 2abe 8edf a6be d823 88bd
00000020: 9298 aebe 9f83 f7be 8e5f f0be d3aa e3bb
00000030: dd13 483d 091d e13e d600 55bc 49f2 89bd
00000040: 2575 5e3e f345 c93e c731 14be 3f77 113e
00000050: 9c20 5c3e 4029 bc3e bdfb 0abe 665f 113d
00000060: f964 8a3e 4c0e f63e 04fe 263c be6b 36bc
00000070: a679 843d c873 bfbe 5e5a c23b 1e05 26bd
00000080: 347b 453d 1b30 dcbd 0f3a 15be 02ea 39bd
00000090: 9ce2 2cbe 57b3 8dbc f078 24be dd92 9cbe
000000a0: 55a2 92be ddcb a9bd a282 21bd 057e 2f3e
000000b0: 979e 4fbc f19b 8abd e8ae 823d 4d7e 7d3e
000000c0: 56ff 1fbe a8c0 a83d d46d 963d a9f9 843e
000000d0: 0fe6 40be 936d 23bb 6a4e 2b3e c4f3 bb3e
000000e0: aaf5 a6bd b31e 72bd 96c7 073d b9d5 cbbe
000000f0: 721a 393c 5a01 5abc d9d4 353c d7d4 f1bd
00000100: 34ac 1dbe f5f7 1fbd a958 21be b8cf 273d
00000110: 687c 3ebe 5f17 8dbe 7a3a 67be 8c3a d2bd
00000120: 2def f6bb 96f4 713e 5fac 833d 4453 403c
00000130: acad 6b3d 280b 953e b7e1 aebd 4e1a 1d3e
00000140: bddc 833d ce6d 8b3e 3ec1 0fbe 205b bb3c
00000150: 9d81 5a3e f067 b43e 4465 e4bd 29fc c7bd
00000160: 4ddc dd3a 5bf4 adbe efda 9fbc 58fd b7bd
00000170: fa07 283c f3ef 9dbd 04ba cfbd e106 2bbd
00000180: 8ee6 16be 93a0 17bc 7245 35be 3f45 8abe
00000190: cac5 5bbe 25df adbd 6732 33bc 35f5 933e
000001a0: 8930 623d 2a0a 263d b92b a73d e418 893e
000001b0: 863e c3bd 3488 f03d df16 d23d 6adc 8e3e
000001c0: 535f 35be f30a 493d 567b 243e 4b63 913e
000001d0: d1e5 e4bd aeaa 88bd e67e 9fbc bfb1 c7be
000001e0: c675 adbc 49d3 aabd e979 9c3c 1011 92bd
000001f0: ad90 cdbd 5868 73bd ae42 26be 1cc6 82bb
00000200: d6b0 3bbe 7956 90be e0e0 76be 78b4 63bd
00000210: bcfd fd3c c173 a13e 0535 2b3d d086 bc3c
00000220: 35da e63d 24ad 9e3e b7ef 7cbd 44ea 213e
00000230: f9df 003e 6f34 9d3e 576b 0abe cc71 d03d
00000240: 8656 023e b2ff 973e 4b19 07be e18c 2fbd
00000250: 6cd0 333d 99ea c7be 6c64 003d e036 9fbd
00000260: a2cc 8e3c be24 d2bd fe09 8bbd f594 76bd
00000270: 6ff6 29be 3a48 2fbd f0f5 1fbe 1e02 96be
00000280: 17f7 56be 5fdc ffbc cbe5 7c3d 1133 9c3e
00000290: 055d 833d 46b0 6e3d 082d d83d 7443 a73e
000002a0: 24af edbd 729b 5e3e 67aa f13d 46ff 7a3e
000002b0: e439 e9bd f7c6 a7bc 5f0d 573e 56cd 9e3e
000002c0: badc 1cbe 6e3d cfbd c783 6e3d 392f b5be
000002d0: d5bb 283d 5c75 95bd 49f3 373d 2c65 c8bd
000002e0: 0e4f b5bb 4fac 9c3c 6836 0bbe d8fa e3bb
000002f0: 43ef 51be 7ee7 a6be b81b 66be 5912 c2bc
00000300: 9a9d 083d 25b0 a93e d2ca 773d 27fe 733d
00000310: c8f5 203e b461 8c3e e58f d7bd fbe0 643e
00000320: 3951 293e 9dac 963e 7793 0abe 0808 683c
00000330: 7946 5b3e ce61 963e 62f7 e5bd f19a e8bc
00000340: 0814 e53c 8942 bcbe 82c2 863b 4242 23bd
00000350: 648b f93b 1d27 9dbd fe18 92bd 8516 e3bc
00000360: c36f 2dbe b653 a3bd 8ce7 38be 832d a6be
00000370: bebd 5dbe bc45 8fbc f62f 2e3d ccc1 ba3e
00000380: f5b2 8e3d a041 ce3d 906e 0a3e d31a c83e
00000390: 1a89 f7bd 05d3 563e f2e2 0d3e 0d57 8e3e
000003a0: c54a d3bd 2936 fb3d 9991 3a3e 1e35 b23e
000003b0: fbf0 e4bd 97df c4bd 97de 3abc cd50 94be
000003c0: 9fd8 b63c 7d89 82bd 02c2 733c d699 e4bd
000003d0: e44b 04bd 8d7a bbbc e165 f8bd 785f 97bd
000003e0: 88fa 54be f065 9bbe d3a8 5ebe 334d 053d
000003f0: 7f4c 7d3d ba4f a23e dd38 0c3e f5ce c13d
0.019491322 0.019692345 0.008375307 -0.365566 -0.1648404 -0.16687757 -0.32592434 -0.06647462
-0.34100777 -0.48342606 -0.46947902 -0.006947854 0.048847068 0.43967465 -0.013000688 -0.06735665
0.21724375 0.3931118 -0.14472114 0.14205645 0.21496814 0.3675022 -0.13572593 0.03549137
0.2703016 0.48057783 0.010192398 -0.011134086 0.06468515 -0.37393022 0.0059311828 -0.040532224
0.0482132 -0.10751363 -0.14572929 -0.045389183 -0.1688332 -0.01729743 -0.16061759 -0.30580798
-0.28639475 -0.08290837 -0.03943122 0.17137916 -0.012672088 -0.06768025 0.06381017 0.24755211
-0.15624747 0.08239871 0.07345167 0.25971726 -0.1883776 -0.0024937137 0.16729131 0.36709416
-0.081523255 -0.05911131 0.033149324 -0.39811495 0.011297809 -0.013305986 0.01109811 -0.11808174
-0.15397722 -0.03905483 -0.15756477 0.04096958 -0.18602145 -0.27556893 -0.22580901 -0.10265073
-0.007535836 0.23628458 0.064293616 0.011738602 0.057538673 0.29110074 -0.085391454 0.15342066
0.06438587 0.27232212 -0.1403856 0.0228706 0.21338506 0.35235548 -0.111521274 -0.097648926
0.0016926617 -0.3397549 -0.019513575 -0.08983868 0.010255808 -0.07711782 -0.101429015 -0.041754607
-0.14736387 -0.0092545925 -0.17702273 -0.27005956 -0.2146217 -0.08489827 -0.01093731 0.28898016
0.055222068 0.040537037 0.08162636 0.26776803 -0.0953341 0.11744729 0.102582686 0.27902538
-0.17712145 0.049082708 0.16062674 0.28396067 -0.111766465 -0.066731796 -0.01946969 -0.39002797
-0.021174323 -0.08341081 0.0191011 -0.07132161 -0.1003736 -0.05942568 -0.16236374 -0.0039909016
-0.18329176 -0.28190973 -0.2410922 -0.05559203 0.031004779 0.31533626 0.04179861 0.023013502
0.112720884 0.3099147 -0.061752047 0.15812021 0.12585439 0.30704066 -0.1351751 0.10177955
0.12728319 0.29687268 -0.13193242 -0.042858962 0.04389994 -0.3904617 0.03134577 -0.077741385
0.01743156 -0.10260914 -0.06789015 -0.06020065 -0.16597913 -0.04279349 -0.15621161 -0.2929849
-0.20992695 -0.03123301 0.061742585 0.3050771 0.064142264 0.058273576 0.10555464 0.3266865
-0.11605671 0.21738985 0.1180008 0.24511442 -0.11387995 -0.020480616 0.21001194 0.31016034
-0.15318576 -0.10119139 0.05823114 -0.3538759 0.041194756 -0.07297775 0.04490975 -0.09784922
-0.0055331057 0.019125132 -0.13594973 -0.006957393 -0.20501427 -0.3259849 -0.22471511 -0.02369039
0.033353426 0.331422 0.06049616 0.05956855 0.15718758 0.27418292 -0.105254926 0.22351448
0.1653489 0.29428568 -0.13532816 0.014162071 0.21413602 0.29371494 -0.11228825 -0.028394194
0.027963653 -0.36769512 0.0041125426 -0.03985811 0.0076154936 -0.07673476 -0.07133673 -0.0277207
-0.16937165 -0.07974951 -0.18057078 -0.32456598 -0.21654412 -0.017489307 0.042526208 0.3647598
0.06967727 0.10071111 0.13518739 0.39082965 -0.12086697 0.20978935 0.13856104 0.2780079
-0.103169955 0.122661896 0.18219604 0.3480615 -0.11178776 -0.09612959 -0.011405609 -0.28967896
0.02232009 -0.0637388 0.014877798 -0.111621544 -0.032298937 -0.022885585 -0.12128807 -0.07391256
-0.20798695 -0.3035121 -0.21744089 0.032544326 0.06184053 0.31701452 0.13693567 0.09463302

0.bias f4 [100]
00000000: e7f8 1a3e 400c b43c 1a7f d33b fa7e 013d
00000010: f5cc 923e 9c53 063e 4a26 03bd fbe8 ab3c
00000020: b84a e0be 555a 42bf 9c78 40be 21f5 60be
00000030: 0f12 3b3d 0d94 1abc a1dc 23be 606e 9b3e
00000040: be0a 813b f81b 39bc 46ec 013f 3889 6d3e
00000050: f4b7 313f b7f6 8ebd ac77 3bbe c76b 0f3f
00000060: b868 ed3d 3f1a 313c d887 7b3e 7096 7f3e
00000070: 6173 14be 3ac3 b2bd f947 933e 7c00 d2bd
00000080: 8585 52bc 31f0 f1bb 0c5c 113e 2db7 bfbe
00000090: 51a9 95bd d89d 16bf e6a5 ccbc 2a0e 0cbd
000000a0: a14d 40bc 590f 54be be12 cdbc e7f1 7cbc
000000b0: 345e b13c 4f6d 15be b277 e63a 41f1 05bf
000000c0: 9d96 6abe 23c1 7fbe 8e00 91be 59f8 df3e
000000d0: 493a c9bc 3f58 af3e 36a5 3bbe c035 6cbe
000000e0: 8837 22bd 3007 913e 5195 abbc 1d3f 6dbc
000000f0: 8151 98bb 3246 85be e8c5 e0be ac4b 7dbd
00000100: 5155 493d 038c dcbd c5b0 d4bd fb0b 86bc
00000110: 56f6 0ebf c3c8 b23e 2544 61bf b5e0 c83d
00000120: 3316 cdbe a9a7 93bc 688e bbba 5252 d3bd
00000130: d76e b1bc 005f 43bf dc8f edbc 4b3f 4dbe
00000140: 4baa cb3c 2483 1b3e 4d36 743e 068b 253e
00000150: b2c6 fabc 1f5d a93e 9d76 293e 152d 82be
00000160: a2da fc3b 0612 223c 412d ee3d b2da e7bc
00000170: 172f b6be 3092 303c 3c77 cbbd d48b 12bf
00000180: d8fb c4bd c470 b83e bca3 87be ca4b df3d
0.15134011 0.021978498 0.0064543607 0.031615235 0.28671995 0.13117832 -0.032018937 0.020985117
-0.43807006 -0.75919086 -0.18796009 -0.2196851 0.04567152 -0.009434712 -0.16002132 0.30357647
0.003938048 -0.011298172 0.5075115 0.23196876 0.69421315 -0.06980651 -0.1830737 0.5602383
0.11592239 0.01080948 0.24563539 0.24959731 -0.14497139 -0.08728643 0.28765848 -0.10253999
-0.012849216 -0.0073833694 0.1419527 -0.3744444 -0.07307685 -0.588346 -0.02498145 -0.034193195
-0.011737258 -0.2070898 -0.025033351 -0.015438533 0.021651365 -0.14592479 0.0017583279 -0.5232125
-0.22909017 -0.2497602 -0.28320736 0.43744162 -0.024563925 0.34247014 -0.18324742 -0.23067379
-0.03960374 0.28325796 -0.020945223 -0.014480379 -0.004648388 -0.26030117 -0.4390099 -0.061839744
0.04915363 -0.107688926 -0.103852786 -0.016363135 -0.5584463 0.34918794 -0.87994605 0.098084845
-0.40056 -0.018024283 -0.0014309408 -0.10318436 -0.021659298 -0.76316833 -0.028999262 -0.20043676
0.024861475 0.15186745 0.23848839 0.16166314 -0.030612323 0.33078858 0.16549154 -0.2542502
0.0077164927 0.009891992 0.11629725 -0.028302524 -0.35582802 0.010777041 -0.099348515 -0.5724461
-0.09618348 0.36023533 -0.26492107 0.109031275

2.weight f4 [100, 100]
00000000: d2f1 59be ca3f b8bd 0dac 96bc c729 52bd
00000010: 7dd9 bbbc c379 643e e908 a73d 43b3 00bd
00000020: 700d 703e 5c56 12bd 7134 063c 62ab 553e
00000030: 91d0 febd 6864 8e3d 6cae 12bc 72cb 5c3d
00000040: aa8a dd3c b3c1 f3bb daa6 f13d baa3 e63d
00000050: 7cf0 f7bd 2cc7 b93d 7306 1d3d 0e6f 6abe
00000060: 3b6f 06bd fddc a53d 23dd 27be 6ee6 6fbd
00000070: 32ce 053e 47a3 c93e 1477 8ebd a2b6 5bbd
00000080: fa52 4d3d 473f a4bd 2cb9 a33d 2b2a a3bd
00000090: eee6 43be dd03 503d 6756 86bd cda7 0fbd
000000a0: 8030 6e3d 7719 efbd cd3a c43c 576f c5bd
000000b0: d373 28bd ed00 313d 2d1f bd3c 8383 b23d
000000c0: 8f6f 533e 4864 163d b2b5 c43d f3b7 d93d
000000d0: cd5d 87bd c164 56be 1e86 2abd f0c6 89bd
000000e0: fc75 133d 8c36 32be 1dbc b3bd fbae 8abd
000000f0: 7aa9 9f3d 116f 163e 3f12 aa3d 6d4e 0cbe
00000100: 718c 8a3e 3833 f3bd aca9 69be 3aea 723d
00000110: 6cb9 6f3e ba03 913d d6bf 023e b5e0 853e
00000120: 9bad 0ebe 7f4b 57be fa3e b93d a932 e1bb
00000130: 6772 903b ac99 30bd 8085 ec3c e7c0 a9bc
00000140: 5769 593d f45f a43e ef43 f63d 0d57 123e
00000150: ed3f d33d 5f97 eb3d 3748 56be cc1f 8e3d
00000160: 1a35 61bc adae 73bd 074f 23bd 9da2 3dbd
00000170: 4776 753e c72b 953d e395 433f bf58 d73d
00000180: 70f8 383d 9b79 f1be 486f 4f3e 634e 91be
00000190: 77ba 333d 08f6 a0bc 6390 b4bd 7ee2 b93d
000001a0: f259 373e a8d6 fbbd 9938 d53e 3270 cfbd
000001b0: 2454 233e ee53 0abe b462 be3d 98c3 f9bb
000001c0: 0330 7ebc 2ada 57bb 582e 043e 2a26 13be
000001d0: 8e37 953d 0d47 febc c17f 143e bb5d 3b3e
000001e0: 60f9 9dbe 3e98 133e 0c01 afbe 7d49 253e
000001f0: d79f 993d 94e8 febc 2831 b5bc a516 a13e
00000200: 9ff9 083e abf6 b0be 2b70 11bd dd43 c33d
00000210: 6e09 143d 9f86 8b3d 6b69 05be 3a30 5bbd
00000220: b49e 25bd f0a5 dfbd 93da fd3c 7ff7 a33c
00000230: 98dd 663d e77e 15bd d223 22bb 8009 d43c
00000240: 2757 c93c eb1f 20be e582 f3bc e96f f73d
00000250: 4e96 483e 4144 34be 1cd0 edbd 0f70 4ebd
00000260: 5565 1abd 7f62 b53d c92a 233e 9736 ccbd
00000270: 5f1b 533d 3592 14bc e46d 843c 637d b23b
00000280: b16d d53d eeab dd3c c397 e73d cb9e 1c3e
00000290: 5b35 c7bd 16ea 0dbd 2986 acbd 6f8f 953c
000002a0: a487 50be 19b8 38bd 64d1 1c3d 9e5a 973d
000002b0: 544c 0c3e 9144 21bd 1af7 42bd 1dae 33bd
000002c0: 8b7f b9bd 88c4 fb3d 7f9f 21bd d801 63be
000002d0: 2487 7a3d e1d5 65bd 6e09 47bd 1d92 12be
000002e0: e2fe a1bd 43b3 223d efb1 333e 3cfd 1b3d
000002f0: 9ee6 0b3c d0cd 8dbd 4667 8a3e 14a7 7c3d
00000300: 2927 953d 8eb5 313d 6459 c5be b67d 74bb
00000310: dcfa ab3d b2ca 4e3e 9050 babd 7e9a a23e
00000320: dc19 d2bb fa3b 9cbd ea9a 7f3d aa02 b43d
00000330: 7da7 7ebd b726 56bd 2651 693d 90e1 c3bd
00000340: b4ef da3c 24d5 f9bb c849 81bb 29ec fabd
00000350: fc57 85bd 46be 98bd 842b 8fbd ea8b 98bd
00000360: 9ad7 c7bb 2b0d 9bbd c039 c1bd 1c37 a83d
00000370: f8dd 15bd ea9e a5bd d8ae c43d ef6e 023d
00000380: ff27 1c3d 5a5c 2b3c c1e9 f0bc 1c19 153d
00000390: ecb8 2f3d 0bfc bebd 831e b93c e5e2 e13c
000003a0: c05e b53d 1a85 9fbd 4d06 d1bd c1a1 85bb
000003b0: 49b6 8cbd 2bc4 64bd 40ee d8bc a3a3 2abd
000003c0: 5d02 5dbd 7f8c 05bd a291 8cbd 2dd9 75bd
000003d0: 25b2 963d d08e dabc 45cc a13d 8c04 febd
000003e0: e17a 1bbd d6a7 1f3b 1b37 813b 1a66 cebc
000003f0: 5d27 323d 54f5 793d d4a1 7dbd 7a40 6cbc
-0.21283653 -0.08996542 -0.018392587 -0.051309373 -0.022930855 0.22312073 0.08155996 -0.031420957
0.23442626 -0.03572689 0.008191214 0.20866159 -0.12442125 0.06952745 -0.008952718 0.053904958
0.02704366 -0.007438862 0.117994025 0.11261697 -0.12106416 0.09071192 0.03833623 -0.22893927
-0.03282092 0.08098791 -0.1639295 -0.058569364 0.13066939 0.39382383 -0.06956306 -0.05364097
0.05012796 -0.08019882 0.07994303 -0.07967027 -0.19131061 0.050784934 -0.06559449 -0.035072137
0.058151722 -0.11674779 0.02395382 -0.09640377 -0.041126084 0.043213774 0.023086155 0.0871649
0.20648025 0.03671673 0.09604968 0.10630789 -0.06609688 -0.20936872 -0.04163181 -0.067273974
0.03600119 -0.1740362 -0.08776114 -0.06771656 0.07795997 0.14690806 0.083042614 -0.13701792
0.27060273 -0.118750036 -0.22818631 0.059305407 0.23410577 0.07080789 0.12768492 0.26148
-0.13933413 -0.21024893 0.09045215 -0.0068724942 0.004408169 -0.043115303 0.028872252 -0.020721866
0.053078976 0.32104456 0.12024676 0.1429102 0.10314927 0.11503481 -0.20925985 0.069396585
-0.013745571 -0.059492756 -0.03987029 -0.04629766 0.239709 0.072837405 0.76400584 0.10514974
0.045158803 -0.4716309 0.20257294 -0.28380117 0.043879 -0.019648567 -0.08816602 0.09076403
0.17905405 -0.12296802 0.41644743 -0.101288214 0.15950066 -0.13508579 0.0929617 -0.0076221935
-0.015514377 -0.0032936432 0.12908304 -0.14370027 0.07285987 -0.031039739 0.14501859 0.18297474
-0.3085432 0.14413545 -0.34180486 0.16141315 0.0750119 -0.031116761 -0.022118166 0.3146259
0.13376473 -0.34563193 -0.035507362 0.09534428 0.036141805 0.06812786 -0.13028495 -0.05351279
-0.040434554 -0.10920322 0.030988013 0.020015476 0.056363672 -0.036497977 -0.002474059 0.025883436
0.02457769 -0.15637176 -0.029725501 0.12081892 0.19588587 -0.17604162 -0.11611959 -0.050399836
-0.037694294 0.08856677 0.1593429 -0.0997135 0.051539775 -0.009068062 0.016165681 0.005447076
0.104213126 0.027059522 0.11308243 0.1529495 -0.097269736 -0.03464707 -0.084240265 0.018256871
-0.20364243 -0.045097444 0.038285628 0.07390331 0.13700992 -0.03937203 -0.047598936 -0.04386722
-0.0905753 0.12293345 -0.039458748 -0.22168672 0.061164036 -0.056112174 -0.048592977 -0.1431355
-0.07909943 0.03972174 0.17548345 0.0380833 0.00853887 -0.06924021 0.27031916 0.061682776
0.0728286 0.043386035 -0.38544762 -0.0037306375 0.08397457 0.2019451 -0.09097397 0.31758493
-0.006411774 -0.07628627 0.062403597 0.08789571 -0.062171448 -0.052283015 0.056962155 -0.09564507
0.026725627 -0.0076242853 -0.003945563 -0.12252075 -0.06510922 -0.07458167 -0.06990722 -0.074485615
-0.0060986998 -0.07570871 -0.09434843 0.08213636 -0.03658864 -0.08086951 0.09603661 0.031844076
0.03812408 0.01045903 -0.029408338 0.0364009 0.042900965 -0.09325417 0.022597557 0.027574012
0.08855963 -0.07789059 -0.1020628 -0.0040781205 -0.06870706 -0.055851143 -0.026480794 -0.041659962
-0.053957332 -0.03260469 -0.06863715 -0.060021568 0.07358197 -0.026679426 0.079002894 -0.12403211
-0.037958983 0.0024361513 0.0039433367 -0.02519517 0.04349457 0.06102498 -0.06192191 -0.014419669

2.bias f4 [100]
00000000: 72a3 b73b d85a 943e 135e cabd e461 3f3f
00000010: 7e98 12be 17e7 1a3d 4b3f 7a3d f757 893e
00000020: e9f1 4b3e 052b 5fbe e41d aa3e b89a 483e
00000030: 9bf0 7b3d e0d8 f83d 7ff3 10bf dc53 d6bd
00000040: 675c a33e 9d21 8e3e 7d5f 17bc cae0 b73d
00000050: ef44 e83d 9394 febd 6a0c 94bd 2ce8 0f3e
00000060: 761f 95bd 79f8 99bd 5bf2 053d 4cfa efbe
00000070: bac1 4ebd e455 26bf e593 393e ac1f 09be
00000080: 28f6 82be d462 39bf fc2c 143f f728 a63e
00000090: f205 88bc 9e4a e1bd 9116 8fbd 6f66 823d
000000a0: ffd8 aabd 2c4a 41bd a895 a6bd fd2d 753e
000000b0: 0e4f 8fbe a410 c83e 5815 08be a670 ccbc
000000c0: 883e fbbe 0eb0 373d 27ed 05bf 0ef1 67be
000000d0: cdf5 453f 455e 2a3e d823 8cbd 445d c63e
000000e0: 15c6 e7bd 7c9f 4a3f b5c9 8a3f 5abd 0fbc
000000f0: 81c3 4e3f 5a11 c23e 7b53 1a3f 68db 7b3c
00000100: 9da0 88be fab7 99bd 55f4 3dbc 4a4a e6be
00000110: 30e8 01bf 5527 8ebe 4617 9bbd 2080 b5be
00000120: 01ee 1cbf 2367 e8be 90cc 2cbd 0020 1abd
00000130: fb65 7c3d 5b2d 323e abb1 40be 7275 f33e
00000140: 5de8 c6be c36f 21be bba8 0ebf 7471 9dbe
00000150: 7271 0c3e 95c2 c93e f4f1 03bf a29e 023e
00000160: 278b 083e ac96 1dbf ce94 b4bc 5471 1b3f
00000170: b05c 0bbf 681f 9bbd ee80 adbe 851d dcbd
00000180: a319 9b3d 293d 61be ace8 83be f754 1abd
0.005604201 0.28975558 -0.098812245 0.74758744 -0.14315984 0.03781804 0.061095517 0.26824924
0.199165 -0.21793754 0.3322593 0.1959027 0.061508756 0.121507406 -0.56621546 -0.10465214
0.31906435 0.2776002 -0.009239075 0.08978422 0.11341273 -0.12430682 -0.0722893 0.1405341
-0.07281391 -0.075180955 0.03270183 -0.4687065 -0.05047772 -0.6497481 0.18122824 -0.13390988
-0.25578427 -0.72416425 0.5788114 0.3245313 -0.016604397 -0.1100056 -0.06986726 0.06367194
-0.0834217 -0.047189876 -0.081340134 0.23943324 -0.2799 0.39075196 -0.13289392 -0.024956059
-0.49071145 0.044845633 -0.5231499 -0.22650549 0.7732819 0.16637523 -0.06842774 0.3874303
-0.11317078 0.79149604 1.0842806 -0.008773172 0.80767065 0.37903863 0.6028363 0.015372135
-0.26685038 -0.07505794 -0.011593898 -0.44978553 -0.50744915 -0.27764383 -0.075727984 -0.35449314
-0.61300665 -0.45391187 -0.042187274 -0.037628174 0.061620694 0.17400114 -0.18817775 0.4755054
-0.38849154 -0.1576529 -0.5572621 -0.3075062 0.13715151 0.39406267 -0.51541066 0.12755826
0.13334332 -0.6155803 -0.022043612 0.607198 -0.54438305 -0.0757435 -0.33887428 -0.10747818
0.07573249 -0.21995987 -0.25763452 -0.037678685

4.weight f4 [100, 100]
00000000: 7a10 1ebe 7d40 dd3d 2810 c3bd 0530 86be
00000010: c5ca 14bd 11ad efbc 717e ee3d 828c e63c
00000020: c5ef 3e3c ed88 24be 0f6e 28be 8678 ae3d
00000030: 668e a53d 3075 283e dce5 66bd acda 513d
00000040: fc2d c8bd 6239 27be 0c84 01be 7823 7e3d
00000050: 89e6 333e 287e bdbe 7344 5abe f47f 283e
00000060: b188 b6bc b5c1 cc3c 53b3 c93d a60f 0bbe
00000070: fddc 313d 9af5 f13c 6e47 9e3e 6f6e 043d
00000080: 6d72 8f3b 36b3 593d 3a1b 4c3e f373 1e3d
00000090: f94f 423d 53e8 743c 7e30 a53d c9dc 193e
000000a0: bf69 4d3d f188 79bd dafa 703c 44b0 613e
000000b0: dbb8 b4be eff3 cbbd e423 213e 427a e93c
000000c0: 20b5 30be fea5 473c 2fe0 643d da8d babd
000000d0: 21bf 2e3e c0ce 67bd 00de ff3b d970 213e
000000e0: 2d91 b7be 94cf 213e 13c5 033e 509b de3d
000000f0: 5c76 bb3e a72b c23d 4dc9 583d 386d 703e
00000100: 33ca 03be f1a0 433e ae81 64bc 3778 33be
00000110: 7bd4 25be 56fe 20be b9c7 ca3c 42ad 3f3d
00000120: 02fb 033e a393 50be 9047 b8bd 60c8 a03c
00000130: d77f 51be 0308 42bd ffb1 9c3d 90f0 c13b
00000140: 7a0c a13d bd17 b0bc 49f1 3d3e 1f28 7fbd
00000150: 85f0 c8bd b6c0 033e bf83 0abe b819 af3d
00000160: 6429 ae3e e730 a1bd 3bbd 1abe 6ea0 953e
00000170: 3741 6a3d 4f18 95bd 8a7f 65be 4319 6f3d
00000180: 51be 733c 89dc 3dbe c883 bfbe 4568 823d
00000190: b9ce 94be 6250 3c3e 8e27 1ebd 55c7 1dbd
000001a0: 542a 83bd b10c dfbc 4c89 cebe 7f5c 49bd
000001b0: 837a bfbd bb68 103e e0ad 87be 3085 3b3e
000001c0: 4e65 5d3e 008e 5dbc 37bf 09be 21fe 363d
000001d0: c473 b83d 1ca3 273e 9037 183e 89d3 c7bd
000001e0: 0f10 a3bd d2f5 bebd 0b6d 093d bc9e 5b3e
000001f0: 61d0 cdbe 67e0 91bc 7f7f 673d b05c bfbc
00000200: a96c 4fbc db07 733e 6885 9b3e 467e a9bd
00000210: 5d1d 433e 5ccf ed3d 34b4 aabd 5ff8 3fbe
00000220: c94b 0ebe 2d23 37bb dbf2 bb3d b1a0 ffbc
00000230: 4f48 1bbc 3e80 b33d e9c3 cbbd 438e 05be
00000240: 94f7 b8bd e6f8 bb3d 3efb 8cbe 2d7d 42bd
00000250: 4d66 293e 001b 2ab9 bb80 d03d 2bed 6a3c
00000260: f8b6 d33a fce0 323e 0ab3 36bd 7663 d8bd
00000270: 1dfd c1be 8f35 333e 20e4 ef3c 1d67 793e
00000280: 2643 083e 4eaa 093e b923 d2bc d95f 5a3e
00000290: 33b5 e5bd 7a1a 2b3e 6b6b f8bc 2a28 8abd
000002a0: efc0 163c 9b8c 1cbd 125e 1bbd acee afbd
000002b0: 6320 fa3d 9350 30bd 4d4b bcbb 36c7 19bc
000002c0: 6bc8 2b3e 9440 6abd 121f 893d f84b ad3c
000002d0: 5fbb 743c cf66 8e3e f0cc ad3c 2527 58bd
000002e0: 09b6 a7be bb03 c03d b481 153e a6f2 cabd
000002f0: e31f 9ebe 4ea0 243e 2807 35be 7954 b63e
00000300: cfeb 473e 7109 bc3c 7966 09bc 3777 d9bd
00000310: 2ee7 863e fd9c 77bd a48f 84bd e1bf 153e
00000320: 7004 143d d8b3 c5bb 3353 90b8 1b6c d0bd
00000330: a80e 03bd ab54 b7bd 376d 8abd 2361 68bd
00000340: 43e1 b8bd 9261 cabd bdf8 033d adc3 b7bd
00000350: c80c a53c 375f 6abd 2f39 c2bc b7e9 01be
00000360: 20c9 e8bd 4fa0 dbbd 8737 183d e1ef fdbd
00000370: 0272 91bd fce2 96bd c4b5 ec3c 6961 9839
00000380: 9c0f d9bd 20e5 f5bc 2338 27bd e383 b3bd
00000390: 8d49 983d ca0f f3bb e5c1 f2bd aa40 8c3d
000003a0: 1192 8c3d b267 a83c cc4e 713d 9152 b8bb
000003b0: 99f7 523c e3cb bdbd ad96 8ebd 3c5d 2bbb
000003c0: 9a79 003d 3ffd b2bd 1580 c93d eef1 e3bc
000003d0: 3bdc a2bd 63c5 8dbd a0cf 9fbd 7371 143c
000003e0: aa73 18bd cd26 9f3d 74f0 07bd 2cfb 9fbc
000003f0: 3a6e e9bd b483 cbbd 18b6 a73d f883 c3bd
-0.15435973 0.10803316 -0.09524566 -0.2620851 -0.03632619 -0.02925733 0.116452105 0.028143171
0.011653845 -0.16067858 -0.16448234 0.08519082 0.08083801 0.16450953 -0.056371555 0.051233932
-0.09774396 -0.16330484 -0.12648028 0.062045544 0.17568411 -0.37010312 -0.21315174 0.1645506
-0.022281976 0.02499471 0.098486565 -0.13580188 0.04342364 0.029536057 0.30913872 0.03233188
0.0043776543 0.053149424 0.19932261 0.038684797 0.04743955 0.014947969 0.0806589 0.15025629
0.050149675 -0.060921613 0.014708245 0.22039896 -0.35297284 -0.09958636 0.15736347 0.02850068
-0.17256594 0.012185572 0.05587786 -0.09109087 0.17065097 -0.056593657 0.007808447 0.15765704
-0.35852948 0.15801841 0.12868147 0.10869467 0.3661374 0.09480982 0.05292635 0.23479164
-0.12870102 0.19104363 -0.013946934 -0.17526327 -0.16194336 -0.15722021 0.024753438 0.04679609
0.1288872 -0.20368819 -0.089980245 0.019626796 -0.20458923 -0.04737092 0.076511376 0.00591857
0.07863708 -0.021495694 0.18549074 -0.06229412 -0.098115005 0.12866482 -0.1352682 0.08549827
0.34015954 -0.078706555 -0.15111248 0.2922396 0.0571911 -0.07280027 -0.22411934 0.0583737
0.014876918 -0.18541159 -0.3740523 0.06367544 -0.29063967 0.18390039 -0.03861194 -0.038520176
-0.06404558 -0.027227731 -0.40339124 -0.049160477 -0.09349539 0.14102452 -0.26499844 0.18312526
0.21620676 -0.013522625 -0.13451849 0.04467595 0.090064555 0.16370815 0.14864945 -0.09757144
-0.07962047 -0.0932423 0.033551257 0.21447271 -0.40198043 -0.017807199 0.056518074 -0.023359627
-0.012660184 0.23733465 0.30375218 -0.08276038 0.1905417 0.11611816 -0.08335152 -0.1874709
-0.13896097 -0.002794455 0.091771804 -0.031204553 -0.009477689 0.08764695 -0.09949476 -0.1304255
-0.09031597 0.09178333 -0.27535433 -0.04748266 0.16542931 -0.00016222522 0.101808034 0.014338772
0.0016152551 0.17468637 -0.04460434 -0.10565846 -0.37888423 0.175009 0.029283583 0.24355741
0.13306865 0.13443872 -0.0256518 0.21325625 -0.11216202 0.16709319 -0.030324658 -0.06745942
0.009201272 -0.03822003 -0.03793151 -0.08590445 0.122132085 -0.04304559 -0.0057462812 -0.0093858745
0.16775672 -0.057190493 0.06695379 0.021154389 0.014937251 0.27812812 0.021215886 -0.052771706
-0.3275607 0.093757115 0.14600259 -0.09909563 -0.30883703 0.16076776 -0.17678511 0.35611323
0.19523548 0.02295372 -0.008386248 -0.106184416 0.2634825 -0.06045245 -0.0647271 0.14623977
0.036137044 -0.006033402 -6.881952e-05 -0.101768695 -0.0319964 -0.08951696 -0.06759112 -0.05673326
-0.0902734 -0.09881891 0.032219637 -0.08972869 0.020147696 -0.05721971 -0.023708908 -0.12686811
-0.113664865 -0.10723936 0.03716233 -0.12399269 -0.071018234 -0.073675126 0.028895266 0.00029064275
-0.105986804 -0.030016482 -0.04082502 -0.0876539 0.07435904 -0.0074176537 -0.11853389 0.06848271
0.068637975 0.020557258 0.058913037 -0.005625077 0.012876415 -0.09267404 -0.06962333 -0.0026148101
0.03136597 -0.08739709 0.09838883 -0.027825322 -0.07952162 -0.06922414 -0.07803273 0.0090602515
-0.03721968 0.077710725 -0.0331883 -0.019528948 -0.11397977 -0.0993723 0.081890285 -0.095466554

4.bias f4 [100]
00000000: 9c99 b63e 19e1 e8bd 987b 82bd f687 4cbc
00000010: 49f9 f03e 8806 7c3e 667b df3d ac6d ff3c
00000020: 36ba 0cbe 821c 9b3e 0e7b 663d 458d 2d3b
00000030: 30a7 a5bd 9916 93be 9bf7 69be 98fb 0b3f
00000040: f027 8abe f293 673d c629 24bd 0d66 6a3e
00000050: 9b62 e03e aa69 8f3e 9e12 3ebd 2088 6dbd
00000060: 8744 a7bd d13f 123f 7c7b 313e ddf8 dfbd
00000070: 18ec ef3c 377e f3be c157 e23d c7bb 04bf
00000080: e166 233e 4be1 273e cb55 803d a381 a4be
00000090: 7909 abbe 3755 db3e 0468 9f3f 775e b0be
000000a0: 498c fcbd 097f b0bc 621b 4d3e 3c72 953e
000000b0: 4f40 713d fdd3 2e3e 02e9 b03d ddee 9bbd
000000c0: b3a6 0e3f 64dd ffbd 431f bbbe e6ae cbbe
000000d0: 0301 113e f086 debd 0099 57be 0ff9 7a3e
000000e0: b65c ae3c 7040 68be 6653 f1bc 0890 fbbd
000000f0: b35c fd3c fe2f 843e c087 7d3d b829 84bc
00000100: 24ea c3be c501 dbbe 8e15 b93d e305 ae3b
00000110: 7619 6ebd 29f0 043d 17eb 9c3e ba28 223f
00000120: 9094 9bbe 02c3 fe3c d891 92bd 1090 6c3d
00000130: 383e 50bd f35d 9fbc d06b 20be aa30 383e
00000140: ff86 773e f810 0dbe daf1 96be eadb 18bf
00000150: 7203 af3d a75c d33c b0e7 edbd eed5 e6bc
00000160: 2421 b33d 4e2a 653d c6b9 c2bd ffd2 db3e
00000170: e484 da3e fe8d d6bd 2a4b b73e ec46 1c3f
00000180: adf6 453e 167d 323e 4690 bcbe 80d1 1bbe
0.3566407 -0.11371059 -0.0637123 -0.0124835875 0.4706519 0.24611866 0.10912208 0.031180225
-0.13742909 0.30295187 0.056269698 0.0026481908 -0.08088529 -0.28728178 -0.2284836 0.54680777
-0.26983595 0.056537576 -0.0400789 0.22890492 0.4382523 0.28010303 -0.046404473 -0.057991147
-0.081673674 0.57128626 0.17332262 -0.10936139 0.029287383 -0.47557232 0.11051894 -0.51849025
0.15957214 0.16394536 0.06266364 -0.32130155 -0.33405665 0.4283845 1.2453618 -0.3444707
-0.12331445 -0.02154495 0.20029977 0.29188716 0.05889922 0.17073055 0.08638193 -0.07613919
0.5572311 -0.12493399 -0.36547288 -0.39781874 0.14160542 -0.10865581 -0.21054459 0.24509071
0.021284442 -0.22680831 -0.029458713 -0.12283331 0.030927991 0.25817865 0.06189704 -0.016133174
-0.38264573 -0.42774788 0.09037314 0.0053107603 -0.05812975 0.032455597 0.3064811 0.63343394
-0.30386782 0.031098846 -0.07156724 0.057754576 -0.050840586 -0.019453978 -0.15666127 0.17987314
0.2417259 -0.13776004 -0.29481393 -0.5971056 0.08545579 0.025801016 -0.116164565 -0.028178181
0.087465554 0.055948548 -0.0950809 0.42934415 0.42679513 -0.104763016 0.35799533 0.6104572
0.1933238 0.17430529 -0.36828822 -0.15216637

6.weight f4 [157, 100]
00000000: 1401 50be 40c0 883c 72d0 973b 8b8a 403d
00000010: 8fe0 2cbd d93d fbbd 280f 243e b071 1cbd
00000020: 5286 8f3d ca18 5bbe 42ad b7bd 910a 743b
00000030: 6b6d 89bd 5ab1 d13c 2b84 f0bd 94da ec3d
00000040: 27bb 96be f162 533d 7d5c 35be 0d7f d9bc
00000050: c5dd 293e d801 c6be 8f76 19bf 369e 39be
00000060: d33a 933c 387f 10be aec8 803b 0a25 a53c
00000070: 316c cb3c e0e0 d7bc 393b 3c3d a48a a53d
00000080: d7ab aa3b 021e 62bc 1a94 c0bd 7b34 7e3e
00000090: d5f3 013e 08c1 9fbe c46e aebd b6ae 703d
000000a0: 4ef7 10be ec2d 203d 8a72 293e 141d 3cbe
000000b0: d449 953e bcca 32be e59b 90be 8389 813d
000000c0: 5b97 d0be 39a5 cdbd 76b5 103d 14e0 313d
000000d0: 666b a8be f930 b43d b5a0 9cbd 931c 53be
000000e0: 202d 11bd c5b7 81be 9e00 fd3d 521f 723d
000000f0: 10dc c4bc c094 1a3c b43c b9bc 7a94 a93d
00000100: 4c9c 88bc f5f0 1abd 2bf3 81bd d1cf 6e3d
00000110: 28e5 a8bd f5d9 b63d cd34 503e 7814 253e
00000120: b24b 0fbe bc16 223e b2f9 eebc 332b 473e
00000130: 3f6f ad3d 3728 4dbd bc91 c03b 5c10 43be
00000140: 3985 743d 2052 80bd 4628 f73c 1976 683d
00000150: 58ff d53c 6a09 f33d 2b24 83bd 8567 17bd
00000160: 0bb4 45bd 5172 29be f3f5 343d 8b93 6bbe
00000170: bee7 fd3d b1e4 033a f8a7 0bbe 3561 4d3d
00000180: ab99 293d 6c29 183e 4225 17be 0252 443e
00000190: 7f1a ecbc a8c9 eb3d 6fad 8b3c 56ca 38bd
000001a0: 2793 423e 1d0b 5bbe 2e98 2abe b2b9 2ebd
000001b0: 94fd 913d eddc 353e 17f9 a3bd 3c07 17bd
000001c0: 1c1d c6bd df7c aebe 8f0e b13c 22ba 36bd
000001d0: d4a2 343e 2a0c 12bf a1dc a83e ad9d 4b3b
000001e0: 8c88 da3d 05c3 64bc 4e9e 1e3e 032d dabd
000001f0: 83cd 963d 3e28 5fbf 33c5 9ebe 61dc 9dbc
00000200: f955 193e 0322 29be 3825 c6bd 9b04 06be
00000210: 4994 54bc 8a49 093a 5ef1 e2be f1b0 9abe
00000220: fedb 7a3e 601a 3cbe eae3 83bd 900e 0fbf
00000230: 5313 68be 52b9 71bd e89a 73be 9361 d03d
00000240: f9ba 7e3d 1c2f 0b3e eeda d3bd de49 003d
00000250: 3a79 203d 1eb2 0abc 6cdc d6bd f586 153e
00000260: b5ec 2dbe d542 9cbe 02b0 453e 9f31 9bbd
00000270: b9d5 5b3c a7a6 4e3d 7d1c 46bc 9285 083d
00000280: d33d 633e dd79 183e 8ad2 39bd 6cdf 3fbd
00000290: 09d8 883e dc9e 73be 7344 b73c f4b3 d63d
000002a0: 008f acbd aac8 10be 1487 5cbe 5a38 383e
000002b0: c7af 10be 606d b5bd 3319 9e3e b3a3 1abf
000002c0: 3849 163e d5aa 453e 02a4 9e3c 41f9 44bd
000002d0: 7bd9 44be 77ea 113e 0ef3 133d c0f6 d837
000002e0: fd86 30be c307 09bc 9e08 c5be fc4d 70bb
000002f0: 954a 213e f3ac abbd a599 67bd bf5f ec3c
00000300: 0794 093d f2f2 ecbd 132d 8fbd 8ffc 083e
00000310: af39 a63d 492e 2b3d 5db6 863c ed54 95bc
00000320: 1b1d c5be 20c6 3e3d 93d6 a6bd 9b1f d5bd
00000330: b3bb f1be fdea f73d d3dc ee3c 9659 2f3d
00000340: 6f5f 133e 5ded 05be bcc6 673d 5214 323d
00000350: 48d6 c13d 09a1 84be f5b4 8c3c f078 983d
00000360: db0f 0a3e 5dcb b73d ca63 cd3d be69 ac3d
00000370: 891f 4d3c 2a37 133e adc2 043e 0a26 9fbd
00000380: 4429 a23d 072a c53d bfc1 003e 95c5 1e3e
00000390: e7f4 4abe 2a48 75bd 2e7a adbd 09b2 88bc
000003a0: 3bdd 133e f017 c1be 474b 22bc f937 de3d
000003b0: 2e80 adbc c226 973e bd7f 07be 0973 213d
000003c0: 8d48 323d 90c2 25bd f16c 343e 884b 973c
000003d0: debb 843e 8bb8 66bd 9f35 d8bc 76c3 7dbc
000003e0: 7655 d63d 7bfa 22be 29b3 0dbe 4818 063e
000003f0: 37bb 6e3b 1a85 c33c f0a3 98be 8795 a4bd
-0.20312911 0.016693234 0.004633003 0.047007125 -0.042206343 -0.12267656 0.16021407 -0.03819436
0.070080414 -0.21396175 -0.08968593 0.0037237743 -0.06710323 0.025597263 -0.11743959 0.11565128
-0.2943966 0.05160803 -0.17711063 -0.02654984 0.16588505 -0.38673282 -0.5994653 -0.18126759
0.017972386 -0.1411103 0.003930173 0.020159263 0.024831863 -0.026352346 0.045954917 0.08083084
0.005208473 -0.0138011 -0.09403248 0.24824707 0.12690671 -0.3120196 -0.085172206 0.058760367
-0.14156839 0.039106295 0.165476 -0.18370467 0.2915789 -0.1746015 -0.28243938 0.063250564
-0.40740475 -0.10041279 0.035329305 0.04342659 -0.32894439 0.08798403 -0.0764784 -0.20616369
-0.035443425 -0.25335518 0.12353633 0.0591119 -0.024030715 0.009434879 -0.022611953 0.08280273
-0.01667609 -0.03782745 -0.06345209 0.058303658 -0.08246833 0.08928291 0.20332642 0.1612109
-0.13993719 0.15828985 -0.029171798 0.19450073 0.08468484 -0.05008718 0.005876748 -0.1904921
0.059697364 -0.06265664 0.030170571 0.05675325 0.026122734 0.1186703 -0.06403383 -0.03696396
-0.048267405 -0.16547514 0.044179868 -0.23005502 0.12397717 0.0005031331 -0.13638294 0.050141532
0.041406315 0.14859551 -0.14760306 0.19171908 -0.028821228 0.11513072 0.017050473 -0.045114838
0.19001447 -0.21390958 -0.16659614 -0.04265756 0.07128444 0.17760058 -0.080064945 -0.036872134
-0.09673521 -0.34079644 0.021613387 -0.044611104 0.17640239 -0.5704981 0.32980826 0.0031069324
0.106705755 -0.013962512 0.15490076 -0.106531166 0.07363417 -0.8717078 -0.31009826 -0.019270124
0.14974202 -0.1651688 -0.09675068 -0.13087694 -0.012974807 0.00052370934 -0.44324774 -0.3021312
0.24497983 -0.18369436 -0.064399555 -0.55881596 -0.22663622 -0.059014626 -0.23789561 0.10174861
0.06219003 0.1359219 -0.10344492 0.031320445 0.03917811 -0.008465318 -0.10491261 0.14602263
-0.16984828 -0.3051974 0.19305423 -0.07577824 0.013417655 0.0504519 -0.012091753 0.033330508
0.22191553 0.14890237 -0.0453668 -0.04684393 0.26727322 -0.23791069 0.022371506 0.10483542
-0.084257126 -0.14139047 -0.21535903 0.17990246 -0.14129554 -0.08858752 0.308786 -0.60406035
0.14676368 0.19303448 0.019365314 -0.04808927 -0.19223587 0.14249597 0.036120467 2.5864108e-05
-0.17238994 -0.008363667 -0.38483137 -0.0036667576 0.15751107 -0.08382597 -0.05654301 0.028854249
0.033588436 -0.11569776 -0.06991019 0.13377593 0.08116471 0.041792188 0.01644438 -0.018228972
-0.38498768 0.046575665 -0.081463955 -0.10406419 -0.47213516 0.12105367 0.029158032 0.042810045
0.14391874 -0.13078828 0.056586012 0.04347641 0.09464699 -0.2590411 0.01717613 0.07444942
0.13482611 0.08974335 0.10028799 0.08418606 0.012519726 0.14376512 0.12964888 -0.07770927
0.07918027 0.09627157 0.12573908 0.15505059 -0.19819985 -0.059883274 -0.084705696 -0.016686456
0.14439861 -0.37713575 -0.009905643 0.1085052 -0.021179285 0.29521757 -0.13232322 0.039416347
0.04352622 -0.040468752 0.17619683 0.018468633 0.2592458 -0.056328338 -0.026392756 -0.015488496
0.10465519 -0.15915863 -0.13837875 0.130952 0.0036427507 0.023867179 -0.29812574 -0.080363326

6.bias f4 [157]
00000000: e099 e93d 2066 8cbd b8aa 773e e032 f3be
00000010: 176f 01be 7c63 b2be 5355 9abd fb7d 7bbd
00000020: 58a4 81bd f879 1f3e 2f89 72be 0a29 563d
00000030: f08a 04bd cb3c 10bf 2934 1abf 412c e2bd
00000040: 1678 263d 3605 873e 150c 97bb 918a 983e
00000050: 2948 d93d 1a7e 283d df98 6dbe 2ded 0b3f
00000060: 9f66 90be 7bd1 323e d04e 4abc e894 ef3e
00000070: 67c1 dabe 1e46 753e af72 4dbe d1cb 68bd
00000080: 9eeb bfbe cbed 373d 1602 523e 7aaf 0a3e
00000090: 0117 b03d e2d2 073f ef3f 5c3e c445 373d
000000a0: 5ee3 d4be aeda 90bd d0d5 b33e b31f fb3d
000000b0: b9ec b03d 6a23 ce3e 95b5 de3e 5271 fe3e
000000c0: 8118 773e 36d6 a0be 4823 71bd 2085 1f3e
000000d0: 1142 60be 6600 63be ffd9 b13d 9701 063e
000000e0: ad64 d1be bf04 abbd c912 553e 5b06 bebe
000000f0: f690 0cbe 4cb6 713e 0acd 053f 040f eb3d
00000100: 2bb3 03be 87e5 78bd 67c5 813e eac3 77be
00000110: 4804 acbe a3f0 58be e02c a63d ed83 843d
00000120: 5308 963e f8f0 9cbd 5d84 80be 7c51 92bc
00000130: 997b 14bc 820f 4abe c344 d7be de20 e33d
00000140: 82c2 f5bd 19a0 37bb df42 b6bd 63d2 4d3e
00000150: d383 4c3e fab2 b13e 9834 20be a1bd 133f
00000160: 4399 bd3e 3104 8fbe b6cc 02bf 43cd f93e
00000170: b0d7 cebd e0c1 dd3e a08e 273c d5aa efbe
00000180: 2bcc 563c 23d0 94be e95b a6be 8a92 d8bc
00000190: ed6c 8b3e 2a96 683e 6b0e 29bd e074 8a3e
000001a0: e162 8a3d 6f31 973d 45f4 653e 6d7c cc3c
000001b0: 0893 eebd 20f5 c03c 1708 50be 151d 5bbe
000001c0: db90 233b 76eb 0ebd e3f4 193e e72a b4be
000001d0: fe56 5bbd c5ec 2fbe 51ed 723d 461c dcbd
000001e0: 234d 463e 4a4d 193f 6958 83bd 8f55 87be
000001f0: 4a9b 773e 6ee0 8bbe 638f 47be c1b6 9c3e
00000200: 9b5a f73e a6bb 2abe 0ba6 e13c 0952 523d
00000210: 3a91 6ebe 81ba febc e592 6cbe ffb5 0cbd
00000220: 3c12 193e 045e 90be 4c2b 3a3c ca37 363e
00000230: c5b6 363f 131d c9bd 8431 e1be 15df b1bd
00000240: 1788 ecbd 5815 2a3d 0d47 25bf 68c0 863d
00000250: cb4f b73c f5e8 273e 6873 13be 155f 02bf
00000260: 8197 94be 165d 31be ce8e ad3c fde8 373d
00000270: d995 2c3e
0.114063025 -0.06855416 0.24186218 -0.47499752 -0.12640034 -0.34841526 -0.075358056 -0.06139944
-0.06330174 0.15573871 -0.23685144 0.05228523 -0.032359064 -0.5634276 -0.6023584 -0.11043597
0.040641867 0.26371163 -0.0046095946 0.29793218 0.106094666 0.041135885 -0.23202847 0.54658777
-0.28203294 0.17462723 -0.012347892 0.46793294 -0.4272568 0.23952529 -0.2006328 -0.056835
-0.3748445 0.04490451 0.20508608 0.13543501 0.08598138 0.53056157 0.21508764 0.044744268
-0.41579717 -0.0707296 0.35124063 0.122619055 0.08638901 0.40261394 0.4349791 0.49695832
0.24130441 -0.3141343 -0.058871537 0.15578127 -0.21900202 -0.2216812 0.086841576 0.13086544
-0.40897122 -0.083505146 0.20807947 -0.37114224 -0.13727173 0.23604697 0.5226599 0.114774734
-0.12861316 -0.06076577 0.2534592 -0.24195829 -0.33597016 -0.21185546 0.08114028 0.06470475
0.29303226 -0.07663149 -0.25100985 -0.01786112 -0.009062671 -0.19732478 -0.4204465 0.11090253
-0.1199999 -0.002801901 -0.088994734 0.20099787 0.19972162 0.3470686 -0.15645063 0.57711226
0.37030992 -0.27932885 -0.51093614 0.48789415 -0.10099733 0.43311977 0.010226876 -0.46810022
0.013110201 -0.29065046 -0.32491997 -0.026437063 0.2723154 0.22713533 -0.041273516 0.27042294
0.06757141 0.073824756 0.22456463 0.024961675 -0.11649138 0.023554385 -0.20315586 -0.21397813
0.0024958167 -0.03489252 0.15034823 -0.35188982 -0.05354976 -0.17180164 0.059308354 -0.1074758
0.19365363 0.5988356 -0.06413347 -0.26432464 0.24180332 -0.27319664 -0.19488291 0.3060818
0.48311314 -0.16673145 0.027544996 0.051347766 -0.23297587 -0.031094791 -0.23102911 -0.034353253
0.14948362 -0.28196728 0.011362862 0.1779472 0.71372634 -0.098199986 -0.4398309 -0.08685128
-0.115493946 0.04152426 -0.6456154 0.06579667 0.022376915 0.1639746 -0.14399493 -0.50926334
-0.29021838 -0.17320666 0.021186259 0.04489993 0.16854037
