neura1/e15_weights.ckpt (torch, 399055 bytes, 8 tensors)

0.weight f4 [100, 630]
0.026203183 0.019320315 0.023036106 -0.378401 -0.16892973 -0.13540934 -0.32541466 -0.08710185
-0.33750728 -0.49301454 -0.48022163 -0.014881546 0.04328203 0.4180984 -0.021443466 -0.0895176
0.19068237 0.4463941 -0.15240425 0.12406644 0.21929444 0.36797875 -0.18111573 0.009076544
0.28490067 0.51666445 -0.0026605995 -0.043405477 0.05045618 -0.42661813 0.008410281 -0.038448732
0.055547174 -0.10740547 -0.15910666 -0.018580474 -0.1685981 -0.028151987 -0.15765442 -0.29407355
-0.2807568 -0.0980812 -0.04120165 0.16071784 -0.013192797 -0.06575769 0.045569267 0.2779328
-0.15983266 0.08566222 0.07791689 0.25720438 -0.22493453 -0.020679168 0.17632776 0.4001817
-0.0854156 -0.09676252 0.05288526 -0.43848267 0.0085860025 -0.015549862 0.014979441 -0.120315954
-0.17409436 -0.026441522 -0.1609522 0.03924746 -0.17937474 -0.26400506 -0.22849126 -0.118841946
-0.0041024857 0.24733496 0.05796338 0.023533715 0.041748237 0.30702463 -0.07263647 0.16039029
0.07645811 0.27478623 -0.17918065 0.026868464 0.21625078 0.38971558 -0.11576413 -0.13824879
0.03258085 -0.38564786 -0.0226909 -0.09288909 0.01225416 -0.084706284 -0.124439545 -0.03312837
-0.15576221 0.003816166 -0.16952866 -0.260694 -0.22129975 -0.09073168 -0.0037974715 0.29113623
0.042916816 0.055297554 0.08153136 0.28970733 -0.08846358 0.121860564 0.1128473 0.27647284
-0.21618976 0.034719966 0.17456304 0.31406596 -0.12385402 -0.08296013 0.00051746937 -0.4367917
-0.022666117 -0.08543909 0.019250022 -0.072540954 -0.11901756 -0.05764031 -0.17282309 0.00021096214
-0.1852164 -0.28012457 -0.2419637 -0.06336334 0.04006646 0.31993192 0.047915034 0.046051588
0.11266734 0.33544907 -0.06256499 0.17566434 0.13770221 0.33496454 -0.16529705 0.10555368
0.14049327 0.31879762 -0.16284981 -0.056846764 0.076874495 -0.43505114 0.030110175 -0.077915035
0.018841961 -0.10165085 -0.07676298 -0.054832324 -0.17213559 -0.04080549 -0.16172802 -0.30263525
-0.20606424 -0.037937533 0.07107269 0.30782732 0.0629527 0.06541262 0.12006771 0.3568383
-0.11169355 0.23380688 0.1529564 0.25667605 -0.13303743 -0.019986406 0.21454628 0.3472516
-0.17304562 -0.1043353 0.09000243 -0.38862902 0.039839305 -0.07170009 0.04384436 -0.08707658
-0.009183463 0.013585315 -0.14215933 -0.010319309 -0.2126533 -0.3285619 -0.220017 -0.02291247
0.04373657 0.3452175 0.057883665 0.09536079 0.15610099 0.2981976 -0.109239735 0.23575012
0.19964406 0.29112437 -0.1715682 0.008124256 0.2174341 0.3194858 -0.11262852 -0.028121393
0.053607162 -0.40343365 0.0027227362 -0.034670766 0.0038237497 -0.07480207 -0.06832684 -0.033599854
-0.17621875 -0.07256678 -0.19103023 -0.32438853 -0.21168417 -0.028483957 0.048055384 0.35901824
0.06579175 0.13375184 0.15803203 0.4177465 -0.11582422 0.23108338 0.15789872 0.25907916
-0.12706956 0.12212992 0.19814053 0.35376883 -0.1142498 -0.09924444 -0.0046679713 -0.30884644
0.02076753 -0.059648365 0.012580056 -0.11565414 -0.028214563 -0.019361898 -0.11859944 -0.06292377
-0.223125 -0.31088197 -0.2047898 0.042085856 0.06401223 0.31620994 0.14253768 0.120249145
00000000: 0fa8 d63c a345 9e3c 37b6 bc3c c7bd c1be
00000010: eafb 2cbe bfa8 0abe c09c a6be 7462 b2bd
00000020: c1cd acbe 676c fcbe 9cdf f5be bad1 73bc
00000030: 7f48 313d fe10 d63e 35aa afbc 0155 b7bd
00000040: 3d42 433e c48d e43e dc0f 1cbe 8c16 fe3d
00000050: b98e 603e b667 bc3e 6776 39be c9b5 143c
00000060: 80de 913e 1f44 043f 745d 2ebb f1c9 31bd
00000070: 24ab 4e3d b16d dabe 46cb 093c 6b7c 1dbd
00000080: 6f85 633d 66f7 dbbd dbec 22be 1436 98bc
00000090: fba4 2cbe ff9e e6bc 2970 21be cf90 96be
000000a0: 5bbf 8fbe ccde c8bd 10c3 28bd 3893 243e
000000b0: 9a26 58bc f8ab 86bd d7a6 3a3d 354d 8e3e
000000c0: 2cab 23be ad6f af3d e492 9f3d 4bb0 833e
000000d0: 3d55 66be 5c67 a9bc 448f 343e 9ee4 cc3e
000000e0: 60ee aebd 6e2b c6bd 379e 583d cd80 e0be
000000f0: 4eac 0c3c d9c4 7ebc 546c 753c 3668 f6bd
00000100: cb45 32be e49b d8bc a7d0 24be f2c1 203d
00000110: 03ae 37be ac2b 87be 9df9 69be 6863 f3bd
00000120: 256e 86bb 6045 7d3e 026b 6d3d c7c9 c03c
00000130: 3300 2b3d 5532 9d3e 6ec2 94bd 5a3d 243e
00000140: 1296 9c3d c8b0 8c3e 227b 37be 411b dc3c
00000150: d870 5d3e cd88 c73e bf15 edbd 1791 0dbe
00000160: 7f73 053d a373 c5be 44e2 b9bc a33c bebd
00000170: acc5 483c 7d7a adbd 29da febd 9db1 07bd
00000180: 2180 1fbe a418 7a3b ec98 2dbe af79 85be
00000190: 679c 62be 88d1 b9bd 00df 78bb cf0f 953e
000001a0: 8bc9 2f3d b07f 623d eaf9 a63d 8554 943e
000001b0: 652c b5bd 0892 f93d 7c1c e73d d98d 8d3e
000001c0: d960 5dbe 8636 0e3d a7c0 323e 41cd a03e
000001d0: 2da7 fdbd 00e7 a9bd c8a6 073a 29a3 dfbe
000001e0: 4bae b9bc b1fa aebd 39b2 9d3c 5a90 94bd
000001f0: 7abf f3bd 3f18 6cbd 89f8 30be b835 5d39
00000200: 5ea9 3dbe 7d6c 8fbe 55c5 77be a4c4 81bd
00000210: ba1c 243d 1ece a33e 8e42 443d 97a0 3c3d
00000220: 22be e63d fbbf ab3e 1322 80bd 5ae1 333e
00000230: cf01 0d3e 7980 ab3e a143 29be 872c d83d
00000240: 78dd 0f3e 7139 a33e 1ac2 26be 27d8 68bd
00000250: 6070 9d3d 06bf debe 9da9 f63c eb91 9fbd
00000260: 755a 9a3c 522e d0bd e935 9dbd dc97 60bd
00000270: 5044 30be a823 27bd 089c 25be 02f3 9abe
00000280: 8102 53be 6364 1bbd 8f8e 913d 8b9b 9d3e
00000290: 58ed 803d 0df7 853d 0fe6 f53d 82b3 b63e
000002a0: 97bf e4bd 126b 6f3e 9aa0 1c3e 0b6b 833e
000002b0: f73a 08be 88ba a3bc 05b2 5b3e f6ca b13e
000002c0: df32 31be bfad d5bd 3253 b83d 62fa c6be
000002d0: 8a2e 233d 7fd7 92bd 2596 333d 3555 b2bd
000002e0: 3c76 16bc f194 5e3c 3792 11be 5212 29bc
000002f0: c9c1 59be 4439 a8be 234c 61be efb2 bbbc
00000300: 1e25 333d 59c0 b03e 6c17 6d3d 854c c33d
00000310: f0d8 1f3e 5bad 983e 15b9 dfbd 7b68 713e
00000320: 7e6f 4c3e 410e 953e 93af 2fbe 991b 053c
00000330: 0ba7 5e3e a593 a33e c8a9 e6bd d65e e6bc
00000340: 2f93 5b3d db8e cebe ef6f 323b ef02 0ebd
00000350: e097 7a3b d431 99bd f1ee 8bbd 00a0 09bd
00000360: b072 34be e49d 94bd 6e9d 43be 4116 a6be
00000370: bcc3 58be 3057 e9bc b9d5 443d 3dd1 b73e
00000380: d3bd 863d 3ef6 083e 26d3 213e dfe2 d53e
00000390: 4035 edbd 1fa1 6c3e 34b0 213e 06a6 843e
000003a0: 861e 02be 401f fa3d 5ae5 4a3e 3021 b53e
000003b0: cdfb e9bd ab40 cbbd c8f5 98bb 1f21 9ebe
000003c0: ab20 aa3c d851 74bd 941c 4e3c 14dc ecbd
000003d0: 3a22 e7bc d89c 9ebc 43e4 f2bd 2dde 80bd
000003e0: e17a 64be ec2b 9fbe 6bb4 51be 3862 2c3d
000003f0: d818 833d 45e6 a13e 66f5 113e 2f45 f63d

0.bias f4 [100]
0.16429839 0.021978498 0.0064543607 0.031615235 0.31989738 0.13816135 -0.016044635 0.020985117
-0.47897065 -0.8228644 -0.21143535 -0.24032666 0.05065032 -0.020763515 -0.18344276 0.35049617
0.003938048 -0.011298172 0.5721973 0.22281194 0.75980407 -0.06513106 -0.20724562 0.5920559
0.13544746 0.01080948 0.30269966 0.25279117 -0.1542321 -0.11235637 0.32736263 -0.08366049
-0.012849216 -0.0073833694 0.17685588 -0.4138488 -0.060013775 -0.66976625 -0.02498145 -0.034193195
-0.011737258 -0.2242773 -0.025033351 -0.015438533 0.021651365 -0.1593752 0.0017583279 -0.55937475
-0.27645925 -0.2624472 -0.28875697 0.49344006 -0.024563925 0.36014304 -0.21712476 -0.23688722
-0.03960374 0.3153178 -0.020945223 -0.014480379 -0.004648388 -0.28433838 -0.49028882 -0.065193005
0.03751915 -0.11593943 -0.13434298 -0.016363135 -0.6063207 0.39734378 -0.9557777 0.12230814
-0.43737856 -0.03429219 -0.0014309408 -0.11025813 -0.021659298 -0.82739204 -0.028999262 -0.21491592
0.024861475 0.16385931 0.25737855 0.19862242 -0.030612323 0.37669536 0.16620839 -0.2722812
0.0077164927 0.009891992 0.10580072 -0.028302524 -0.41349378 0.010777041 -0.11775502 -0.6065293
-0.094865434 0.38959196 -0.28754118 0.13173968
00000000: d63d 283e 400c b43c 1a7f d33b fa7e 013d
00000010: 97c9 a33e 2b7a 0d3e 0a70 83bc fbe8 ab3c
00000020: a43b f5be 3ea7 52bf 8282 58be 3118 76be
00000030: b676 4f3d 3f18 aabc 6bd8 3bbe 3c74 b33e
00000040: be0a 813b f81b 39bc 867b 123f d028 643e
00000050: 8582 423f 6f63 85bd 3238 54be fa90 173f
00000060: bdb2 0a3e 3f1a 313c 73fb 9a3e d86d 813e
00000070: 05ef 1dbe 191b e6bd 139c a73e 3156 abbd
00000080: 8585 52bc 31f0 f1bb b519 353e fde3 d3be
00000090: 01d1 75bd cd75 2bbf e6a5 ccbc 2a0e 0cbd
000000a0: a14d 40bc f3a8 65be be12 cdbc e7f1 7cbc
000000b0: 345e b13c 4133 23be b277 e63a 2f33 0fbf
000000c0: 118c 8dbe 7b5f 86be f4d7 93be 2da4 fc3e
000000d0: 493a c9bc ab64 b83e f455 5ebe 9092 72be
000000e0: 8837 22bd 5671 a13e 5195 abbc 1d3f 6dbc
000000f0: 8151 98bb cd94 91be 2307 fbbe e983 85bd
00000100: aead 193d a771 edbd 3591 09be fb0b 86bc
00000110: d537 1bbf a570 cb3e d9ad 74bf b17c fa3d
00000120: 15f0 dfbe f875 0cbd 688e bbba 04cf e1bd
00000130: d76e b1bc f7cf 53bf dc8f edbc eb12 5cbe
00000140: 4baa cb3c bcca 273e 1fc7 833e ad63 4b3e
00000150: b2c6 fabc 37de c03e 8832 2a3e 7168 8bbe
00000160: a2da fc3b 0612 223c 0cae d83d b2da e7bc
00000170: 75b5 d3be 3092 303c 8b29 f1bd 8145 1bbf
00000180: cf48 c2bd 9978 c73e 9938 93be c4e6 063e

2.weight f4 [100, 100]
-0.21419576 -0.08996542 -0.018392587 -0.051309373 -0.027034689 0.233647 0.07121794 -0.031420957
0.25140116 -0.05931138 0.007867783 0.20763277 -0.13149203 0.075902574 -0.009614738 0.044340856
0.02704366 -0.007438862 0.113757454 0.10599196 -0.12930559 0.09379435 0.031165503 -0.23455463
-0.04747854 0.08098791 -0.16115475 -0.06250346 0.13439275 0.43640983 -0.06767364 -0.056172196
0.05012796 -0.08019882 0.060127005 -0.08156809 -0.19699946 0.053998385 -0.06559449 -0.035072137
0.058151722 -0.11638222 0.02395382 -0.09640377 -0.041126084 0.04469363 0.023086155 0.087787874
0.21400222 0.041320633 0.08764854 0.100996874 -0.06609688 -0.20578828 -0.04039342 -0.057201732
0.03600119 -0.1860807 -0.08776114 -0.06771656 0.07795997 0.15222041 0.08443426 -0.14600536
0.26923767 -0.12115659 -0.23448752 0.059305407 0.23652221 0.089504234 0.13064036 0.2706581
-0.13642645 -0.19355154 0.09045215 -0.016606435 0.004408169 -0.04664571 0.028872252 -0.020580327
0.053078976 0.33555606 0.11510582 0.15284254 0.10314927 0.12787247 -0.223703 0.070266336
-0.013745571 -0.059492756 -0.037612665 -0.04629766 0.2586893 0.072837405 0.7954316 0.11458159
0.037939385 -0.48957777 0.190597 -0.28489235 0.047082618 -0.019648567 -0.08816602 0.09076403
0.1701638 -0.11799631 0.43480182 -0.101288214 0.1671112 -0.15511897 0.09018827 -0.0011392257
-0.010877466 0.008636623 0.118086725 -0.15430309 0.07285987 -0.031039739 0.13305804 0.18773046
-0.32522509 0.13667709 -0.343949 0.17320992 0.0754445 -0.031116761 -0.01045652 0.34111384
0.14069349 -0.32600835 -0.028753113 0.09909516 0.036141805 0.06812786 -0.15042344 -0.05228965
-0.0424347 -0.10051923 0.030988013 0.020015476 0.056363672 -0.027451977 -0.002474059 0.025883436
0.02457769 -0.15530123 -0.029725501 0.13022839 0.1963046 -0.18332405 -0.13450016 -0.045398984
-0.037694294 0.102133475 0.17278834 -0.102740034 0.051539775 -0.010603631 0.016165681 0.005447076
0.104213126 0.03219888 0.11569339 0.15859655 -0.119638674 -0.030768938 -0.08890493 0.018256871
-0.19740847 -0.050955415 0.043912545 0.074115574 0.14720085 -0.05340278 -0.047598936 -0.026529001
-0.0905753 0.1271399 -0.039458748 -0.23097819 0.061164036 -0.049888168 -0.048173737 -0.15235023
-0.07909943 0.020940743 0.1735772 0.034222 0.00853887 -0.06924021 0.2899446 0.061682776
0.06333017 0.043386035 -0.372734 -0.0048731226 0.08281741 0.20141947 -0.07222631 0.3141054
-0.006411774 -0.07628627 0.062403597 0.08789571 -0.062171448 -0.052283015 0.056962155 -0.09564507
0.026725627 -0.0076242853 -0.003945563 -0.12252075 -0.06510922 -0.07458167 -0.06990722 -0.074485615
-0.0060986998 -0.07570871 -0.09434843 0.08213636 -0.03658864 -0.08086951 0.09603661 0.031844076
0.03812408 0.01045903 -0.029408338 0.0364009 0.042900965 -0.09325417 0.022597557 0.027574012
0.08855963 -0.07789059 -0.1020628 -0.0040781205 -0.06870706 -0.055851143 -0.026480794 -0.041659962
-0.053957332 -0.03260469 -0.06863715 -0.060021568 0.07358197 -0.026679426 0.079002894 -0.12403211
-0.037958983 0.0024361513 0.0039433367 -0.02519517 0.04349457 0.06102498 -0.06192191 -0.014419669
00000000: 2256 5bbe ca3f b8bd 0dac 96bc c729 52bd
00000010: da77 ddbc 2941 6f3e b6da 913d 43b3 00bd
00000020: a7b7 803e 7df0 72bd e0e7 003c af9d 543e
00000030: d9a5 06be cf72 9b3d 2287 1dbc c29e 353d
00000040: aa8a dd3c b3c1 f3bb abf9 e83d 5012 d93d
00000050: af68 04be 4117 c03d cc4e ff3c 172f 70be
00000060: dc78 42bd fddc a53d c005 25be d001 80bd
00000070: 419e 093e 1c71 df3e 7a98 8abd d114 66bd
00000080: fa52 4d3d 473f a4bd bc47 763d 2c0d a7bd
00000090: 3aba 49be 692d 5d3d 6756 86bd cda7 0fbd
000000a0: 8030 6e3d cd59 eebd cd3a c43c 576f c5bd
000000b0: d373 28bd ab10 373d 2d1f bd3c 21ca b33d
000000c0: 6623 5b3e d33f 293d 1481 b33d 73d7 ce3d
000000d0: cd5d 87bd 2aba 52be 9273 25bd 5d4c 6abd
000000e0: fc75 133d f08b 3ebe 1dbc b3bd fbae 8abd
000000f0: 7aa9 9f3d abdf 1b3e dfeb ac3d 6e82 15be
00000100: 85d9 893e f220 f8bd 7f1d 70be 3aea 723d
00000110: e132 723e ff4d b73d 96c6 053e b393 8a3e
00000120: 60b3 0bbe 6032 46be fa3e b93d 380a 88bc
00000130: 6772 903b 920f 3fbd 8085 ec3c 1398 a8bc
00000140: 5769 593d 01ce ab3e 9abc eb3d c182 1c3e
00000150: ed3f d33d 00f1 023e 6612 65be cce7 8f3d
00000160: 1a35 61bc adae 73bd bd0f 1abd 9da2 3dbd
00000170: ed72 843e c72b 953d 68a1 4b3f c1a9 ea3d
00000180: 5466 1b3d f0a9 fabe dc2b 433e 69dd 91be
00000190: b4d9 403d 08f6 a0bc 6390 b4bd 7ee2 b93d
000001a0: 6b3f 2e3e 0da8 f1bd 589e de3e 3270 cfbd
000001b0: 331f 2b3e 82d7 1ebe a1b4 b83d 1252 95ba
000001c0: 6637 32bc 9f80 0d3c 74d7 f13d a101 1ebe
000001d0: 8e37 953d 0d47 febc 5e40 083e 6a3c 403e
000001e0: e783 a6be 14f5 0b3e 151a b0be f15d 313e
000001f0: a582 9a3d 94e8 febc d351 2bbc 79a6 ae3e
00000200: f411 103e 91ea a6be a68b ebbc 67f2 ca3d
00000210: 6e09 143d 9f86 8b3d 9a08 1abe ac2d 56bd
00000220: 02d0 2dbd 07dd cdbd 93da fd3c 7ff7 a33c
00000230: 98dd 663d f8e2 e0bc d223 22bb 8009 d43c
00000240: 2757 c93c 4907 1fbe e582 f3bc 975a 053e
00000250: 1304 493e 4db9 3bbe 69ba 09be 49f4 39bd
00000260: 5565 1abd 5b2b d13d 6def 303e 5e69 d2bd
00000270: 5f1b 533d daba 2dbc e46d 843c 637d b23b
00000280: b16d d53d f9e2 033d a8f0 ec3d 2267 223e
00000290: 1f05 f5bd 240f fcbc ca13 b6bd 6f8f 953c
000002a0: 7225 4abe a0b6 50bd a4dd 333d e8c9 973d
000002b0: d2bb 163e e0bc 5abd 1af7 42bd 5953 d9bc
000002c0: 8b7f b9bd f630 023e 7f9f 21bd 8c85 6cbe
000002d0: 2487 7a3d 8957 4cbd d351 45bd b301 1cbe
000002e0: e2fe a1bd ec8b ab3c 39be 313e 5e2c 0c3d
000002f0: 9ee6 0b3c d0cd 8dbd 9e73 943e 14a7 7c3d
00000300: 40b3 813d 8eb5 313d fed6 bebe b7ae 9fbb
00000310: 2d9c a93d e840 4e3e 63eb 93bd 6cd2 a03e
00000320: dc19 d2bb fa3b 9cbd ea9a 7f3d aa02 b43d
00000330: 7da7 7ebd b726 56bd 2651 693d 90e1 c3bd
00000340: b4ef da3c 24d5 f9bb c849 81bb 29ec fabd
00000350: fc57 85bd 46be 98bd 842b 8fbd ea8b 98bd
00000360: 9ad7 c7bb 2b0d 9bbd c039 c1bd 1c37 a83d
00000370: f8dd 15bd ea9e a5bd d8ae c43d ef6e 023d
00000380: ff27 1c3d 5a5c 2b3c c1e9 f0bc 1c19 153d
00000390: ecb8 2f3d 0bfc bebd 831e b93c e5e2 e13c
000003a0: c05e b53d 1a85 9fbd 4d06 d1bd c1a1 85bb
000003b0: 49b6 8cbd 2bc4 64bd 40ee d8bc a3a3 2abd
000003c0: 5d02 5dbd 7f8c 05bd a291 8cbd 2dd9 75bd
000003d0: 25b2 963d d08e dabc 45cc a13d 8c04 febd
000003e0: e17a 1bbd d6a7 1f3b 1b37 813b 1a66 cebc
000003f0: 5d27 323d 54f5 793d d4a1 7dbd 7a40 6cbc

2.bias f4 [100]
-0.0035749348 0.30078298 -0.098812245 0.8204522 -0.14488414 0.03781804 0.06619145 0.2675931
0.19590068 -0.261787 0.34312487 0.21246953 0.022707088 0.13656352 -0.6025051 -0.12585448
0.32713956 0.3181069 -0.0071170023 0.10119124 0.124403946 -0.12104984 -0.078879364 0.15190238
-0.08457678 -0.075180955 0.03270183 -0.4971487 -0.05047772 -0.71120965 0.19142148 -0.13390988
-0.26154584 -0.79053473 0.6120303 0.3610231 -0.013096122 -0.1100056 -0.06986726 0.05723057
-0.0834217 -0.047189876 -0.081340134 0.2481049 -0.28802782 0.4310671 -0.12861152 -0.024956059
-0.528303 0.044845633 -0.55490786 -0.2507001 0.83232224 0.18166919 -0.06842774 0.41072777
-0.093153074 0.8513802 1.1544755 -0.017498113 0.85832316 0.38890085 0.6720826 0.017782811
-0.2932687 -0.058550823 -0.011593898 -0.47941127 -0.56352246 -0.28553373 -0.075727984 -0.36458346
-0.6639167 -0.48558202 -0.042187274 -0.037628174 0.05664408 0.19368102 -0.20101264 0.5006449
-0.41334882 -0.16098306 -0.59373254 -0.33327016 0.14289787 0.41387734 -0.5518817 0.15040702
0.13749544 -0.67442185 -0.03575361 0.610145 -0.57552487 -0.0757435 -0.3859499 -0.10747818
0.057324756 -0.23820858 -0.27402505 -0.04221208
00000000: 7449 6abb 3a00 9a3e 135e cabd 2809 523f
00000010: 825c 14be 17e7 1a3d 628f 873d f601 893e
00000020: 309a 483e f208 86be 10ae af3e 9d91 593e
00000030: 3704 ba3c 4fd7 0b3e c63d 1abf ffdf 00be
00000040: d67e a73e e8de a23e be35 e9bb 5a3d cf3d
00000050: 7fc7 fe3d fae8 f7bd 818b a1bd 4c8c 1b3e
00000060: 9736 adbd 79f8 99bd 5bf2 053d 468a febe
00000070: bac1 4ebd d611 36bf fe03 443e ac1f 09be
00000080: 56e9 85be 7c60 4abf 05ae 1c3f 05d8 b83e
00000090: 1e91 56bc 9e4a e1bd 9116 8fbd 9a6a 6a3d
000000a0: ffd8 aabd 2c4a 41bd a895 a6bd 360f 7e3e
000000b0: 6278 93be d4b4 dc3e bdb2 03be a670 ccbc
000000c0: de3e 07bf 0eb0 373d 710e 0ebf c35b 80be
000000d0: 1213 553f 7d07 3a3e d823 8cbd e94a d23e
000000e0: 0ac7 bebd 0ef4 593f dac5 933f 3458 8fbc
000000f0: 11bb 5b3f 031e c73e 9b0d 2c3f 42ad 913c
00000100: 5127 96be fdd2 6fbd 55f4 3dbc 6575 f5be
00000110: 0243 10bf 7a31 92be 4617 9bbd afaa babe
00000120: 72f6 29bf 359e f8be 90cc 2cbd 0020 1abd
00000130: 9f03 683d 5154 463e 42d6 4dbe 442a 003f
00000140: 75a2 d3be bed8 24be dbfe 17bf 63a2 aabe
00000150: d253 123e bbe7 d33e 1e48 0dbf 4c04 1a3e
00000160: 9bcb 0c3e e9a6 2cbf 6172 12bd 7632 1c3f
00000170: 9955 13bf 681f 9bbd 3a9b c5be 851d dcbd
00000180: 5dcd 6a3d f3ec 73be 034d 8cbe 93e6 2cbd

4.weight f4 [100, 100]
-0.165451 0.104525454 -0.09524566 -0.25540736 -0.04436999 -0.02925733 0.12037697 0.024293883
-0.009172998 -0.13924804 -0.17060973 0.089314505 0.09815065 0.1707717 -0.063648455 0.068481624
-0.11111875 -0.2033529 -0.13146116 0.08245122 0.17049347 -0.39237258 -0.19390392 0.16644172
-0.019746091 0.02499471 0.098486565 -0.14566241 0.04342364 0.021633979 0.30050233 0.03233188
0.009278552 0.059015676 0.19871424 0.043034703 0.047080226 0.014947969 0.0806589 0.15395054
0.050149675 -0.060921613 0.014708245 0.22753896 -0.353863 -0.09968237 0.16743526 0.02850068
-0.16031845 0.012185572 0.06359537 -0.09107 0.18654041 -0.07361154 0.007808447 0.16126242
-0.39859024 0.1339604 0.12812199 0.11945012 0.38541496 0.061926804 0.03638853 0.25170147
-0.13324243 0.18624938 -0.013946934 -0.15590863 -0.15904729 -0.15706106 0.024753438 0.040724684
0.13900873 -0.20697515 -0.089980245 0.019626796 -0.23278886 -0.046045728 0.08804924 -8.706201e-05
0.08199612 -0.05277955 0.18663254 -0.06117562 -0.09347287 0.12423471 -0.13044757 0.09152277
0.32976055 -0.07580821 -0.15892397 0.29807866 0.0672721 -0.07280027 -0.23178193 0.0583737
0.0051936144 -0.18040684 -0.3869476 0.075131804 -0.302571 0.18545656 -0.03861194 -0.028848266
-0.09515441 -0.027227731 -0.4220619 -0.050291654 -0.10434718 0.15252815 -0.27402094 0.17091252
0.21864018 -0.002685843 -0.12414975 0.044982772 0.08922909 0.1631569 0.1597206 -0.120696016
-0.08202479 -0.091079205 0.03155788 0.23828277 -0.41769394 -0.017807199 0.056518074 -0.03813176
-0.012660184 0.24656837 0.31258804 -0.08276038 0.1988334 0.09906588 -0.088433586 -0.19861299
-0.14364386 -0.002794455 0.091771804 -0.026230155 -0.009477689 0.08764695 -0.09949476 -0.10324199
-0.08771634 0.10590993 -0.2983321 -0.04748266 0.16249213 -0.00016222522 0.082747504 0.014633077
0.010264227 0.18445954 -0.04460434 -0.12537722 -0.41493282 0.15945348 0.033120118 0.22526558
0.1469294 0.13385329 -0.027110226 0.21225514 -0.10837562 0.15195428 -0.030324658 -0.058203463
0.011881727 -0.03747279 -0.03793151 -0.09228177 0.12875503 -0.060677987 -0.0057462812 -0.0093858745
0.17398709 -0.058596585 0.083329916 -0.0042697066 0.0075628106 0.2820824 0.027933568 -0.038747393
-0.3416829 0.120957635 0.13922296 -0.11546972 -0.31094134 0.17614552 -0.16697739 0.3562353
0.18930647 0.02295372 -0.0050098454 -0.106184416 0.2669332 -0.07504439 -0.054330677 0.16225989
0.036137044 -0.006033402 -6.881952e-05 -0.101768695 -0.0319964 -0.08951696 -0.06759112 -0.05673326
-0.0902734 -0.09881891 0.032219637 -0.08972869 0.020147696 -0.05721971 -0.023708908 -0.12686811
-0.113664865 -0.10723936 0.03716233 -0.12399269 -0.071018234 -0.073675126 0.028895266 0.00029064275
-0.105986804 -0.030016482 -0.04082502 -0.0876539 0.07435904 -0.0074176537 -0.11853389 0.06848271
0.068637975 0.020557258 0.058913037 -0.005625077 0.012876415 -0.09267404 -0.06962333 -0.0026148101
0.03136597 -0.08739709 0.09838883 -0.027825322 -0.07952162 -0.06922414 -0.07803273 0.0090602515
-0.03721968 0.077710725 -0.0331883 -0.019528948 -0.11397977 -0.0993723 0.081890285 -0.095466554
00000000: fd6b 29be 7111 d63d 2810 c3bd c1c4 82be
00000010: 4ebd 35bd 11ad efbc 3388 f63d f703 c73c
00000020: 584a 16bc 0a97 0ebe 51b4 2ebe 86ea b63d
00000030: 3503 c93d c7de 2e3e 1f5a 82bd 1840 8c3d
00000040: 3a92 e3bd be3b 50be c19d 06be 2fdc a83d
00000050: d795 2e3e 0fe5 c8be c08e 46be b36f 2a3e
00000060: 8ec2 a1bc b5c1 cc3c 53b3 c93d 8728 15be
00000070: fddc 313d be39 b13c 71db 993e 6f6e 043d
00000080: 1105 183c 6cba 713d bf7b 4b3e 2845 303d
00000090: 32d7 403d 53e8 743c 7e30 a53d 36a5 1d3e
000000a0: bf69 4d3d f188 79bd dafa 703c f9ff 683e
000000b0: 882d b5be 4526 ccbd 2674 2b3e 427a e93c
000000c0: 852a 24be fea5 473c 4a3e 823d e882 babd
000000d0: 7304 3f3e a6c1 96bd 00de ff3b fa21 253e
000000e0: 0514 ccbe ea2c 093e 6932 033e 44a2 f43d
000000f0: 1c55 c53e f6a6 7d3d 240c 153d 04df 803e
00000100: b470 08be 28b8 3e3e ae81 64bc 83a6 1fbe
00000110: 4bdd 22be 9dd4 20be b9c7 ca3c edce 263d
00000120: 4e58 0e3e 4bf1 53be 9047 b8bd 60c8 a03c
00000130: 3460 6ebe 729a 3cbd 2953 b43d 1095 b6b8
00000140: 95ed a73d 5f2f 58bd 9a1c 3f3e 4993 7abd
00000150: b46e bfbd c56e fe3d 0c94 05be 4a70 bb3d
00000160: 60d6 a83e 5641 9bbd f7bc 22be c49d 983e
00000170: f4c5 893d 4f18 95bd 3e58 6dbe 4319 6f3d
00000180: 322f aa3b 92bc 38be ff1d c6be b4de 993d
00000190: 96ea 9abe 53e8 3d3e 8e27 1ebd 3353 ecbc
000001a0: 51e0 c2bd b10c dfbc 7f18 d8be 9ffe 4dbd
000001b0: f9b3 d5bd 5730 1c3e 794c 8cbe b103 2f3e
000001c0: 36e3 5f3e f804 30bb 3942 febd db3f 383d
000001d0: bebd b63d 9a12 273e cc8d 233e 792f f7bd
000001e0: 9dfc a7bd bc87 babd d642 013d 6600 743e
000001f0: fbdb d5be 67e0 91bc 7f7f 673d 0c30 1cbd
00000200: a96c 4fbc 6b7c 7c3e 8a0b a03e 467e a9bd
00000210: fc9a 4b3e 0de3 ca3d ab1c b5bd 3461 4bbe
00000220: 6017 13be 2d23 37bb dbf2 bb3d 9fe0 d6bc
00000230: 4f48 1bbc 3e80 b33d e9c3 cbbd 8970 d3bd
00000240: a0a4 b3bd 4ee7 d83d fcbe 98be 2d7d 42bd
00000250: 5664 263e 001b 2ab9 8677 a93d 93bf 6f3c
00000260: 4a2b 283c f6e2 3c3e 0ab3 36bd e362 00be
00000270: 1372 d4be c647 233e f6a8 073d 05ac 663e
00000280: a974 163e d610 093e 4416 debc 6959 593e
00000290: 09f4 ddbd e799 1b3e 6b6b f8bc c166 6ebd
000002a0: 93ab 423c 117d 19bd 125e 1bbd 3afe bcbd
000002b0: 5cd8 033e 7b89 78bd 4d4b bcbb 36c7 19bc
000002c0: ac29 323e f902 70bd e0a8 aa3d e5e8 8bbb
000002d0: 74d1 f73b 1b6d 903e f0d4 e43c 96b5 1ebd
000002e0: 10f1 aebe a3b8 f73d 7790 0e3e 637b ecbd
000002f0: b433 9fbe 7e5f 343e 1ffc 2abe 7964 b63e
00000300: 8ed9 413e 7109 bc3c a129 a4bb 3777 d9bd
00000310: 78ab 883e e0b0 99bd d889 5ebd 7527 263e
00000320: 7004 143d d8b3 c5bb 3353 90b8 1b6c d0bd
00000330: a80e 03bd ab54 b7bd 376d 8abd 2361 68bd
00000340: 43e1 b8bd 9261 cabd bdf8 033d adc3 b7bd
00000350: c80c a53c 375f 6abd 2f39 c2bc b7e9 01be
00000360: 20c9 e8bd 4fa0 dbbd 8737 183d e1ef fdbd
00000370: 0272 91bd fce2 96bd c4b5 ec3c 6961 9839
00000380: 9c0f d9bd 20e5 f5bc 2338 27bd e383 b3bd
00000390: 8d49 983d ca0f f3bb e5c1 f2bd aa40 8c3d
000003a0: 1192 8c3d b267 a83c cc4e 713d 9152 b8bb
000003b0: 99f7 523c e3cb bdbd ad96 8ebd 3c5d 2bbb
000003c0: 9a79 003d 3ffd b2bd 1580 c93d eef1 e3bc
000003d0: 3bdc a2bd 63c5 8dbd a0cf 9fbd 7371 143c
000003e0: aa73 18bd cd26 9f3d 74f0 07bd 2cfb 9fbc
000003f0: 3a6e e9bd b483 cbbd 18b6 a73d f883 c3bd

4.bias f4 [100]
0.3644087 -0.13136214 -0.0637123 -0.00058747653 0.5193246 0.25174224 0.10052355 0.031180225
-0.14508584 0.31625253 0.056269698 0.0026481908 -0.08476551 -0.31950483 -0.27296385 0.5790635
-0.29259768 0.060189042 -0.041571192 0.22602795 0.4444303 0.31564897 -0.062441673 -0.07875875
-0.0846413 0.63932616 0.1856502 -0.07649696 0.028819956 -0.5151239 0.11639677 -0.5374281
0.1973139 0.15606502 0.05085488 -0.3626156 -0.34107405 0.46672565 1.3413424 -0.35994405
-0.14560033 -0.02154495 0.21250099 0.30383632 0.04890497 0.16383676 0.11537873 -0.07613919
0.6164408 -0.13934752 -0.37052625 -0.43765688 0.16122274 -0.1569449 -0.20476036 0.25751507
0.021284442 -0.223653 -0.010071366 -0.12283331 0.037879147 0.27121383 0.053920344 -0.016133174
-0.40621084 -0.45098326 0.07817042 -0.017388286 -0.05812975 -0.0021104333 0.3138544 0.6475896
-0.31053904 0.027147658 -0.07821264 0.07920345 -0.052967444 -0.030268854 -0.1684728 0.19325912
0.27265936 -0.14771116 -0.31515422 -0.63714707 0.108714566 0.025513845 -0.16062497 -0.028178181
0.104776695 0.06261107 -0.0950809 0.44831654 0.43627584 -0.10660461 0.36587477 0.6463535
0.20956361 0.1887107 -0.40883562 -0.18378064
00000000: c793 ba3e cc83 06be 987b 82bd e200 1aba
00000010: 75f2 043f 5ce4 803e 4adf cd3d ac6d ff3c
00000020: 6291 14be daeb a13e 0e7b 663d 458d 2d3b
00000030: 8a99 adbd 2396 a3be ebc1 8bbe 813d 143f
00000040: 5dcf 95be c988 763d 8e46 2abd df73 673e
00000050: 5e8c e33e be9c a13e d7c2 7fbd 444c a1bd
00000060: 6b58 adbd e1aa 233f 161b 3e3e 70aa 9cbd
00000070: d417 ec3c 29df 03bf 6e61 ee3d e394 09bf
00000080: a80c 4a3e 82cf 1f3e 354d 503d c0a8 b9be
00000090: 42a1 aebe aaf6 ee3e 1cb1 ab3f 964a b8be
000000a0: 4118 15be 097f b0bc dc99 593e 6f90 9b3e
000000b0: 9450 483d d3c4 273e af4b ec3d ddee 9bbd
000000c0: 10cf 1d3f 1eb1 0ebe 9eb5 bdbe 9014 e0be
000000d0: 9317 253e 2ab6 20be b3ac 51be 04d9 833e
000000e0: b65c ae3c 4b05 65be 5f02 25bc 0890 fbbd
000000f0: 2a27 1b3d 8adc 8a3e 94db 5c3d b829 84bc
00000100: defa cfbe 47e7 e6be d017 a03d e171 8ebc
00000110: 7619 6ebd 324f 0abb 86b1 a03e 6fc8 253f
00000120: f9fe 9ebe c464 de3c f32d a0bd 6b35 a23d
00000130: 64f4 58bd 63f6 f7bc 2284 2cbe b8e5 453e
00000140: 029a 8b3e 9841 17be e55b a1be 121c 23bf
00000150: bea5 de3d 6902 d13c df7a 24be eed5 e6bc
00000160: 2a95 d63d 3c3a 803d c6b9 c2bd bf89 e53e
00000170: 8c5f df3e 8553 dabd f053 bb3e 6c77 253f
00000180: d897 563e 613d 413e e752 d1be fe30 3cbe

6.weight f4 [157, 100]
-0.19317278 0.020879753 0.004633003 0.0543376 -0.05800426 -0.12320946 0.18384507 -0.03819436
0.07010018 -0.19548427 -0.08968593 0.0037237743 -0.079633534 0.015679715 -0.115424186 0.11000324
-0.30052316 0.047373258 -0.18129064 -0.024789872 0.17181897 -0.40668973 -0.6113543 -0.19234261
0.0071846647 -0.13631646 0.0067583965 0.015356515 0.028327215 -0.027277285 0.049152553 0.098466784
-0.0061972397 -0.0037777976 -0.097353905 0.24688645 0.13347402 -0.31122375 -0.0970675 0.06574328
-0.15577343 0.039106295 0.18077983 -0.19011873 0.30157685 -0.19125734 -0.29844067 0.063250564
-0.39923644 -0.086429454 0.04955354 0.029221786 -0.27901202 0.07960649 -0.072942056 -0.2361441
-0.035443425 -0.28250927 0.107782535 0.0591119 -0.028721979 -0.003785695 -0.013797969 0.08280273
-0.010738362 -0.05498946 -0.07142883 0.064608164 -0.08246833 0.07418492 0.23206188 0.17696626
-0.13626938 0.14798176 -0.03736153 0.18720514 0.0972231 -0.056462433 0.0047335518 -0.18489295
0.06327314 -0.07639474 0.02795624 0.06513198 0.020311773 0.11868318 -0.07565626 -0.03696396
-0.05746896 -0.15953133 0.044179868 -0.23934606 0.13245763 0.003380543 -0.1535212 0.029118886
0.052080747 0.15064186 -0.17064214 0.18347196 -0.04898187 0.13861541 0.017050473 -0.049098264
0.19286992 -0.19024533 -0.1689473 -0.04265756 0.09095769 0.19686227 -0.080064945 -0.036872134
-0.09715841 -0.35521078 -0.01365612 -0.055197436 0.17575592 -0.6220325 0.34480667 -0.0048145317
0.108751066 0.013391673 0.16577706 -0.09574801 0.0815805 -0.9414579 -0.2991149 -0.005912818
0.15484314 -0.19187182 -0.08563849 -0.13213171 -0.005247801 -0.022817828 -0.45968157 -0.3213693
0.25350162 -0.17271617 -0.014793961 -0.5398942 -0.22050351 -0.059014626 -0.231038 0.09952659
0.0652715 0.1486937 -0.105985574 0.031320445 0.02812105 0.024770949 -0.09807521 0.15627094
-0.19949159 -0.32511026 0.19354215 -0.098409116 0.013417655 0.049054958 -0.014580701 0.033330508
0.21045499 0.12627675 -0.041968998 -0.04684393 0.28108254 -0.24408202 0.02195886 0.10905139
-0.084257126 -0.13558678 -0.18558536 0.190268 -0.16863932 -0.10379533 0.31727076 -0.67778707
0.158971 0.17549156 0.04354516 -0.036186222 -0.19652878 0.14684919 0.041085392 -0.0074883043
-0.21924794 -0.019634236 -0.38220477 -0.0036667576 0.17465165 -0.06446435 -0.05654301 0.040819924
0.04792696 -0.12557025 -0.09483943 0.15946041 0.06947017 0.038718082 0.010634892 -0.019313589
-0.36567158 0.062785216 -0.081463955 -0.10713355 -0.46947175 0.10375123 0.030833783 0.042810045
0.15063654 -0.162695 0.056586012 0.04347641 0.06268205 -0.26977223 0.003583051 0.073593795
0.13810873 0.08507844 0.10147259 0.067370474 0.013882075 0.13005279 0.12178051 -0.10171088
0.09464277 0.094352536 0.1417414 0.17995785 -0.20343599 -0.06485931 -0.12738821 -0.014321745
0.15340789 -0.38288856 -0.011344005 0.09142681 -0.02823659 0.3022018 -0.12594861 0.044861026
0.045764823 -0.040468752 0.17160495 0.013032369 0.26788104 -0.07872944 -0.01972639 -0.015488496
0.11242376 -0.16472884 -0.16477165 0.10370117 0.02654853 0.008223412 -0.30755347 -0.08435385
00000000: 16cf 45be 040c ab3c 72d0 973b 1a91 5e3d
00000010: e095 6dbd 3e55 fcbd e241 3c3e b071 1cbd
00000020: af90 8f3d 072d 48be 42ad b7bd 910a 743b
00000030: e816 a3bd bf72 803c 8463 ecbd 6149 e13d
00000040: 2cde 99be 760a 423d 41a4 39be 2114 cbbc
00000050: 50f1 2f3e a339 d0be b781 1cbf 76f5 44be
00000060: 566d eb3b 8b96 0bbe 8a75 dd3b e499 7b3c
00000070: 7a0e e83c 9d74 dfbc 3054 493d f4a8 c93d
00000080: 3712 cbbb ed94 77bb 7c61 c7bd cdcf 7c3e
00000090: 6aad 083e b858 9fbe 53cb c6bd 6aa4 863d
000000a0: 1283 1fbe ec2d 203d 591e 393e 7cae 42be
000000b0: 4868 9a3e f7d8 43be 37cd 98be 8389 813d
000000c0: b868 ccbe ed01 b1bd a7f8 4a3d 8762 ef3c
000000d0: aada 8ebe ba08 a33d a562 95bd c2cf 71be
000000e0: 202d 11bd 0ea5 90be 17bd dc3d 521f 723d
000000f0: 5b4a ebbc 6c19 78bb e010 62bc 7a94 a93d
00000100: f4ef 2fbc a13c 61bd 4749 92bd 4951 843d
00000110: 28e5 a8bd 43ee 973d a1a1 6d3e a536 353e
00000120: 338a 0bbe 8888 173e 6708 19bd b4b2 3f3e
00000130: e81c c73d 2745 67bd e91b 9b3b 9454 3dbe
00000140: 5995 813d d874 9cbd 7c04 e53c ea63 853d
00000150: e064 a63c 2b10 f33d abf1 9abd 8567 17bd
00000160: 9264 6bbd 2e5c 23be f3f5 343d 2217 75be
00000170: f9a2 073e 1a8c 5d3b a934 1dbe bb8a ee3c
00000180: 9f52 553d dc41 1a3e d0bc 2ebe 13e0 3b3e
00000190: 37a1 48bd 33f1 0d3e 6fad 8b3c 431b 49bd
000001a0: b17f 453e accf 42be 8500 2dbe b2b9 2ebd
000001b0: 0648 ba3d 4396 493e 17f9 a3bd 3c07 17bd
000001c0: fdfa c6bd 30de b5be ebbd 5fbc b516 62bd
000001d0: 5cf9 333e 863d 1fbf 808a b03e 38c3 9dbb
000001e0: e1b8 de3d bf68 5b3c 76c1 293e 8817 c4bd
000001f0: ad13 a73d 6303 71bf 9725 99be 50c0 c1bb
00000200: 338f 1e3e 0c7a 44be 3c63 afbd 894d 07be
00000210: bff5 abbb 74ec babc 625b ebbe 848a a4be
00000220: f7ca 813e 82dc 30be 5f62 72bc 8236 0abf
00000230: accb 61be 52b9 71bd 3a95 6cbe 99d4 cb3d
00000240: 10ad 853d 2943 183e f70e d9bd de49 003d
00000250: 1e5e e63c 72ec ca3c a8db c8bd 7d05 203e
00000260: 8647 4cbe da74 a6be ea2f 463e b88a c9bd
00000270: b9d5 5b3c daed 483d e4e3 6ebc 9285 083d
00000280: 8381 573e b14e 013e afe7 2bbd 6cdf 3fbd
00000290: 0dea 8f3e a3f0 79be 11e3 b33c 5656 df3d
000002a0: 008f acbd 43d7 0abe 170a 3ebe 9dd5 423e
000002b0: c9af 2cbe a592 d4bd 5071 a23e 7483 2dbf
000002c0: 4bc9 223e 0fb4 333e 695c 323d 0138 14bd
000002d0: d73e 49be a25f 163e 2849 283d 7360 f5bb
000002e0: 8882 60be fad7 a0bc 58b0 c3be fc4d 70bb
000002f0: e2d7 323e e305 84bd a599 67bd cb32 273d
00000300: 0f4f 443d 7d95 00be 2d3b c2bd 9749 233e
00000310: 6046 8e3d da96 1e3d f83d 2e3c 8837 9ebc
00000320: 4e39 bbbe 8995 803d 93d6 a6bd d668 dbbd
00000330: 9a5e f0be 867b d43d 2197 fc3c 9659 2f3d
00000340: 7740 1a3e 8599 26be bcc6 673d 5214 323d
00000350: 725f 803d 961f 8abe 9fd1 6a3b 58b8 963d
00000360: 606c 0d3e 9b3d ae3d dcd0 cf3d 88f9 893d
00000370: a571 633c 8f2c 053e 0f68 f93d cb4d d0bd
00000380: 12d4 c13d e73b c13d a824 113e df46 383e
00000390: 8651 50be f5d4 84bd 0e72 02be c1a5 6abc
000003a0: f516 1d3e f809 c4be 35dc 39bc fb3d bb3d
000003b0: 6c50 e7bc 32ba 9a3e acf8 00be 32c0 373d
000003c0: e573 3b3d 90c2 25bd 35b9 2f3e b885 553c
000003d0: b427 893e e73c a1bd 3d99 a1bc 76c3 7dbc
000003e0: 6e3e e63d adae 28be e6b9 28be 4761 d43d
000003f0: 4e7c d93c 7dbb 063c a677 9dbe b6c1 acbd

6.bias f4 [157]
0.11777172 -0.07192613 0.2531747 -0.5179736 -0.11946949 -0.3637686 -0.07287228 -0.073856905
-0.06917266 0.1546223 -0.2777389 0.045879655 -0.023404375 -0.5944389 -0.6407939 -0.12961923
0.050003268 0.29199898 0.0057739546 0.32530135 0.12580138 0.046041425 -0.24570374 0.590353
-0.27733752 0.18533069 -0.018694619 0.52244204 -0.45406288 0.2315058 -0.19995898 -0.07579614
-0.43904945 0.06087047 0.23001455 0.15146844 0.09821276 0.56315565 0.23119247 0.07652289
-0.42465362 -0.06623377 0.3758367 0.13096707 0.10185041 0.41438818 0.47138095 0.54864615
0.2418386 -0.3960069 -0.07242734 0.14510576 -0.24009846 -0.2683651 0.09511251 0.124035135
-0.42598358 -0.11128407 0.25623614 -0.40931767 -0.1738185 0.25601706 0.55999565 0.11912549
-0.118253596 -0.058043655 0.24044266 -0.26084 -0.32825834 -0.22831923 0.091181226 0.042442467
0.32255834 -0.07491715 -0.2743525 0.0021460492 0.01361405 -0.19534115 -0.49512154 0.14066204
-0.122204565 0.0007752462 -0.056976207 0.19100614 0.21448015 0.3688279 -0.19861679 0.62857527
0.4006182 -0.2998746 -0.5481399 0.5214883 -0.10880194 0.47419378 0.032470804 -0.5036547
0.0070885723 -0.32807434 -0.35081112 -0.016390612 0.28560105 0.2573776 -0.025099076 0.28534228
0.069210276 0.08124666 0.23632908 0.04815849 -0.12354223 0.032402653 -0.20734021 -0.24748419
0.0035137704 -0.032426912 0.17737833 -0.37227845 -0.039214645 -0.21618207 0.09410865 -0.10937034
0.2110893 0.6306564 -0.0680039 -0.26937032 0.2544154 -0.29338193 -0.22271398 0.33232945
0.53012574 -0.17202017 0.045530837 0.042503983 -0.2468242 -0.04378961 -0.2482068 -0.026463127
0.16847198 -0.3211943 0.031262036 0.1756469 0.75759053 -0.1264908 -0.4643746 -0.09682405
-0.12772366 0.0343144 -0.7219181 0.04346323 0.03546215 0.1745643 -0.17120852 -0.54839665
-0.32424474 -0.18547389 0.041710224 0.049616616 0.17530185
00000000: 4d32 f13d 024e 93bd 1da0 813e eb99 04bf
00000010: 6cac f4bd e13f babe 103e 95bd 4a42 97bd
00000020: 65aa 8dbd 4f55 1e3e cb33 8ebe 4eec 3b3d
00000030: 88ba bfbc 262d 18bf 120b 24bf e7ba 04be
00000040: 3ad0 4c3d e480 953e 7133 bd3b e68d a63e
00000050: 14d2 003e ef95 3c3d c399 7bbe 6021 173f
00000060: 2fff 8dbe 54c7 3d3e 7525 99bc c3be 053f
00000070: ee7a e8be db0f 6d3e 0cc2 4cbe 023b 9bbd
00000080: 17cb e0be 5053 793d ef88 6b3e 8b1a 1b3e
00000090: c623 c93d f82a 103f b8bd 6c3e 08b8 9c3d
000000a0: 336c d9be 92a5 87bd ab6d c03e 3b1c 063e
000000b0: f396 d03d b02a d43e d858 f13e 1374 0c3f
000000c0: 8aa4 773e 6bc1 cabe c954 94bd 9b96 143e
000000d0: 5fdc 75be 2667 89be 59ca c23d 2206 fe3d
000000e0: 851a dabe e7e8 e3bd 6231 833e 1692 d1be
000000f0: 7afd 31be ab14 833e e05b 0f3f 11f8 f33d
00000100: f12e f2bd 2fbf 6dbd 9a36 763e d28c 85be
00000110: 7a11 a8be 84cc 69be 39bd ba3d 27d8 2d3d
00000120: 5e26 a53e 2a6e 99bd ee77 8cbe bba4 0c3b
00000130: 770d 5f3c 8307 48be 9280 fdbe b609 103e
00000140: 6346 fabd e439 4b3a e25f 69bd 1d97 433e
00000150: afa0 5b3e 03d7 bc3e 3362 4bbe 4fea 203f
00000160: d41d cd3e 2a89 99be e652 0cbf 4280 053f
00000170: 8dd3 debd 87c9 f23e 1b00 053d 84ef 00bf
00000180: 4147 e83b 5cf9 a7be 849d b3be 9b45 86bc
00000190: 4d3a 923e ffc6 833e 949c cdbc 6218 923e
000001a0: 1ebe 8d3d a664 a63d 4000 723e d641 453d
000001b0: b503 fdbd a5b8 043d fe50 54be 7f6c 7dbe
000001c0: 4947 663b 15d2 04bd aaa2 353e 489b bebe
000001d0: 899f 20bd d55e 5dbe 09bc c03d 8ffd dfbd
000001e0: cb27 583e b372 213f a145 8bbd e8ea 89be
000001f0: bc42 823e 2836 96be 220f 64be 1627 aa3e
00000200: 52b6 073f 0e26 30be 8b7e 3a3d a818 2e3d
00000210: 7cbf 7cbe bc5c 33bd ec29 7ebe 33c9 d8bc
00000220: eb83 2c3e 9473 a4be 9f0c 003d c8dc 333e
00000230: 74f1 413f ce86 01be 82c2 edbe b04b c6bd
00000240: fec9 02be 428d 0c3d a0cf 38bf 8006 323d
00000250: c240 113d fcc0 323e 4951 2fbe b963 0cbf
00000260: 6803 a6be deec 3dbe 57d8 2a3d cb3a 4b3d
00000270: 5482 333e
