neura1/e17_weights.ckpt (torch, 399055 bytes, 8 tensors)

0.weight f4 [100, 630]
00000000: 6dae 033d 12e6 be3c 76c1 133d aeee c7be
00000010: 1b2a 29be 4672 f3bd ae75 a5be 375d bcbd
00000020: ac8c adbe 0f06 f3be b988 f8be 7166 26bd
00000030: f225 353d 8b99 da3e 0a04 82bc 0c52 e6bd
00000040: 35c9 263e dc51 f43e 6193 1ebe 44bd d33d
00000050: 0ac2 723e dc63 be3e d3da 5fbe a072 8fbc
00000060: ef31 873e 8488 0a3f 034d c0bc 4b72 76bd
00000070: 5b5f 803d dfdd e8be 428d 373c e2a3 0ebd
00000080: 6573 583d b9bf d9bd 3c75 1dbe f096 0ebc
00000090: 8428 29be 452e 01bd 748a 21be a77e 91be
000000a0: 8ab4 89be 3caa f9bd b805 24bd d253 393e
000000b0: b10e 47bb acba 46bd ef1b 0c3d 9861 983e
000000c0: 01ff 1abe 293c a03d 86f0 d83d 0426 893e
000000d0: 5e41 85be 1328 0fbd b241 233e e047 d93e
000000e0: 37b6 d8bd b152 f2bd d141 853d 4e45 dfbe
000000f0: f1d1 e73b 5aa5 94bc 638b 193c b75c e4bd
00000100: 7bd3 39be da4b 04bd d42a 26be 29fb 1f3d
00000110: 24f9 37be 89df 87be 49a8 6cbe ad93 08be
00000120: 4279 0a3c 3645 863e f95f 7c3d 6ac9 383d
00000130: 200e 5d3d 6d81 aa3e f1c4 7cbd a785 2d3e
00000140: b275 ba3d 1ca6 8d3e 8cd7 4abe 4658 a03c
00000150: ab42 5b3e 546f cf3e a737 06be c4e8 06be
00000160: bfbd 2a3d 7524 cabe b6f5 c9bc b506 c0bd
00000170: b03d 123c 588b a6bd ed52 11be 35c0 2bbd
00000180: 3ac6 21be 020f 603b 4739 2cbe 821a 85be
00000190: b7de 63be e6fe d2bd cf61 d5ba 2dfe 953e
000001a0: cf92 3a3d dbda ac3d b5ca b23d 390c a63e
000001b0: 9bca 98bd fe75 003e 6894 f83d 685f 843e
000001c0: bff5 80be 0229 633d 0752 283e 8eda a93e
000001d0: cb5b 10be 52dc aabd ce9c cf3c 5d42 ecbe
000001e0: 586d c1bc 7b68 b0bd f7a4 a43c 72a2 89bd
000001f0: bc13 00be 2caa 8cbd 73ff 37be 1421 903b
00000200: 8671 36be 86ae 8cbe e628 78be 9e8b 94bd
00000210: d9f4 313d 2937 a83e 8d5a 213d bb74 9e3d
00000220: 2d54 f53d 0c72 bc3e 5fbc 42bd b14e 3d3e
00000230: 1519 273e 72f0 a53e 9b0c 44be 5bb0 f63d
00000240: 3329 0a3e 6d8a b53e a74c 2bbe 2a43 50bd
00000250: 2b3d ba3d 2952 eebe 8334 e53c 6398 9dbd
00000260: 7857 a83c 17a9 c5bd b7cc 9fbd 49ae 5bbd
00000270: a0e7 38be fb6e 07bd 6667 22be f66e 9bbe
00000280: 2596 4fbe 42d9 66bd 8fbe 973d 3377 993e
00000290: 7ebf 843d 9718 bc3d 7310 113e e9d7 c53e
000002a0: 74fb d1bd 66dc 5a3e 3825 393e 88a9 863e
000002b0: 9a4f 19be 17c0 94bb b7bd 633e 3e86 c43e
000002c0: 0b64 36be 6127 d9bd 9580 f13d 6fe5 cfbe
000002d0: 9b44 143d c51e 8ebd f00d 2c3d d83f adbd
000002e0: 5322 e3bb 562c 873c 634c 1dbe 8dc6 02bc
000002f0: f10b 55be 9c9a a6be f84f 59be edfd 30bd
00000300: 4c64 3f3d 2e4e ab3e 82f5 663d 3953 023e
00000310: 80b4 293e fa1c ab3e 4b2f d8bd 1162 663e
00000320: 87bf 5c3e b381 993e d6b9 39be 53e8 bf3c
00000330: 2ac5 633e f433 ac3e 4cab 04be 06de e3bc
00000340: 2fe1 9f3d 7dc7 d1be eee2 b5ba 7fb7 febc
00000350: ab29 d13a 24c2 91bd 3a46 8ebd 7951 9dbc
00000360: c986 3fbe 1aac 70bd 1322 46be 34b9 a2be
00000370: a224 51be 81e6 2cbd 2e07 4d3d a051 b53e
00000380: af69 6e3d 8cac 2e3e 1224 383e 50b4 e23e
00000390: 714e 00be 16e0 6a3e c2dd 263e 6c82 823e
000003a0: 185b 10be 227a 043e 5f4b 643e cb67 bb3e
000003b0: 80de 0bbe 7fa5 c1bd e05d f73c f9b1 a3be
000003c0: eeea 903c 021e 61bd 1710 3d3c 5cc3 efbd
000003d0: 46bd ebbc 53cf edbb 8037 f8bd 2eb7 38bd
000003e0: 0b49 6cbe ea2d 9fbe 6294 49be 2848 9a3c
000003f0: 42fe 8b3d 4193 993e e045 093e 41ec 163e
0.032148767 0.023303065 0.03607317 -0.39049286 -0.16519968 -0.1188703 -0.32316345 -0.09197467
-0.33896387 -0.4746556 -0.4854181 -0.04062504 0.04422564 0.4269527 -0.015871067 -0.11246118
0.16287692 0.47718704 -0.15485908 0.10338834 0.23706833 0.37185562 -0.21860819 -0.017510712
0.26405284 0.54114556 -0.023474222 -0.060167592 0.062681876 -0.45481774 0.011203112 -0.03482426
0.052844424 -0.10632271 -0.15376753 -0.0087029785 -0.16519362 -0.031538267 -0.15775472 -0.2841694
-0.26895553 -0.12190673 -0.040044516 0.18098381 -0.0030373747 -0.048517868 0.034206327 0.29761958
-0.15136339 0.07823975 0.10592751 0.26786816 -0.26026434 -0.034950327 0.1594303 0.4243765
-0.1058163 -0.118321784 0.06506694 -0.43607563 0.0070745875 -0.018145252 0.009371611 -0.111504965
-0.1814708 -0.0322989 -0.16227275 0.039057884 -0.17966133 -0.2653773 -0.2311107 -0.13337584
0.008451762 0.2622468 0.061614964 0.04511396 0.05396855 0.3330187 -0.061711255 0.16945516
0.0910448 0.27665794 -0.19808787 0.019573342 0.2141215 0.40514624 -0.13107167 -0.1317473
0.041684862 -0.3948094 -0.024653297 -0.09376279 0.00892584 -0.081320465 -0.1419179 -0.04193135
-0.15798274 0.0034188633 -0.16818725 -0.25996786 -0.22252928 -0.10302524 -0.001627976 0.29295483
0.045550164 0.08440181 0.087300695 0.324312 -0.07460519 0.1254501 0.12137681 0.2585404
-0.2518749 0.05545903 0.16437541 0.33174556 -0.14097516 -0.08342804 0.025343325 -0.4614438
-0.02361171 -0.08613678 0.020098193 -0.06720437 -0.12507528 -0.06868395 -0.1796854 0.0043984745
-0.17816743 -0.274769 -0.24234352 -0.07253192 0.043446396 0.32854584 0.039392997 0.07737108
0.11978946 0.3680576 -0.047542926 0.1848705 0.16318162 0.32410008 -0.19145434 0.12045356
0.13492279 0.35457173 -0.1672846 -0.050845303 0.09093698 -0.46547058 0.027979141 -0.07695081
0.02054952 -0.09651392 -0.07802718 -0.05363301 -0.18057108 -0.033064824 -0.15859756 -0.30358094
-0.2027212 -0.056359537 0.07409393 0.29973754 0.06481837 0.09184378 0.14166431 0.3864129
-0.10253039 0.21373138 0.18080604 0.26301217 -0.14971772 -0.0045395005 0.22240339 0.3838367
-0.17811601 -0.10603214 0.11792103 -0.4060473 0.03619824 -0.069394626 0.04200548 -0.08459443
-0.006931582 0.016500633 -0.1536117 -0.0079819085 -0.20805337 -0.32539833 -0.21221912 -0.043210912
0.04672651 0.33458084 0.05638648 0.1272706 0.16572762 0.33420545 -0.105558954 0.22498347
0.21557437 0.29981765 -0.18137297 0.02342621 0.22243181 0.33633387 -0.1295597 -0.02781583
0.07806622 -0.4097251 -0.0013876834 -0.031093357 0.0015957853 -0.071171075 -0.069469884 -0.019203888
-0.1870376 -0.05875788 -0.19348936 -0.31781924 -0.2042413 -0.042212013 0.050055675 0.35413837
0.058206256 0.17058009 0.1798251 0.44278193 -0.12529923 0.22937045 0.16295531 0.2549013
-0.1409725 0.12937215 0.22294377 0.36602625 -0.13659096 -0.09455394 0.03019613 -0.3197172
0.017690148 -0.05496026 0.011539481 -0.11707184 -0.028776776 -0.007257381 -0.12119961 -0.04509657
-0.23074739 -0.31089717 -0.1968551 0.018833235 0.06835605 0.29995158 0.13405561 0.14738561

0.bias f4 [100]
00000000: 0a86 373e 400c b43c 1a7f d33b fa7e 013d
00000010: 9238 b63e d2ce 193e e31b e5ba fbe8 ab3c
00000020: 3700 05bf ad0a 61bf 41c1 6ebe 364e 86be
00000030: cf26 683d 4d38 ecbc 536e 52be 0c9b c93e
00000040: be0a 813b f81b 39bc 3d70 213f 2365 593e
00000050: 4874 513f e917 74bd a43d 65be 1906 1f3f
00000060: 14a4 1b3e 3f1a 313c a35f b83e 14c4 833e
00000070: 0ce2 25be af33 15be 52c4 b73e 93e9 87bd
00000080: 8585 52bc 31f0 f1bb 382a 593e f559 e4be
00000090: 31a3 30bd 8460 3ebf e6a5 ccbc 2a0e 0cbd
000000a0: a14d 40bc caaf 76be be12 cdbc e7f1 7cbc
000000b0: 345e b13c 151c 26be b277 e63a 9310 17bf
000000c0: ddc4 a3be e52b 8abe b8ea 95be 61bb 0b3f
000000d0: 493a c9bc 8301 be3e 5d15 7cbe d3d0 6fbe
000000e0: 8837 22bd aae4 b13e 5195 abbc 1d3f 6dbc
000000f0: 8151 98bb b834 9dbe 9bd1 08bf 9831 88bd
00000100: e200 a43c b084 febd 2b85 26be fb0b 86bc
00000110: 23b3 27bf 9647 df3e 8a1e 83bf d8bc 0f3e
00000120: 4922 f1be 5de5 4fbd 688e bbba 6893 f1bd
00000130: d76e b1bc dd66 61bf dc8f edbc 28f7 65be
00000140: 4baa cb3c 1cdd 333e da69 8c3e f152 6d3e
00000150: b2c6 fabc e3c8 d63e 9b5e 2a3e 4080 95be
00000160: a2da fc3b 0612 223c 4062 c53d b2da e7bc
00000170: e9a0 efbe 3092 303c 4c92 0ebe c33c 21bf
00000180: 3ae3 bfbd 3f47 d73e 666d 9fbe ac56 1f3e
0.17922226 0.021978498 0.0064543607 0.031615235 0.35590035 0.15020302 -0.0017479624 0.020985117
-0.5195345 -0.87906915 -0.23315908 -0.26231545 0.056677636 -0.02883544 -0.20549898 0.39376104
0.003938048 -0.011298172 0.6306189 0.21229987 0.81818056 -0.059593115 -0.22386795 0.6211868
0.1519931 0.01080948 0.36010465 0.25735533 -0.16199511 -0.14570497 0.35891968 -0.066363476
-0.012849216 -0.0073833694 0.21207511 -0.44599882 -0.04312438 -0.7436602 -0.02498145 -0.034193195
-0.011737258 -0.24090496 -0.025033351 -0.015438533 0.021651365 -0.1622165 0.0017583279 -0.59009665
-0.31986132 -0.26986614 -0.2928064 0.5458279 -0.024563925 0.37110528 -0.24617524 -0.23419504
-0.03960374 0.3474477 -0.020945223 -0.014480379 -0.004648388 -0.30704284 -0.5344483 -0.06650084
0.020019952 -0.12427652 -0.16261737 -0.016363135 -0.65507716 0.43609303 -1.0243695 0.14036882
-0.4709647 -0.050755847 -0.0014309408 -0.11795694 -0.021659298 -0.8804758 -0.028999262 -0.22457564
0.024861475 0.17564815 0.27424508 0.23176171 -0.030612323 0.4195014 0.16637652 -0.2919941
0.0077164927 0.009891992 0.0963788 -0.028302524 -0.46802452 0.010777041 -0.13922995 -0.6298334
-0.09369512 0.42046544 -0.31138152 0.15560406

2.weight f4 [100, 100]
00000000: 5dc6 55be ca3f b8bd 0dac 96bc c729 52bd
00000010: f088 d9bc cc9c 743e add5 8d3d 43b3 00bd
00000020: e2a0 883e 1906 9cbd b73e 503b d70e 513e
00000030: 8809 10be c7f0 ae3d d746 30bc c2e9 0e3d
00000040: aa8a dd3c b3c1 f3bb aa81 dd3d 4029 e53d
00000050: e7e4 05be a4e0 c93d ac80 0a3d dba3 73be
00000060: db50 63bd fddc a53d 28b0 28be ba8f 8fbd
00000070: 2b79 103e 4078 003f 8ef6 8abd a482 5ebd
00000080: fa52 4d3d 473f a4bd 2a43 3f3d 8384 acbd
00000090: bb2a 49be 12a0 693d 6756 86bd cda7 0fbd
000000a0: 8030 6e3d 3fbc ebbd cd3a c43c 576f c5bd
000000b0: d373 28bd b5e9 363d 2d1f bd3c 4945 af3d
000000c0: 7426 633e 944b 4c3d 4473 ad3d 0706 c03d
000000d0: cd5d 87bd 60ec 48be 22bb 10bd b1e3 6abd
000000e0: fc75 133d 8ab4 43be 1dbc b3bd fbae 8abd
000000f0: 7aa9 9f3d 373c 253e 0efa b33d 7760 18be
00000100: 539f 8b3e 7d35 f9bd 72e2 6ebe 3aea 723d
00000110: 730d 7b3e 12b6 e53d a78c 073e 73f7 8d3e
00000120: 966b 0abe 51bc 36be fa3e b93d 3281 86bc
00000130: 6772 903b 5fee 39bd 8085 ec3c bb23 2bbc
00000140: 5769 593d 1f83 ab3e 9c6d e53d 0bad 233e
00000150: ed3f d33d b4ca 123e 9227 75be 9c3d a43d
00000160: 1a35 61bc adae 73bd d00d 29bd 9da2 3dbd
00000170: 9455 8a3e c72b 953d 2dd3 523f 2aba f63d
00000180: e6b6 053d 4269 febe ec0f 3a3e 7d4e 91be
00000190: dfc8 473d 08f6 a0bc 6390 b4bd 7ee2 b93d
000001a0: b6e8 203e 10e9 eebd 01d8 e53e 3270 cfbd
000001b0: bec1 303e 8a32 2dbe 6015 b63d 63c0 9e3b
000001c0: 8884 d23b 4862 a23c fe64 dd3d d357 24be
000001d0: 8e37 953d 0d47 febc b18b 023e d11e 533e
000001e0: f704 aabe 218e 023e c900 b1be b5a8 3a3e
000001f0: 3810 9a3d 94e8 febc cbbe 0f3c 0f58 bc3e
00000200: e92d 1a3e c889 a1be 4042 b7bc 2ef6 c53d
00000210: 6e09 143d 9f86 8b3d 5bb1 31be 7e08 4dbd
00000220: c4ef 46bd 7fab b2bd 93da fd3c 7ff7 a33c
00000230: 98dd 663d 41a0 f2bc d223 22bb 8009 d43c
00000240: 2757 c93c 9be6 26be e582 f3bc 1023 0e3e
00000250: e0f6 433e c82a 42be e90f 1abe aed9 34bd
00000260: 5565 1abd a6df d33d b73e 373e ba75 e1bd
00000270: 5f1b 533d e732 9dbc e46d 843c 637d b23b
00000280: b16d d53d 8808 ea3c dd7f ee3d 0f22 1b3e
00000290: a0ee 09be 0e70 e8bc ebd7 e7bd 6f8f 953c
000002a0: d169 46be e5cf 7fbd 30f9 403d 9089 973d
000002b0: 6831 1e3e abbd 6ebd 1af7 42bd dae5 90bc
000002c0: 8b7f b9bd 71df 063e 7f9f 21bd 0730 70be
000002d0: 2487 7a3d e3a9 2abd 864d 30bd 6645 28be
000002e0: e2fe a1bd 4368 97ba f4de 2d3e deb4 003d
000002f0: 9ee6 0b3c d0cd 8dbd 6527 963e 14a7 7c3d
00000300: abc9 3b3d 8eb5 313d 543b bdbe 34a9 52bc
00000310: 2788 a63d c217 4f3e e15e 5bbd 06e2 973e
00000320: dc19 d2bb fa3b 9cbd ea9a 7f3d aa02 b43d
00000330: 7da7 7ebd b726 56bd 2651 693d 90e1 c3bd
00000340: b4ef da3c 24d5 f9bb c849 81bb 29ec fabd
00000350: fc57 85bd 46be 98bd 842b 8fbd ea8b 98bd
00000360: 9ad7 c7bb 2b0d 9bbd c039 c1bd 1c37 a83d
00000370: f8dd 15bd ea9e a5bd d8ae c43d ef6e 023d
00000380: ff27 1c3d 5a5c 2b3c c1e9 f0bc 1c19 153d
00000390: ecb8 2f3d 0bfc bebd 831e b93c e5e2 e13c
000003a0: c05e b53d 1a85 9fbd 4d06 d1bd c1a1 85bb
000003b0: 49b6 8cbd 2bc4 64bd 40ee d8bc a3a3 2abd
000003c0: 5d02 5dbd 7f8c 05bd a291 8cbd 2dd9 75bd
000003d0: 25b2 963d d08e dabc 45cc a13d 8c04 febd
000003e0: e17a 1bbd d6a7 1f3b 1b37 813b 1a66 cebc
000003f0: 5d27 323d 54f5 793d d4a1 7dbd 7a40 6cbc
-0.20876451 -0.08996542 -0.018392587 -0.051309373 -0.026554555 0.23887938 0.06925521 -0.031420957
0.26685244 -0.076183505 0.0031775662 0.20415817 -0.14066136 0.085420184 -0.010759077 0.034890898
0.02704366 -0.007438862 0.10815747 0.111895084 -0.130756 0.098573 0.033814117 -0.23792975
-0.05549703 0.08098791 -0.16473448 -0.070098355 0.14108722 0.50183487 -0.06785308 -0.054323807
0.05012796 -0.08019882 0.046694912 -0.08423712 -0.19645207 0.05703742 -0.06559449 -0.035072137
0.058151722 -0.115105145 0.02395382 -0.09640377 -0.041126084 0.044656474 0.023086155 0.08558137
0.22182637 0.049876764 0.08469251 0.093761496 -0.06609688 -0.1962142 -0.035334714 -0.05734605
0.03600119 -0.19111839 -0.08776114 -0.06771656 0.07795997 0.16136251 0.087879285 -0.14880548
0.27269992 -0.12168405 -0.2332857 0.059305407 0.24516849 0.11216368 0.13237248 0.2772785
-0.13517603 -0.17845275 0.09045215 -0.016419027 0.004408169 -0.045393344 0.028872252 -0.0104455305
0.053078976 0.33498475 0.11202547 0.1598398 0.10314927 0.14335138 -0.23940876 0.080195636
-0.013745571 -0.059492756 -0.04127294 -0.04629766 0.27018416 0.072837405 0.8235348 0.12047227
0.03264513 -0.4968968 0.18170136 -0.28380194 0.04877555 -0.019648567 -0.08816602 0.09076403
0.15713772 -0.11665547 0.4489136 -0.101288214 0.17261407 -0.1691381 0.08890796 0.0048447116
0.0064244904 0.019822255 0.10810278 -0.16049127 0.07285987 -0.031039739 0.127486 0.20617224
-0.33206913 0.1274953 -0.34570912 0.18228419 0.07522625 -0.031116761 0.008773516 0.36785933
0.15056576 -0.3155043 -0.022370458 0.09666096 0.036141805 0.06812786 -0.17352812 -0.050056927
-0.048568502 -0.087241165 0.030988013 0.020015476 0.056363672 -0.02961743 -0.002474059 0.025883436
0.02457769 -0.16298907 -0.029725501 0.13880563 0.19137144 -0.18961632 -0.15045132 -0.044152908
-0.037694294 0.10345392 0.17895018 -0.11008783 0.051539775 -0.019189311 0.016165681 0.005447076
0.104213126 0.028568521 0.11645482 0.15149711 -0.13469934 -0.028373744 -0.1132048 0.018256871
-0.19376303 -0.062454123 0.047112644 0.07399285 0.15448534 -0.05828635 -0.047598936 -0.017687727
-0.0905753 0.13171174 -0.039458748 -0.23455821 0.061164036 -0.041665923 -0.043042682 -0.16432723
-0.07909943 -0.0011551458 0.16979581 0.03142249 0.00853887 -0.06924021 0.2932693 0.061682776
0.045846622 0.043386035 -0.36959326 -0.012857724 0.08131438 0.20223907 -0.05355728 0.2966463
-0.006411774 -0.07628627 0.062403597 0.08789571 -0.062171448 -0.052283015 0.056962155 -0.09564507
0.026725627 -0.0076242853 -0.003945563 -0.12252075 -0.06510922 -0.07458167 -0.06990722 -0.074485615
-0.0060986998 -0.07570871 -0.09434843 0.08213636 -0.03658864 -0.08086951 0.09603661 0.031844076
0.03812408 0.01045903 -0.029408338 0.0364009 0.042900965 -0.09325417 0.022597557 0.027574012
0.08855963 -0.07789059 -0.1020628 -0.0040781205 -0.06870706 -0.055851143 -0.026480794 -0.041659962
-0.053957332 -0.03260469 -0.06863715 -0.060021568 0.07358197 -0.026679426 0.079002894 -0.12403211
-0.037958983 0.0024361513 0.0039433367 -0.02519517 0.04349457 0.06102498 -0.06192191 -0.014419669

2.bias f4 [100]
00000000: ae5f 86bc 5916 9e3e 135e cabd d0bf 603f
00000010: 1e69 14be 17e7 1a3d db2e 933d e945 893e
00000020: edc6 433e 561f 98be 566c b43e 4572 693e
00000030: aca3 c0bc dbed 183e 5a6a 22bf 8123 15be
00000040: 0d87 ab3e 7f68 b13e 55ab 19bb 427f eb3d
00000050: 3d40 0a3e 6d31 f7bd 73e0 a6bd d131 203e
00000060: c6fc cdbd 79f8 99bd 5bf2 053d 320b 05bf
00000070: bac1 4ebd 0242 42bf 449e 4c3e ac1f 09be
00000080: 5c46 84be bbbc 58bf f318 243f 0f46 cc3e
00000090: 9d98 44bc 9e4a e1bd 9116 8fbd b0a0 5c3d
000000a0: ffd8 aabd 2c4a 41bd a895 a6bd 8295 843e
000000b0: 4e15 97be fffb ef3e 0ebe febd a670 ccbc
000000c0: aebf 0fbf 0eb0 373d 431c 15bf 5af0 8cbe
000000d0: fa72 633f 83e5 473e d823 8cbd 25b2 dc3e
000000e0: 6493 8fbd 3085 663f 3a5a 9b3f db09 e5bc
000000f0: b24e 673f f843 cc3e 1c18 3e3f 1a3d d93c
00000100: 0141 a1be c15a 13bd 55f4 3dbc 306b 02bf
00000110: 11b7 1cbf 2d2c 94be 4617 9bbd 1cf1 bbbe
00000120: da1d 34bf e57c 02bf 90cc 2cbd 0020 1abd
00000130: ce87 323d 767e 573e df81 55be e698 063f
00000140: b954 debe 4bf0 29be eea0 1ebf 6442 b8be
00000150: a2a3 153e f679 dc3e 7eae 15bf ac76 2f3e
00000160: cce9 083e 2be8 38bf f08d 3fbd 9622 1c3f
00000170: f59b 19bf 681f 9bbd fe3d dabe 851d dcbd
00000180: c373 133d ffae 81be bfd9 94be 5352 43bd
-0.016403046 0.30876425 -0.098812245 0.8779268 -0.14493224 0.03781804 0.07186671 0.2681115
0.19118853 -0.29711407 0.35238904 0.22797497 -0.023515545 0.14934485 -0.6344353 -0.14564325
0.33501473 0.34650037 -0.002344807 0.11498882 0.13501067 -0.12069974 -0.08148279 0.15644003
-0.10057978 -0.075180955 0.03270183 -0.5197021 -0.05047772 -0.7588197 0.19982249 -0.13390988
-0.2583493 -0.8466298 0.6410057 0.398972 -0.0119992765 -0.1100056 -0.06986726 0.05386418
-0.0834217 -0.047189876 -0.081340134 0.25895315 -0.29508442 0.46871945 -0.12438594 -0.024956059
-0.56151855 0.044845633 -0.5824625 -0.27527124 0.88847315 0.19521146 -0.06842774 0.43104663
-0.070105344 0.9004698 1.213691 -0.027958801 0.90354455 0.39895606 0.7425554 0.026518393
-0.31494907 -0.03597522 -0.011593898 -0.50944805 -0.6121684 -0.28939953 -0.075727984 -0.3670739
-0.7035805 -0.50971824 -0.042187274 -0.037628174 0.043586545 0.21044335 -0.20850323 0.52577055
-0.43424013 -0.1659557 -0.6196431 -0.35988152 0.14613202 0.430618 -0.5846938 0.17135113
0.13370436 -0.7222926 -0.04676622 0.60990274 -0.60003597 -0.0757435 -0.4262542 -0.10747818
0.03599907 -0.25328824 -0.29072377 -0.047685932

4.weight f4 [100, 100]
00000000: 1ea2 2ebe 613c d13d 2810 c3bd 42eb 81be
00000010: efc2 06bd 11ad efbc 681b 013e a211 183d
00000020: db72 b1bc a7a8 acbd 6bc9 2fbe 76f0 bb3d
00000030: b757 063e 95f9 333e b843 8bbd ddde c93d
00000040: 6ea6 edbd 7244 73be ebea 00be 7cf5 f03d
00000050: c11b 2e3e e2d8 d0be 858b 36be c693 343e
00000060: ce6f 7fbc b5c1 cc3c 53b3 c93d c843 21be
00000070: fddc 313d 2b49 8d3c 6521 913e 6f6e 043d
00000080: f625 a83c cfd6 873d a659 4d3e 429b 5c3d
00000090: 8027 653d 53e8 743c 7e30 a53d 97ff 293e
000000a0: bf69 4d3d f188 79bd dafa 703c 8d45 6c3e
000000b0: 9ec4 b3be 9371 9abd d73c 343e 427a e93c
000000c0: e4e5 1fbe fea5 473c d2c5 953d 62d7 bcbd
000000d0: 0e6b 513e 2a4e b9bd 00de ff3b b0f1 2b3e
000000e0: 7968 cbbe 13fc fe3d a6e2 0f3e 7449 043e
000000f0: cc39 ce3e 31f1 a33c 48a8 c13c aa31 8a3e
00000100: 5457 03be 8f2a 423e ae81 64bc 00c6 0bbe
00000110: 32f7 18be de60 1abe b9c7 ca3c b55b 583d
00000120: 7b22 1d3e 2fe6 4abe 9047 b8bd 60c8 a03c
00000130: 58dc 83be 8676 24bd eef1 d23d fe5c aa3b
00000140: 5381 aa3d 460c 95bd dc7f 3d3e 6f67 80bd
00000150: 5917 96bd 7527 ef3d 81ec e1bd 54dd ba3d
00000160: e172 a33e d415 a4bd feff 1dbe 0ee6 9f3e
00000170: 7a41 963d 4f18 95bd 818d 71be 4319 6f3d
00000180: 2c83 25bb b42c 30be df4d c8be 8d8f bc3d
00000190: b13e 9cbe bbc3 3e3e 8e27 1ebd 5d07 bfbc
000001a0: bda6 ebbd b10c dfbc bb0c e0be 2cd1 43bd
000001b0: a1fa e0bd 2f41 2a3e f4dd 8bbe 48d4 1f3e
000001c0: 4da0 5c3e 34f0 583b c83d ebbd fb61 513d
000001d0: bd74 ad3d b486 323e b03b 2f3e da13 1cbe
000001e0: ff69 acbd 78ef a2bd f359 db3c 4469 7f3e
000001f0: 57ae d8be 67e0 91bc 7f7f 673d 6efa 39bd
00000200: a96c 4fbc 5740 7f3e bf6f a63e 467e a9bd
00000210: fd43 473e e281 b03d 4cd4 bfbd 92d5 58be
00000220: 6da7 0fbe 2d23 37bb dbf2 bb3d 0c2c 9fbc
00000230: 4f48 1bbc 3e80 b33d e9c3 cbbd 377a abbd
00000240: 5f35 acbd c047 023e ddf7 9ebe 2d7d 42bd
00000250: 326c 223e 001b 2ab9 a21b 963d db9a 913c
00000260: 5310 8e3c 8528 433e 0ab3 36bd fc13 1bbe
00000270: c9fb e4be 679f 183e 7b75 093d 7cdc 593e
00000280: 169f 243e 5121 113e 6529 02bd 14af 5e3e
00000290: 09b8 cfbd 50de 0a3e 6b6b f8bc 1ec8 33bd
000002a0: 34b8 733c 1775 16bd 125e 1bbd a1ab bcbd
000002b0: 803e 093e 82bb 97bd 4d4b bcbb 36c7 19bc
000002c0: 3d73 383e 0134 67bd 950b bb3d f854 02bd
000002d0: 38a7 dbbb 64d9 8e3e f35e 0b3d 8195 adbc
000002e0: d883 babe 8765 0f3e 665d 093e c46f 08be
000002f0: 203a a1be adc5 3f3e d471 1abe 4d94 b53e
00000300: 341e 3e3e 7109 bc3c 7162 c43a 3777 d9bd
00000310: a60a 8b3e efba 98bd 30d7 0dbd bc62 333e
00000320: 7004 143d d8b3 c5bb 3353 90b8 1b6c d0bd
00000330: a80e 03bd ab54 b7bd 376d 8abd 2361 68bd
00000340: 43e1 b8bd 9261 cabd bdf8 033d adc3 b7bd
00000350: c80c a53c 375f 6abd 2f39 c2bc b7e9 01be
00000360: 20c9 e8bd 4fa0 dbbd 8737 183d e1ef fdbd
00000370: 0272 91bd fce2 96bd c4b5 ec3c 6961 9839
00000380: 9c0f d9bd 20e5 f5bc 2338 27bd e383 b3bd
00000390: 8d49 983d ca0f f3bb e5c1 f2bd aa40 8c3d
000003a0: 1192 8c3d b267 a83c cc4e 713d 9152 b8bb
000003b0: 99f7 523c e3cb bdbd ad96 8ebd 3c5d 2bbb
000003c0: 9a79 003d 3ffd b2bd 1580 c93d eef1 e3bc
000003d0: 3bdc a2bd 63c5 8dbd a0cf 9fbd 7371 143c
000003e0: aa73 18bd cd26 9f3d 74f0 07bd 2cfb 9fbc
000003f0: 3a6e e9bd b483 cbbd 18b6 a73d f883 c3bd
-0.1705403 0.102165945 -0.09524566 -0.253748 -0.032900747 -0.02925733 0.12608111 0.03712619
-0.021661213 -0.084306054 -0.17166679 0.09176724 0.13119398 0.17575677 -0.06800026 0.09856961
-0.116040096 -0.23756579 -0.12589614 0.117655724 0.17002775 -0.40790468 -0.1782666 0.17634496
-0.015590621 0.02499471 0.098486565 -0.15748513 0.04342364 0.017246803 0.2834579 0.03233188
0.020525914 0.06632768 0.2005373 0.053859003 0.055945873 0.014947969 0.0806589 0.16601406
0.050149675 -0.060921613 0.014708245 0.23073407 -0.35110945 -0.07541194 0.17601334 0.02850068
-0.1561504 0.012185572 0.07313122 -0.092207685 0.20450994 -0.09048112 0.007808447 0.16791415
-0.39728144 0.12450423 0.14051303 0.12918645 0.4027847 0.02001247 0.023639813 0.26991016
-0.12826282 0.18961547 -0.013946934 -0.1364975 -0.14938048 -0.15076014 0.024753438 0.052821834
0.15345185 -0.1981437 -0.089980245 0.019626796 -0.25754046 -0.040152095 0.10300051 0.005199074
0.08325448 -0.072777316 0.18505806 -0.062697284 -0.07328672 0.11677448 -0.11031438 0.09124246
0.31923583 -0.08011976 -0.15429685 0.31230205 0.073367074 -0.07280027 -0.23589136 0.0583737
-0.0025255186 -0.17204553 -0.3912191 0.09207068 -0.3051658 0.18629353 -0.03861194 -0.02331894
-0.11506412 -0.027227731 -0.43759713 -0.047806904 -0.10985304 0.16626428 -0.27317774 0.15608323
0.21545525 0.0033102157 -0.11486393 0.051118832 0.08469532 0.17434198 0.17112613 -0.15241948
-0.08418655 -0.07955831 0.02677629 0.249425 -0.4232051 -0.017807199 0.056518074 -0.045404844
-0.012660184 0.24926887 0.3250713 -0.08276038 0.19459529 0.08618523 -0.09366664 -0.2117522
-0.14028712 -0.002794455 0.091771804 -0.019430183 -0.009477689 0.08764695 -0.09949476 -0.0837292
-0.08408617 0.12722683 -0.3104848 -0.04748266 0.15861586 -0.00016222522 0.07329489 0.017774036
0.017341768 0.19058426 -0.04460434 -0.15144342 -0.44723347 0.14904557 0.033559304 0.21275514
0.16076311 0.14172865 -0.03177776 0.21746475 -0.10142524 0.13561368 -0.030324658 -0.04389202
0.01487546 -0.03673276 -0.03793151 -0.09212423 0.13402748 -0.07408811 -0.0057462812 -0.0093858745
0.1801271 -0.05644608 0.091330685 -0.031819314 -0.0067032836 0.2790023 0.034026098 -0.021189453
-0.36428714 0.14003573 0.13414535 -0.13323885 -0.31489658 0.18727751 -0.15082484 0.35464707
0.18566209 0.02295372 0.0014982951 -0.106184416 0.27156562 -0.0745753 -0.034629047 0.17518133
0.036137044 -0.006033402 -6.881952e-05 -0.101768695 -0.0319964 -0.08951696 -0.06759112 -0.05673326
-0.0902734 -0.09881891 0.032219637 -0.08972869 0.020147696 -0.05721971 -0.023708908 -0.12686811
-0.113664865 -0.10723936 0.03716233 -0.12399269 -0.071018234 -0.073675126 0.028895266 0.00029064275
-0.105986804 -0.030016482 -0.04082502 -0.0876539 0.07435904 -0.0074176537 -0.11853389 0.06848271
0.068637975 0.020557258 0.058913037 -0.005625077 0.012876415 -0.09267404 -0.06962333 -0.0026148101
0.03136597 -0.08739709 0.09838883 -0.027825322 -0.07952162 -0.06922414 -0.07803273 0.0090602515
-0.03721968 0.077710725 -0.0331883 -0.019528948 -0.11397977 -0.0993723 0.081890285 -0.095466554

4.bias f4 [100]
00000000: ada2 c13e 2dca 12be 987b 82bd 3c43 473c
00000010: 4cd1 0e3f 9b97 833e 151c b63d ac6d ff3c
00000020: 7612 1cbe 9f3f a73e 0e7b 663d 458d 2d3b
00000030: ee59 b5bd de7f b0be e13c a0be d644 1a3f
00000040: 9e8d 9ebe 8375 7d3d 2be6 36bd 1e46 5e3e
00000050: 6e51 e33e 8219 af3e 61a0 9abd a57b c8bd
00000060: 5b85 bbbd 2f52 343f a77c 483e 84fc 24bd
00000070: 2e52 ac3c 4107 0cbf 9fd6 eb3d 6201 0ebf
00000080: d231 6e3e 2722 1b3e 4901 2f3d 2336 cdbe
00000090: b6e1 b3be 8cd8 ff3e 7c13 b73f f0f0 bdbe
000000a0: a7c9 31be 097f b0bc 00bb 623e 0d52 a13e
000000b0: aadf 0e3d 6795 1f3e 4dfe 153e ddee 9bbd
000000c0: 5c94 2b3f 80b5 1abe 479b bdbe c47f f0be
000000d0: ed32 2f3e 0e7d 51be 9797 4abe bcf3 873e
000000e0: b65c ae3c 5b58 60be 28d8 563b 0890 fbbd
000000f0: 0f04 2d3d deb6 8d3e 4173 3d3d b829 84bc
00000100: f0a8 d6be eb77 f0be 6711 8e3d 5327 0dbd
00000110: 7619 6ebd e471 14bd 0b22 a23e 3845 263f
00000120: 99a8 a0be ff24 c53c 138c a2bd 49f0 c93d
00000130: 7bc4 72bd 6c67 1bbd 18de 37be b531 4c3e
00000140: 23d4 983e 3360 21be 8297 acbe 1ebc 2cbf
00000150: 4851 013e 4836 b43c 7c9d 52be eed5 e6bc
00000160: 832d 003e 1fda 813d c6b9 c2bd 00bd ed3e
00000170: ebfc e23e dcf3 e1bd 18f2 be3e 53a4 2c3f
00000180: eb1c 623e f2da 523e b380 e3be 11b2 5bbe
0.37819424 -0.14334936 -0.0637123 0.012162026 0.5578811 0.25701603 0.08892075 0.031180225
-0.15241417 0.32665727 0.056269698 0.0026481908 -0.08855043 -0.34472555 -0.31296447 0.60261285
-0.3096742 0.061879646 -0.0446531 0.21706435 0.44398063 0.34199148 -0.07550121 -0.09789208
-0.09156295 0.704379 0.19578801 -0.04027988 0.02103528 -0.5469857 0.11515545 -0.5547086
0.23261192 0.15149747 0.042725835 -0.40080366 -0.3513314 0.499699 1.4302821 -0.37097883
-0.1736208 -0.02154495 0.22141647 0.31507912 0.03488127 0.15584336 0.1464779 -0.07613919
0.67023253 -0.151083 -0.3703253 -0.46972477 0.1710927 -0.20457861 -0.1978439 0.26553142
0.021284442 -0.21908705 0.0032782648 -0.12283331 0.0422402 0.2767858 0.046252493 -0.016133174
-0.41925764 -0.4696649 0.06936913 -0.03446133 -0.05812975 -0.036241427 0.31666598 0.6494937
-0.3137863 0.024065493 -0.07936873 0.09860284 -0.05926941 -0.037940428 -0.17955816 0.19940837
0.29849347 -0.15759353 -0.3370934 -0.67474544 0.12628663 0.02199854 -0.20567888 -0.028178181
0.12517361 0.063404314 -0.0950809 0.46433258 0.44333586 -0.110328406 0.37294078 0.6743824
0.22081344 0.20591334 -0.44434127 -0.21454646

6.weight f4 [157, 100]
00000000: 4d9a 46be ad5a c23c 72d0 973b f4d0 783d
00000010: 1473 82bd 7ef7 d4bd 7966 553e b071 1cbd
00000020: 0982 953d f983 3dbe 42ad b7bd 910a 743b
00000030: 5578 c1bd dbbb 633c 3ddc ecbd 46f9 dc3d
00000040: 20a9 96be 87da 2e3d eb42 3ebe 2cc9 a5bc
00000050: 45d7 353e e5b3 d7be f5b6 20bf 41d6 44be
00000060: 629b 7cbc c6dc fabd 69c0 063c ae1a 7e3c
00000070: 0d01 da3c 792f 12bd 8ec3 693d 3aac ed3d
00000080: b439 6cbc 2a7a f23b 5a77 c5bd eeeb 833e
00000090: 1e76 113e 5c44 98be 48c1 eebd 4a4d 9d3d
000000a0: 5f8c 21be ec2d 203d 9547 483e b54d 43be
000000b0: bf7d a03e 7693 54be 12a8 9fbe 8389 813d
000000c0: c4fd cebe ef22 8fbd ab36 763d 7e23 b63c
000000d0: c804 73be 83c0 a73d d9b6 8dbd c83f 83be
000000e0: 202d 11bd ffe2 9abe d80c cc3d 521f 723d
000000f0: 0556 bebc c16b 54bc 2d83 253b 7a94 a93d
00000100: 02c0 54bc 4e2a 99bd 6f74 95bd 1dcf 893d
00000110: 28e5 a8bd be5f 6c3d c565 853e 3c9e 3f3e
00000120: 524e 0bbe 6685 173e 4766 0dbd 7097 2d3e
00000130: 7c0b dc3d ae64 91bd c47e 4eba 5a33 37be
00000140: 6989 823d 81d3 a9bd d49d 7d3c 67f2 a93d
00000150: 9877 813c 2667 df3d 68a2 a5bd 8567 17bd
00000160: af3c 81bd 291a 19be f3f5 343d fc07 83be
00000170: 1586 093e a85a 63bb 2e39 3abe 7f8e 303c
00000180: 31b5 8d3d d780 193e c11d 3ebe f0d0 443e
00000190: 6794 61bd 69f5 1f3e 6fad 8b3c 2c67 53bd
000001a0: 89b0 4a3e f7c1 3abe 56c9 34be b2b9 2ebd
000001b0: f0ad bb3d ad9d 603e 17f9 a3bd 3c07 17bd
000001c0: f460 d5bd 31c0 b6be 14b8 5bbd 692a 95bd
000001d0: 7346 343e 91fd 28bf e436 b53e 32e3 183b
000001e0: fee4 f33d 2b5a 133d 598e 353e b237 a0bd
000001f0: af10 b73d 6f0b 83bf 8dfa 9ebe 7911 b53b
00000200: 8636 183e ecb7 68be 550f 94bd c7a9 17be
00000210: 55fd 1d3b 2be8 42bd 2d28 f5be a7df a5be
00000220: 43d6 843e 1c4e 2abe 92d2 f73b bf1d 0bbf
00000230: 7688 55be 52b9 71bd 1004 64be 4d29 c73d
00000240: d7de 903d a4da 263e f48b e1bd de49 003d
00000250: c515 833c b726 f03c bf9c b4bd c11c 103e
00000260: 15ba 43be 5cca b1be 702d 463e 0871 fcbd
00000270: b9d5 5b3c 3440 423d 00f1 d3bc 9285 083d
00000280: abeb 4f3e a52a cb3d a3b6 0fbd 6cdf 3fbd
00000290: 5b3d 963e fc43 72be 3d73 a13c 80a7 f83d
000002a0: 008f acbd 12fa 06be af12 1bbe b27c 463e
000002b0: 9f99 40be 8e35 0abe 2d85 9e3e 5d3c 2cbf
000002c0: 2e05 333e 5350 2f3e 67e5 753d bbb3 91bc
000002d0: 66ee 44be ed0e 1d3e 22d6 2c3d a824 88bc
000002e0: 63ba 82be e3c2 fcbc d86b b9be fc4d 70bb
000002f0: 037f 413e 7f8f 59bd a599 67bd f97d 6f3d
00000300: 9bfb 553d 54eb 0fbe 39f0 f9bd 8129 383e
00000310: 8eb4 873d eefd 073d 50b1 b538 a7a0 b2bc
00000320: 3de0 afbe 9b0c a73d 93d6 a6bd 09bc eebd
00000330: be62 efbe 7ef0 a33d ee74 3e3d 9659 2f3d
00000340: 19b2 273e 4c48 3ebe bcc6 673d 5214 323d
00000350: ff38 333d a685 8cbe 2b8d 43bc c0e1 9e3d
00000360: 061e 103e 8161 bd3d 82bb cc3d 8706 703d
00000370: c53e 843c d836 0a3e 92c2 fb3d 9d32 e4bd
00000380: fc99 e63d ebe4 a63d 9d2f 1b3e 8108 403e
00000390: 20b5 53be dc37 92bd 668d 27be 7798 abbb
000003a0: 15e0 2b3e b3f6 c7be 35ef 8abc 50ac ab3d
000003b0: a548 03bd aad1 a03e 2368 06be 56b5 253d
000003c0: 36e8 583d 90c2 25bd 6a05 2b3e e120 ca3b
000003d0: c60b 8c3e f895 c6bd 3cc7 cbbb 76c3 7dbc
000003e0: 5f4e 043e a1ed 1cbe ea7a 36be 0eb6 a93d
000003f0: 178c 413d e7c3 f63b 7b10 96be 8013 ccbd
-0.19394799 0.023724878 0.004633003 0.06074615 -0.06369606 -0.10398768 0.20839871 -0.03819436
0.07300193 -0.18507375 -0.08968593 0.0037237743 -0.0944678 0.013899769 -0.115654446 0.10789733
-0.29425907 0.042688873 -0.18580215 -0.020237528 0.177579 -0.42129436 -0.6277917 -0.19222356
-0.0154179055 -0.122491404 0.008224585 0.015509291 0.02661183 -0.035689805 0.05707126 0.11605115
-0.014418054 0.007399817 -0.09641905 0.25765938 0.14205214 -0.29739654 -0.11657959 0.07680757
-0.15776204 0.039106295 0.19558556 -0.19072612 0.31345937 -0.20759377 -0.31182915 0.063250564
-0.40427983 -0.06989085 0.06011073 0.02223372 -0.23732293 0.081910156 -0.06919641 -0.256346
-0.035443425 -0.3025131 0.09963387 0.0591119 -0.023234377 -0.012965144 0.0025255189 0.08280273
-0.012985231 -0.07478772 -0.072975986 0.06728957 -0.08246833 0.057708494 0.26054206 0.18712705
-0.13604096 0.14796981 -0.034521367 0.169523 0.10744378 -0.07099281 -0.0007877166 -0.17890683
0.06373865 -0.08292294 0.015479524 0.08298188 0.015804097 0.10908346 -0.08087617 -0.03696396
-0.063104026 -0.14951386 0.044179868 -0.2559203 0.13430054 -0.0034691487 -0.18185875 0.010776161
0.06919325 0.14990555 -0.18566038 0.19220328 -0.055073168 0.1562096 0.017050473 -0.051612064
0.19793905 -0.18238054 -0.17654929 -0.04265756 0.09164035 0.21935149 -0.080064945 -0.036872134
-0.10418883 -0.35693505 -0.053642347 -0.0728348 0.17604999 -0.6601191 0.3539344 0.0023328778
0.11908911 0.035974663 0.17730083 -0.07823123 0.08938729 -1.0237864 -0.3105053 0.0055257645
0.14864549 -0.2272641 -0.07229487 -0.14810859 0.0024107296 -0.047584694 -0.47882214 -0.32397196
0.2594472 -0.16631359 0.0075629437 -0.54342264 -0.20852837 -0.059014626 -0.22267175 0.097246744
0.07073753 0.16294342 -0.11013022 0.031320445 0.016001591 0.029315336 -0.088189594 0.14073469
-0.19113953 -0.347247 0.1935327 -0.123262465 0.013417655 0.04742451 -0.025871754 0.033330508
0.20304744 0.09920243 -0.035086285 -0.04684393 0.29343686 -0.23658746 0.01970827 0.12141323
-0.084257126 -0.13181332 -0.15143846 0.19383505 -0.18808602 -0.13496992 0.3096098 -0.6727961
0.17482445 0.17120485 0.06003323 -0.017785897 -0.19231567 0.15337725 0.0421964 -0.016619042
-0.25532827 -0.030854648 -0.3621509 -0.0036667576 0.18896107 -0.053115364 -0.05654301 0.058469746
0.052241903 -0.14054614 -0.12204022 0.17984582 0.06626235 0.03320115 8.6637796e-05 -0.02180512
-0.34350768 0.08156701 -0.081463955 -0.116569586 -0.46755022 0.080048546 0.04649823 0.042810045
0.16376533 -0.18582267 0.056586012 0.04347641 0.043755528 -0.27445716 -0.011935513 0.07757902
0.14073953 0.09247113 0.09996702 0.058599975 0.016143212 0.13497484 0.12292971 -0.11142466
0.11259839 0.081491314 0.15154882 0.18753244 -0.20674562 -0.071395606 -0.16362533 -0.005236681
0.167847 -0.39055404 -0.016959766 0.083824754 -0.0320517 0.3140996 -0.13125663 0.04045614
0.05295583 -0.040468752 0.16701284 0.0061684703 0.27352732 -0.09696573 -0.006218819 -0.015488496
0.12920521 -0.15325023 -0.17820325 0.08286677 0.04725274 0.0075306776 -0.2930945 -0.09964657

6.bias f4 [157]
00000000: ad62 f93d cf3b a2bd 9550 893e ecb1 0ebf
00000010: a327 e6bd b164 bebe 2573 8cbd fab7 a3bd
00000020: 4d69 91bd a443 1e3e 122c a4be fa81 1e3d
00000030: 8873 4ebc e4b6 1fbf a23d 2dbf 417a 19be
00000040: 8082 693d 76bc a33e 437c 7d3c b0ff b33e
00000050: 1ba9 123e 3530 4b3d 3237 85be adc4 213f
00000060: dfcd 8ebe 37d0 503e 60af a6bc 4505 133f
00000070: ee07 f3be 715b 5e3e 37d1 52be 107d babd
00000080: 5f15 ffbe c81f 9e3d 6ad7 813e bc2b 303e
00000090: 2146 e13d 1746 183f 9eb5 7c3e a72e da3d
000000a0: 7221 dabe 1d2e 8abd b742 cd3e d779 0d3e
000000b0: fb77 e33d 20a8 d73e b98c 023f de68 1a3f
000000c0: 6018 783e 25ef f2be 3a74 aabd 3458 0b3e
000000d0: 8831 86be 1440 9fbe d32e da3d 2e1c e83d
000000e0: 7d49 e1be d8f9 0ebe 858a 973e d235 e1be
000000f0: b4b9 58be b136 8b3e 8350 173f af31 f93d
00000100: 31b5 e5bd c23e 67bd 7abe 693e 7a07 8fbe
00000110: a95e a2be 0c36 74be 23f3 c93d 4529 b73c
00000120: 788e b43e 6413 97bd 1014 98be 84be b33c
00000130: 28f8 113d a281 3ebe 3e3e 12bf 9152 2a3e
00000140: 8bfc f7bd e5ad 053b d897 b7bc 55b4 363e
00000150: 3b3b 723e 90c9 c63e bd12 7cbe 14a2 2c3f
00000160: 42be d83e b861 a4be f475 16bf d1e9 0c3f
00000170: 4dd2 f2bd bc9b 023f 0d2c 5c3d 4726 07bf
00000180: 25f9 ad3b ab85 babe 7525 bdbe 4835 38bc
00000190: 7888 963e 4eb8 8d3e 56ff fdbb 52b0 993e
000001a0: bbc3 8a3d 076b b33d 95d6 7d3e 32cd 863d
000001b0: 9de4 08be 8942 0a3d 9eb5 55be 8152 8fbe
000001c0: 49c4 3f3b f968 06bd 4551 533e 2981 c7be
000001d0: 5323 b6bc 4788 83be 01cd 013e 2f76 d3bd
000001e0: e0ee 663e c55c 283f d694 89bd f9e5 89be
000001f0: b8e4 873e 2322 9fbe e81d 81be 8b0c b53e
00000200: b0ae 123f 24c8 33be 2d17 873d 393c f63c
00000210: 5d2e 84be d4d7 56bd f8ed 85be 82db 9fbc
00000220: a411 3f3e 3418 b7be ef77 4d3d 98ac 323e
00000230: ab8c 4a3f 5839 1fbe 6881 f7be 3552 d3bd
00000240: d961 11be fe5a f63c 39af 4abf 3491 af3c
00000250: a7d1 313d bc30 3e3e bb80 49be 7101 15bf
00000260: eda2 b5be 39ff 4abe 2209 763d 9d42 423d
00000270: ab87 393e
0.12177024 -0.07921564 0.26819292 -0.5574024 -0.11238029 -0.37186196 -0.068578996 -0.07994075
-0.07100163 0.1545549 -0.32064873 0.038698174 -0.012600787 -0.62388444 -0.6767217 -0.14988042
0.05700922 0.31979722 0.015471521 0.35156012 0.14322321 0.04960652 -0.26018673 0.6319073
-0.27891442 0.20391928 -0.020347297 0.57429916 -0.47466987 0.2171457 -0.20587622 -0.09105885
-0.49820992 0.077209055 0.2535966 0.17204183 0.10999704 0.5948195 0.24678656 0.106534295
-0.42603642 -0.06747077 0.40089962 0.1381601 0.11106869 0.42120457 0.50995976 0.60316265
0.24228048 -0.47448078 -0.0832295 0.13607866 -0.26209664 -0.31103575 0.10653462 0.113335
-0.4400138 -0.13962495 0.2959787 -0.43986374 -0.2116459 0.27190164 0.59107226 0.121676795
-0.112162 -0.056456335 0.22826567 -0.27935392 -0.31712845 -0.23848742 0.09860828 0.022358546
0.35264945 -0.07376745 -0.29702806 0.02194143 0.03563705 -0.18604138 -0.57126224 0.16633059
-0.121087156 0.0020397839 -0.022411272 0.17842229 0.23655407 0.38825655 -0.24616523 0.6743481
0.42332655 -0.32105803 -0.5877373 0.55044276 -0.11856518 0.5101888 0.053752948 -0.5279278
0.0053092414 -0.36430106 -0.3694264 -0.011243172 0.29400992 0.27679676 -0.0077513857 0.30017334
0.06775614 0.08760648 0.24788888 0.06582107 -0.13368459 0.03375486 -0.20870063 -0.27992633
0.0029261282 -0.032814953 0.2063647 -0.3896573 -0.02223364 -0.2568991 0.12675859 -0.10325276
0.22552061 0.65766555 -0.06717841 -0.26933268 0.26541686 -0.31080732 -0.2521813 0.35361132
0.572978 -0.17556816 0.06596217 0.030058013 -0.25816622 -0.052451923 -0.26158118 -0.01951385
0.18659073 -0.35760653 0.050163206 0.17448652 0.7912089 -0.15549219 -0.48340917 -0.10318414
-0.14197482 0.030072685 -0.7917362 0.021431543 0.04341283 0.18573278 -0.19678013 -0.58205324
-0.35475865 -0.19823922 0.060067303 0.04742681 0.1811816
