neura1/e18_weights.ckpt (torch, 399055 bytes, 8 tensors)

0.weight f4 [100, 630]
0.03500063 0.02553828 0.039406724 -0.40323862 -0.16372369 -0.10334371 -0.31635574 -0.09436627
-0.33506602 -0.4515785 -0.49169472 -0.047948834 0.049605496 0.42947748 -0.020612035 -0.10110873
0.15035564 0.50159925 -0.15739086 0.08170664 0.23279302 0.37258258 -0.23511016 -0.03439845
0.27361518 0.5500037 -0.037748374 -0.08756453 0.065036476 -0.48134166 0.012245222 -0.02919991
0.052664455 -0.114206046 -0.1575011 0.0004966853 -0.15562555 -0.031629995 -0.15604448 -0.25821602
-0.27464393 -0.13007279 -0.037683073 0.18416254 -0.0045013786 -0.046466127 0.021588517 0.30840814
-0.13234524 0.06016146 0.105946116 0.26390117 -0.26434466 -0.03667881 0.16646491 0.42888862
-0.12473122 -0.1487858 0.06611493 -0.4424354 0.0064204335 -0.013821598 0.011131314 -0.12248086
-0.18917339 -0.025543008 -0.15821907 0.03527458 -0.17641802 -0.24480064 -0.23394947 -0.1370519
0.0065464005 0.27676827 0.060847268 0.051353835 0.055149917 0.3274968 -0.06365542 0.17169306
0.079399295 0.2730386 -0.21220118 0.034634553 0.21701214 0.40203097 -0.13492821 -0.15293027
0.048262227 -0.4131331 -0.025025971 -0.089488626 0.0083943745 -0.091902256 -0.1502691 -0.039180964
-0.15854093 0.008633973 -0.16066965 -0.2480968 -0.22803423 -0.11397036 -0.0066317455 0.30555984
0.048936605 0.09411339 0.09258125 0.3360357 -0.078864 0.12817791 0.12062056 0.25901753
-0.26166692 0.059176378 0.16331372 0.32404643 -0.15262231 -0.090889074 0.03442444 -0.4791012
-0.023001118 -0.08311438 0.01625724 -0.07150193 -0.13703783 -0.067010686 -0.1782146 0.005046538
-0.17157637 -0.2656228 -0.24817146 -0.080239005 0.042116538 0.33764452 0.046946306 0.08853535
0.12592427 0.37738207 -0.051858425 0.1808016 0.17315334 0.3145819 -0.1977471 0.12428345
0.12842013 0.3644392 -0.18735258 -0.059947837 0.09349171 -0.4860082 0.0278714 -0.07589633
0.01225819 -0.10181025 -0.07988095 -0.050080903 -0.18631339 -0.032592587 -0.15571338 -0.30621642
-0.19895548 -0.06252166 0.07446379 0.30846843 0.06852366 0.11372135 0.14107753 0.4018433
-0.10560658 0.20571133 0.18766445 0.26224616 -0.16719897 -0.0035953198 0.21745029 0.38688135
-0.19569644 -0.11280459 0.12646306 -0.42439649 0.03567223 -0.068211794 0.035010986 -0.08463275
-0.0093659265 0.012211952 -0.15956022 -0.0110827 -0.20733413 -0.33372608 -0.20594516 -0.05418728
0.052180126 0.3465121 0.06281869 0.15032165 0.1659292 0.35695717 -0.110025585 0.2203615
0.20667163 0.30347875 -0.20314626 0.022015529 0.22530289 0.34398854 -0.14931044 -0.047575958
0.08799771 -0.42274293 -0.00207117 -0.030896919 -0.001679016 -0.068838656 -0.06799469 -0.023372514
-0.19164908 -0.05964055 -0.19254991 -0.32524142 -0.20009272 -0.050537758 0.05327016 0.35226595
0.05692699 0.19512385 0.184151 0.4581019 -0.13055977 0.22861339 0.15228514 0.25884888
-0.1621972 0.12191545 0.22934715 0.37253103 -0.14819813 -0.10192214 0.051499564 -0.3317551
0.01812456 -0.055373788 0.010330217 -0.11251008 -0.026036402 -0.011627237 -0.13338351 -0.045086466
-0.23287177 -0.3186632 -0.19764698 0.008840094 0.0683069 0.30219817 0.13299707 0.155111
00000000: d25c 0f3d a835 d13c f268 213d 4b75 cebe
00000010: 2fa7 27be dea5 d3bd 61f9 a1be 1a43 c1bd
00000020: c68d abbe 4c35 e7be 69bf fbbe ff65 44bd
00000030: 222f 4b3d 79e4 db3e 92da a8bc 1812 cfbd
00000040: d4f6 193e cf68 003f 122b 21be d055 a73d
00000050: 4b61 6e3e 25c3 be3e b8c0 70be 64e5 0cbd
00000060: 4a17 8c3e 0bcd 0c3f 0a9e 1abd 0855 b3bd
00000070: d831 853d 6a72 f6be 2fa0 483c a634 efbc
00000080: afb6 573d dce4 e9bd f847 21be fc33 023a
00000090: 4e5c 1fbe 748e 01bd 20ca 1fbe e434 84be
000000a0: 219e 8cbe cd31 05be 9159 1abd 1b95 3c3e
000000b0: 4d80 93bb 4453 3ebd 67da b03c ace7 9d3e
000000c0: 8385 07be dd6b 763d 47fa d83d 0e1e 873e
000000d0: 2f58 87be 853c 16bd c775 2a3e 4a97 db3e
000000e0: 1573 ffbd 4e5b 18be 4467 873d e586 e2be
000000f0: 8062 d23b fc73 62bc 1d60 363c 3fd7 fabd
00000100: abb6 41be 923f d1bc 2e04 22be 147c 103d
00000110: eda6 34be 05ad 7abe 7390 6fbe 5557 0cbe
00000120: 3083 d63b 92b4 8d3e fc3a 793d 6658 523d
00000130: e1e4 613d a9ad a73e c65d 82bd 4ed0 2f3e
00000140: 199c a23d b7cb 8b3e 444b 59be f6dc 0d3d
00000150: 6e38 5e3e 01d7 cd3e 9f2a 0abe c199 1cbe
00000160: 9dae 453d 2f86 d3be 4403 cdbc d045 b7bd
00000170: 8f88 093c 4037 bcbd 25e0 19be 387c 20bd
00000180: 8e58 22be 8275 0d3c 9686 24be 160d 7ebe
00000190: ce81 69be 4b69 e9bd 1d4f d9bb 5772 9c3e
000001a0: c071 483d 85be c03d 3d9b bd3d df0c ac3e
000001b0: 7383 a1bd 1241 033e ea07 f73d f29d 843e
000001c0: 35f9 85be ee62 723d b63b 273e 6ae9 a53e
000001d0: 0649 1cbe 0d24 babd a400 0d3d c14c f5be
000001e0: d76c bcbc df37 aabd e72d 853c 9b6f 92bd
000001f0: a553 0cbe e63c 89bd e37d 36be 6e5d a53b
00000200: b7b1 2fbe b6ff 87be a920 7ebe 5954 a4bd
00000210: 6482 2c3d bedf ac3e c54a 403d 0652 b53d
00000220: 4bf2 003e 3938 c13e 8069 54bd 0e24 393e
00000230: 1c4f 313e e110 a13e 377e 4abe 5288 fe3d
00000240: 9180 033e c697 ba3e 5bd9 3fbe dd8b 75bd
00000250: 9578 bf3d 11d6 f8be 9052 e43c 896f 9bbd
00000260: 93d6 483c e481 d0bd a098 a3bd a221 4dbd
00000270: f0c8 3ebe ce7f 05bd 5473 1fbe 66c8 9cbe
00000280: fcba 4bbe 5b0b 80bd 7980 983d 93ef 9d3e
00000290: 2256 8c3d bde6 e83d a176 103e 68be cd3e
000002a0: 4348 d8bd fea5 523e 1c2b 403e 2145 863e
000002b0: 3536 2bbe 759f 6bbb 4aab 5e3e 5015 c63e
000002c0: a664 48be 1806 e7bd 887f 013e 7f4a d9be
000002d0: 0b1d 123d a0b2 8bbd ae67 0f3d ef53 adbd
000002e0: 8b73 19bc a414 483c c163 23be 3794 35bc
000002f0: 664f 54be 25de aabe 4ae3 52be 7bf3 5dbd
00000300: d4ba 553d 096a b13e 16a7 803d ebed 193e
00000310: 58e9 293e 17c3 b63e 1855 e1bd 72a6 613e
00000320: baa1 533e 9161 9b3e 9305 50be e959 b43c
00000330: cdb5 663e 441f b03e d6e4 18be 02df 42bd
00000340: 2538 b43d c371 d8be 77bc 07bb 891b fdbc
00000350: 6e12 dcba 48fb 8cbd cd40 8bbd b777 bfbc
00000360: a83f 44be a649 74bd ce2b 45be 0b86 a6be
00000370: 1be5 4cbe ae00 4fbd d031 5a3d 345c b43e
00000380: 472c 693d 8cce 473e 1492 3c3e 558c ea3e
00000390: 76b1 05be a119 6a3e a3f0 1b3e d787 843e
000003a0: 0617 26be cfae f93d fbd9 6a3e 63bc be3e
000003b0: 40c1 17be 8ebc d0bd 35f1 523d cedb a9be
000003c0: f579 943c a0cf 62bd 1240 293c af6b e6bd
000003d0: 4b4a d5bc 2b80 3ebc b095 08be 96ac 38bd
000003e0: f075 6ebe d327 a3be f863 4abe 0bd6 103c
000003f0: 7de4 8b3d b8b9 9a3e 6230 083e 6bd5 1e3e

0.bias f4 [100]
0.18768094 0.021978498 0.0064543607 0.031615235 0.37442458 0.15352659 0.0069144326 0.020985117
-0.5405251 -0.90247494 -0.24301863 -0.27064136 0.059892584 -0.034558445 -0.21749538 0.41147473
0.003938048 -0.011298172 0.6600221 0.20605157 0.8458519 -0.0572888 -0.23096347 0.63783944
0.15889634 0.01080948 0.38868618 0.25694025 -0.1614754 -0.16288647 0.37540495 -0.059855938
-0.012849216 -0.0073833694 0.23148863 -0.46063504 -0.03603577 -0.78026396 -0.02498145 -0.034193195
-0.011737258 -0.24658214 -0.025033351 -0.015438533 0.021651365 -0.16540813 0.0017583279 -0.6039931
-0.3420296 -0.2725482 -0.29320937 0.57224745 -0.024563925 0.37468326 -0.26240024 -0.2345425
-0.03960374 0.36484525 -0.020945223 -0.014480379 -0.004648388 -0.3183939 -0.55405116 -0.06307646
0.010549407 -0.12944867 -0.17785026 -0.016363135 -0.6792103 0.45464498 -1.056722 0.14626136
-0.48551476 -0.060491525 -0.0014309408 -0.12418089 -0.021659298 -0.9073347 -0.028999262 -0.23041336
0.024861475 0.18284376 0.2836103 0.24627155 -0.030612323 0.43633226 0.16691804 -0.3037508
0.0077164927 0.009891992 0.090708375 -0.028302524 -0.49538586 0.010777041 -0.15075053 -0.638301
-0.09361785 0.43559182 -0.32059133 0.1688988
00000000: 6f2f 403e 400c b43c 1a7f d33b fa7e 013d
00000010: 94b4 bf3e 1336 1d3e 7792 e23b fbe8 ab3c
00000020: da5f 0abf 9908 67bf e0d9 78be 8191 8abe
00000030: ed51 753d 288d 0dbd 1cb7 5ebe d1ac d23e
00000040: be0a 813b f81b 39bc 35f7 283f 2fff 523e
00000050: c089 583f a9a7 6abd b081 6cbe 7249 233f
00000060: b9b5 223e 3f1a 313c e001 c73e ac8d 833e
00000070: cf59 25be b6cb 26be 1435 c03e 802b 75bd
00000080: 8585 52bc 31f0 f1bb 5b0b 6d3e 5bd8 ebbe
00000090: 3e9a 13bd 61bf 47bf e6a5 ccbc 2a0e 0cbd
000000a0: a14d 40bc 0780 7cbe be12 cdbc e7f1 7cbc
000000b0: 345e b13c c060 29be b277 e63a 4b9f 1abf
000000c0: 811e afbe 708b 8bbe 8a1f 96be cf7e 123f
000000d0: 493a c9bc 7cd6 bf3e 5359 86be e92b 70be
000000e0: 8837 22bd ffcc ba3e 5195 abbc 1d3f 6dbc
000000f0: 8151 98bb 8604 a3be 4cd6 0dbf 3b2e 81bd
00000100: 6cd7 2c3c 318e 04be 611e 36be fb0b 86bc
00000110: bae0 2dbf 3ac7 e83e ab42 87bf 8ac5 153e
00000120: 6495 f8be f6c5 77bd 688e bbba 8d52 febd
00000130: d76e b1bc 1647 68bf dc8f edbc 7bf1 6bbe
00000140: 4baa cb3c 653b 3b3e 5f35 913e 9c2e 7c3e
00000150: b2c6 fabc f166 df3e 90ec 2a3e 3a85 9bbe
00000160: a2da fc3b 0612 223c 50c5 b93d b2da e7bc
00000170: 37a3 fdbe 3092 303c 595e 1abe b267 23bf
00000180: b7ba bfbd e405 df3e 8c24 a4be cff3 2c3e

2.weight f4 [100, 100]
-0.20669636 -0.08996542 -0.018392587 -0.051309373 -0.023306865 0.24972767 0.068295024 -0.031420957
0.27187642 -0.08434454 -0.00020572524 0.20207684 -0.14770272 0.09012302 -0.012276073 0.030267507
0.02704366 -0.007438862 0.10504701 0.1076064 -0.12839676 0.101648346 0.032702476 -0.23982759
-0.061445843 0.08098791 -0.16637889 -0.07344651 0.14765611 0.54114205 -0.06368474 -0.05560256
0.05012796 -0.08019882 0.04093207 -0.08801895 -0.19628838 0.055249434 -0.06559449 -0.035072137
0.058151722 -0.115184866 0.02395382 -0.09640377 -0.041126084 0.047998853 0.023086155 0.084016554
0.22652449 0.05048789 0.08303205 0.09178131 -0.06609688 -0.19090262 -0.033684462 -0.055537906
0.03600119 -0.19580668 -0.08776114 -0.06771656 0.07795997 0.1631895 0.08746203 -0.14415906
0.26427478 -0.12247381 -0.22972931 0.059305407 0.24769954 0.121692665 0.13361308 0.2811315
-0.13509506 -0.18255936 0.09045215 -0.019289713 0.004408169 -0.04457552 0.028872252 -0.010264729
0.053078976 0.3334456 0.107739046 0.16294688 0.10314927 0.15128455 -0.24657452 0.08524603
-0.013745571 -0.059492756 -0.040934354 -0.04629766 0.276681 0.072837405 0.8325708 0.12548123
0.029852929 -0.49428004 0.17605059 -0.28123212 0.048806228 -0.019648567 -0.08816602 0.09076403
0.15582378 -0.11903403 0.45515552 -0.101288214 0.17376195 -0.17685212 0.08318235 0.0027949843
0.008210777 0.025239825 0.10264441 -0.16873404 0.07285987 -0.031039739 0.119516 0.2265817
-0.34002945 0.11818556 -0.34525636 0.18513298 0.07505947 -0.031116761 0.009515068 0.38203064
0.15305962 -0.3206046 -0.02000269 0.09761227 0.036141805 0.06812786 -0.17894538 -0.046653584
-0.04992959 -0.087464266 0.030988013 0.020015476 0.056363672 -0.028231502 -0.002474059 0.025883436
0.02457769 -0.1680432 -0.029725501 0.14374775 0.19252475 -0.19234577 -0.15996541 -0.04031281
-0.037694294 0.1069928 0.18462193 -0.11550473 0.051539775 -0.021441229 0.016165681 0.005447076
0.104213126 0.0315904 0.11755893 0.15327367 -0.13435994 -0.026537297 -0.12237753 0.018256871
-0.19199386 -0.0679519 0.043622088 0.068537824 0.16111016 -0.054198638 -0.047598936 -0.016656995
-0.0905753 0.1345124 -0.039458748 -0.23665108 0.061164036 -0.042675734 -0.04321683 -0.1731265
-0.07909943 0.00029538735 0.16675286 0.026508246 0.00853887 -0.06924021 0.29663366 0.061682776
0.037560567 0.043386035 -0.35329938 -0.016209157 0.079002164 0.20411354 -0.03794152 0.29642066
-0.006411774 -0.07628627 0.062403597 0.08789571 -0.062171448 -0.052283015 0.056962155 -0.09564507
0.026725627 -0.0076242853 -0.003945563 -0.12252075 -0.06510922 -0.07458167 -0.06990722 -0.074485615
-0.0060986998 -0.07570871 -0.09434843 0.08213636 -0.03658864 -0.08086951 0.09603661 0.031844076
0.03812408 0.01045903 -0.029408338 0.0364009 0.042900965 -0.09325417 0.022597557 0.027574012
0.08855963 -0.07789059 -0.1020628 -0.0040781205 -0.06870706 -0.055851143 -0.026480794 -0.041659962
-0.053957332 -0.03260469 -0.06863715 -0.060021568 0.07358197 -0.026679426 0.079002894 -0.12403211
-0.037958983 0.0024361513 0.0039433367 -0.02519517 0.04349457 0.06102498 -0.06192191 -0.014419669
00000000: 36a8 53be ca3f b8bd 0dac 96bc c729 52bd
00000010: 0aee bebc 9cb8 7f3e 43de 8b3d 43b3 00bd
00000020: 6333 8b3e d5bc acbd f3b7 57b9 3bed 4e3e
00000030: 623f 17be 6b92 b83d 9521 49bc 90f3 f73c
00000040: aa8a dd3c b3c1 f3bb e322 d73d bf60 dc3d
00000050: 717a 03be 022d d03d 08f3 053d 5d95 75be
00000060: a3ae 7bbd fddc a53d 3a5f 2abe 206b 96bd
00000070: 2a33 173e 4988 0a3f 256d 82bd 83bf 63bd
00000080: fa52 4d3d 473f a4bd 63a8 273d 4743 b4bd
00000090: d2ff 48be 3b4d 623d 6756 86bd cda7 0fbd
000000a0: 8030 6e3d 0be6 ebbd cd3a c43c 576f c5bd
000000b0: d373 28bd 729a 443d 2d1f bd3c df10 ac3d
000000c0: 09f6 673e 64cc 4e3d b50c aa3d d7f7 bb3d
000000d0: cd5d 87bd fa7b 43be b8f8 09bd b77b 63bd
000000e0: fc75 133d 8c81 48be 1dbc b3bd fbae 8abd
000000f0: 7aa9 9f3d 261b 273e 4b1f b33d 6f9e 13be
00000100: 064f 873e 8dd3 fabd 293e 6bbe 3aea 723d
00000110: f3a4 7d3e 013a f93d ded1 083e 78f0 8f3e
00000120: 5c56 0abe d7f0 3abe fa3e b93d 7605 9ebc
00000130: 6772 903b d294 36bd 8085 ec3c 652d 28bc
00000140: 5769 593d 62b9 aa3e 4aa6 dc3d 8cdb 263e
00000150: ed3f d33d 56ea 1a3e 087e 7cbe 7895 ae3d
00000160: 1a35 61bc adae 73bd c8aa 27bd 9da2 3dbd
00000170: 22a9 8d3e c72b 953d 5c23 553f 277e 003e
00000180: 218e f43c 4612 fdbe 9b46 343e a8fd 8fbe
00000190: 0ae9 473d 08f6 a0bc 6390 b4bd 7ee2 b93d
000001a0: 4590 1f3e 1dc8 f3bd 250a e93e 3270 cfbd
000001b0: a7ee 313e b918 35be 825b aa3d 0e2c 373b
000001c0: 7f86 063c c0c3 ce3c 3c37 d23d 9ec8 2cbe
000001d0: 8e37 953d 0d47 febc cec4 f43d 0805 683e
000001e0: 5718 aebe 450b f23d 71c5 b0be 8093 3d3e
000001f0: c8b8 993d 94e8 febc 16e5 1b3c 8599 c33e
00000200: a9bb 1c3e 4926 a4be aedc a3bc f1e8 c73d
00000210: 6e09 143d 9f86 8b3d 753d 37be d417 3fbd
00000220: f882 4cbd 7720 b3bd 93da fd3c 7ff7 a33c
00000230: 98dd 663d c045 e7bc d223 22bb 8009 d43c
00000240: 2757 c93c 8413 2cbe e582 f3bc 9c32 133e
00000250: 3525 453e 4af6 44be f9cd 23be 0c1f 25bd
00000260: 5565 1abd 0b1f db3d 880d 3d3e be8d ecbd
00000270: 5f1b 533d 84a5 afbc e46d 843c 637d b23b
00000280: b16d d53d ef64 013d bcc2 f03d c6f3 1c3e
00000290: a795 09be bf64 d9bc 12a1 fabd 6f8f 953c
000002a0: 0a9a 44be 5e2a 8bbd 13ad 323d 8f5d 8c3d
000002b0: 10fa 243e 64ff 5dbd 1af7 42bd 4074 88bc
000002c0: 8b7f b9bd 9ebd 093e 7f9f 21bd a954 72be
000002d0: 2487 7a3d c0cc 2ebd 2104 31bd 1348 31be
000002e0: e2fe a1bd 38de 9a39 43c1 2a3e d227 d93c
000002f0: 9ee6 0b3c d0cd 8dbd 5ee0 973e 14a7 7c3d
00000300: 1cd9 193d 8eb5 313d a8e3 b4be 11c9 84bc
00000310: e3cb a13d 2403 513e 9168 1bbd 73c4 973e
00000320: dc19 d2bb fa3b 9cbd ea9a 7f3d aa02 b43d
00000330: 7da7 7ebd b726 56bd 2651 693d 90e1 c3bd
00000340: b4ef da3c 24d5 f9bb c849 81bb 29ec fabd
00000350: fc57 85bd 46be 98bd 842b 8fbd ea8b 98bd
00000360: 9ad7 c7bb 2b0d 9bbd c039 c1bd 1c37 a83d
00000370: f8dd 15bd ea9e a5bd d8ae c43d ef6e 023d
00000380: ff27 1c3d 5a5c 2b3c c1e9 f0bc 1c19 153d
00000390: ecb8 2f3d 0bfc bebd 831e b93c e5e2 e13c
000003a0: c05e b53d 1a85 9fbd 4d06 d1bd c1a1 85bb
000003b0: 49b6 8cbd 2bc4 64bd 40ee d8bc a3a3 2abd
000003c0: 5d02 5dbd 7f8c 05bd a291 8cbd 2dd9 75bd
000003d0: 25b2 963d d08e dabc 45cc a13d 8c04 febd
000003e0: e17a 1bbd d6a7 1f3b 1b37 813b 1a66 cebc
000003f0: 5d27 323d 54f5 793d d4a1 7dbd 7a40 6cbc

2.bias f4 [100]
-0.023065373 0.31318456 -0.098812245 0.9037863 -0.14331043 0.015380418 0.0752128 0.26693648
0.18484443 -0.31205535 0.35636348 0.23447506 -0.050064046 0.15454529 -0.6475932 -0.15494648
0.33836845 0.35782295 -0.0027184526 0.12257287 0.14156331 -0.12172132 -0.08194333 0.15711111
-0.110595636 -0.075180955 0.03270183 -0.5304886 -0.05047772 -0.7776933 0.20628384 -0.13390988
-0.25232384 -0.87188846 0.65561914 0.41837847 -0.013244065 -0.1100056 -0.06986726 0.051015206
-0.0834217 -0.047189876 -0.081340134 0.26405475 -0.29789418 0.4914846 -0.12350954 -0.024956059
-0.57658577 0.044845633 -0.5977907 -0.28588247 0.91411555 0.20383051 -0.06842774 0.44054922
-0.05733326 0.9224446 1.2418416 -0.03220914 0.9256428 0.40332773 0.7775759 0.029510943
-0.32385796 -0.026812125 -0.011593898 -0.52298117 -0.63565385 -0.289692 -0.075727984 -0.36722627
-0.71975124 -0.5246312 -0.042187274 -0.037628174 0.037364695 0.21627088 -0.21408099 0.5382882
-0.44161323 -0.16964595 -0.63126177 -0.37271398 0.14930955 0.4366468 -0.60041606 0.17751916
0.1297932 -0.74418 -0.05099668 0.6089352 -0.6096241 -0.0757435 -0.44529837 -0.10747818
0.028561555 -0.25685614 -0.2955895 -0.050908584
00000000: 98f3 bcbc ba59 a03e 135e cabd 8a5e 673f
00000010: f8bf 12be 26fe 7b3c 2b09 9a3d e6ab 883e
00000020: dc47 3d3e b8c5 9fbe 4675 b63e 3b1a 703e
00000030: f50f 4dbd 1f41 1e3e abc8 25bf 4aaa 1ebe
00000040: a13e ad3e 9234 b73e 1128 32bb 7c07 fb3d
00000050: f9f5 103e 0749 f9bd e8d1 a7bd bce1 203e
00000060: f77f e2bd 79f8 99bd 5bf2 053d 1ace 07bf
00000070: bac1 4ebd e816 47bf 123c 533e ac1f 09be
00000080: 9730 81be 1534 5fbf a8d6 273f b435 d63e
00000090: a3fd 58bc 9e4a e1bd 9116 8fbd 52f5 503d
000000a0: ffd8 aabd 2c4a 41bd a895 a6bd 2f32 873e
000000b0: 9685 98be dfa3 fb3e 92f2 fcbd a670 ccbc
000000c0: 209b 13bf 0eb0 373d d008 19bf 305f 92be
000000d0: 7a03 6a3f f2b8 503e d823 8cbd ab8f e13e
000000e0: 48d6 6abd 5425 6c3f aaf4 9e3f bbed 03bd
000000f0: edf6 6c3f f980 ce3e 370f 473f efc0 f13c
00000100: b6d0 a5be 1aa5 dbbc 55f4 3dbc 18e2 05bf
00000110: 36ba 22bf 8352 94be 4617 9bbd 1505 bcbe
00000120: 9e41 38bf 3b4e 06bf 90cc 2cbd 0020 1abd
00000130: b90b 193d 1d76 5d3e 0c38 5bbe 41cd 093f
00000140: 211b e2be abb7 2dbe 5f9a 21bf 5ed4 bebe
00000150: 9ae4 183e 2b90 df3e deb4 19bf 95c7 353e
00000160: 82e8 043e 9582 3ebf e5e1 50bd 2de3 1b3f
00000170: 5310 1cbf 681f 9bbd 26fe e3be 851d dcbd
00000180: ecf9 e93c a682 83be 8257 97be 8585 50bd

4.weight f4 [100, 100]
-0.18400665 0.10318551 -0.09524566 -0.26276958 -0.03494295 -0.025365647 0.12653002 0.03882551
-0.036881387 -0.06332046 -0.17211005 0.090795085 0.13542157 0.18540077 -0.070117496 0.10762567
-0.12432591 -0.25939316 -0.12699243 0.124948144 0.16974331 -0.41384503 -0.17200105 0.1797206
-0.022911238 0.02499471 0.098486565 -0.1645775 0.04342364 0.017687196 0.28177226 0.03233188
0.025918996 0.067053586 0.19354708 0.060453918 0.052874707 0.014947969 0.0806589 0.16681279
0.050149675 -0.060921613 0.014708245 0.22533767 -0.34972835 -0.07747026 0.17646201 0.02850068
-0.15593627 0.012185572 0.077146284 -0.092425965 0.20765525 -0.09825029 0.007808447 0.16659194
-0.40095237 0.11851514 0.14391734 0.13515155 0.40707776 -0.019730244 0.008371692 0.2782495
-0.12484359 0.19185941 -0.013946934 -0.13681804 -0.14917423 -0.15681976 0.024753438 0.05134124
0.15141375 -0.19070542 -0.089980245 0.019626796 -0.2679487 -0.037968364 0.106026426 0.0045349384
0.080297425 -0.08391113 0.17613211 -0.064245306 -0.05787718 0.11883936 -0.10041231 0.08866866
0.3134853 -0.083226435 -0.15262692 0.31636295 0.07994915 -0.07280027 -0.23719497 0.0583737
-0.014607595 -0.17179899 -0.39580414 0.09528817 -0.3084556 0.18705966 -0.03861194 -0.0247277
-0.11518825 -0.0026398653 -0.44391665 -0.04783291 -0.11707046 0.17133875 -0.27345896 0.14592052
0.21281554 0.006974157 -0.11440739 0.050578166 0.085364826 0.18200769 0.17269674 -0.16495334
-0.08796797 -0.07278357 0.02337701 0.2623987 -0.4262815 -0.017807199 0.056518074 -0.047605827
-0.012660184 0.24914543 0.33113012 -0.08276038 0.19210753 0.07748801 -0.096112855 -0.216152
-0.13822198 -0.002794455 0.091771804 -0.020173524 -0.009477689 0.08764695 -0.09949476 -0.0754447
-0.08857229 0.134996 -0.31702542 -0.04748266 0.15713899 -0.00016222522 0.06760198 0.014293285
0.017746177 0.19605646 -0.04460434 -0.15877633 -0.4628273 0.14400208 0.02917822 0.20342724
0.15962501 0.13931607 -0.038729794 0.21831757 -0.1015439 0.1275132 -0.030324658 -0.038960386
0.014509424 -0.038317446 -0.03793151 -0.0916859 0.1313229 -0.08053938 -0.0057462812 -0.0093858745
0.17775662 -0.055577263 0.09582233 -0.043946784 -0.018337158 0.27568436 0.03306306 -0.0072405078
-0.3788483 0.1477366 0.13252035 -0.13853906 -0.3133881 0.19221425 -0.14820234 0.351589
0.17782857 0.02295372 0.0042232056 -0.106184416 0.27007842 -0.07708631 -0.026629992 0.17410268
0.036137044 -0.006033402 -6.881952e-05 -0.101768695 -0.0319964 -0.08951696 -0.06759112 -0.05673326
-0.0902734 -0.09881891 0.032219637 -0.08972869 0.020147696 -0.05721971 -0.023708908 -0.12686811
-0.113664865 -0.10723936 0.03716233 -0.12399269 -0.071018234 -0.073675126 0.028895266 0.00029064275
-0.105986804 -0.030016482 -0.04082502 -0.0876539 0.07435904 -0.0074176537 -0.11853389 0.06848271
0.068637975 0.020557258 0.058913037 -0.005625077 0.012876415 -0.09267404 -0.06962333 -0.0026148101
0.03136597 -0.08739709 0.09838883 -0.027825322 -0.07952162 -0.06922414 -0.07803273 0.0090602515
-0.03721968 0.077710725 -0.0331883 -0.019528948 -0.11397977 -0.0993723 0.081890285 -0.095466554
00000000: 3d6c 3cbe ed52 d33d 2810 c3bd bc89 86be
00000010: 5720 0fbd 9ecb cfbc 1691 013e 7f07 1f3d
00000020: f010 17bd 28ae 81bd 9e3d 30be c6f2 b93d
00000030: f4ab 0a3e b3d9 3d3e c399 8fbd d96a dc3d
00000040: 959e febd 2ecf 84be 4e0a 02be d0e4 ff3d
00000050: 31d1 2d3e 7fe3 d3be 0b21 30be ad08 383e
00000060: 59b0 bbbc b5c1 cc3c 53b3 c93d 0187 28be
00000070: fddc 313d bde4 903c 7444 903e 6f6e 043d
00000080: 1354 d43c 6453 893d 3531 463e 879e 773d
00000090: 2693 583d 53e8 743c 7e30 a53d f9d0 2a3e
000000a0: bf69 4d3d f188 79bd dafa 703c ebbe 663e
000000b0: 980f b3be baa8 9ebd 75b2 343e 427a e93c
000000c0: c2ad 1fbe fea5 473c dffe 9d3d d349 bdbd
000000d0: 94a3 543e 7337 c9bd 00de ff3b 1497 2a3e
000000e0: a149 cdbe 11b8 f23d 115f 133e 2b65 0a3e
000000f0: 7f6c d03e 52a1 a1bc 6c29 093c b876 8e3e
00000100: ffad ffbd cb76 443e ae81 64bc 071a 0cbe
00000110: 21c1 18be 5c95 20be b9c7 ca3c 314b 523d
00000120: 350c 1b3e 4848 43be 9047 b8bd 60c8 a03c
00000130: 9230 89be b784 1bbd 6224 d93d d299 943b
00000140: fa72 a43d 99d9 abbd fa5b 343e 0b93 83bd
00000150: 9f10 6dbd 0d62 f33d f8a4 cdbd ea97 b53d
00000160: 2581 a03e 9f72 aabd 3b4a 1cbe 53fa a13e
00000170: 61bc a33d 4f18 95bd 3de3 72be 4319 6f3d
00000180: b254 6fbc 13ec 2fbe d7a6 cabe 7226 c33d
00000190: e4ed 9dbe 918c 3f3e 8e27 1ebd bf91 cabc
000001a0: d1e7 ebbd 9701 2dbb 0b49 e3be 71ec 43bd
000001b0: a3c2 efbd 6d73 2f3e d002 8cbe 306c 153e
000001c0: 51ec 593e 7887 e43b 6c4e eabd 0d2b 4f3d
000001d0: c1d3 ae3d 3960 3a3e 6ad7 303e 87e9 28be
000001e0: 8d28 b4bd 8d0f 95bd 2581 bf3c 1f59 863e
000001f0: 9241 dabe 67e0 91bc 7f7f 673d 54fe 42bd
00000200: a96c 4fbc fb1f 7f3e e389 a93e 467e a9bd
00000210: d6b7 443e 09b2 9e3d d1d6 c4bd f356 5dbe
00000220: 108a 0dbe 2d23 37bb dbf2 bb3d f242 a5bc
00000230: 4f48 1bbc 3e80 b33d e9c3 cbbd c082 9abd
00000240: 6465 b5bd 643c 0a3e 2851 a2be 2d7d 42bd
00000250: 0be9 203e 001b 2ab9 e872 8a3d 622e 6a3c
00000260: 6e60 913c 06c3 483e 0ab3 36bd 4396 22be
00000270: b3f7 ecbe 4875 133e 2a07 ef3c 3b4f 503e
00000280: bd74 233e dfa8 0e3e 22a3 1ebd a48e 5f3e
00000290: 40f6 cfbd d292 023e 6b6b f8bc ed94 1fbd
000002a0: efb8 6d3c c1f2 1cbd 125e 1bbd d1c5 bbbd
000002b0: 8379 063e d5f1 a4bd 4d4b bcbb 36c7 19bc
000002c0: d505 363e fca4 63bd 7f3e c43d 8b01 34bd
000002d0: cf37 96bc 8026 8d3e 226d 073d c841 edbb
000002e0: 68f8 c1be 4348 173e 6ab3 073e 2fdd 0dbe
000002f0: 6874 a0be d0d3 443e 5bc2 17be 7903 b43e
00000300: b118 363e 7109 bc3c d162 8a3b 3777 d9bd
00000310: b847 8a3e 6ddf 9dbd 2427 dabc f947 323e
00000320: 7004 143d d8b3 c5bb 3353 90b8 1b6c d0bd
00000330: a80e 03bd ab54 b7bd 376d 8abd 2361 68bd
00000340: 43e1 b8bd 9261 cabd bdf8 033d adc3 b7bd
00000350: c80c a53c 375f 6abd 2f39 c2bc b7e9 01be
00000360: 20c9 e8bd 4fa0 dbbd 8737 183d e1ef fdbd
00000370: 0272 91bd fce2 96bd c4b5 ec3c 6961 9839
00000380: 9c0f d9bd 20e5 f5bc 2338 27bd e383 b3bd
00000390: 8d49 983d ca0f f3bb e5c1 f2bd aa40 8c3d
000003a0: 1192 8c3d b267 a83c cc4e 713d 9152 b8bb
000003b0: 99f7 523c e3cb bdbd ad96 8ebd 3c5d 2bbb
000003c0: 9a79 003d 3ffd b2bd 1580 c93d eef1 e3bc
000003d0: 3bdc a2bd 63c5 8dbd a0cf 9fbd 7371 143c
000003e0: aa73 18bd cd26 9f3d 74f0 07bd 2cfb 9fbc
000003f0: 3a6e e9bd b483 cbbd 18b6 a73d f883 c3bd

4.bias f4 [100]
0.3832381 -0.14857654 -0.0637123 0.015607802 0.5742521 0.25652164 0.08380639 0.031180225
-0.1542448 0.32960293 0.056269698 0.0026481908 -0.089285105 -0.3546008 -0.33082497 0.6139892
-0.31908828 0.0645455 -0.04423295 0.20884606 0.441947 0.35542312 -0.08431095 -0.10966753
-0.09153982 0.7347334 0.20221172 -0.02357729 0.018454323 -0.56050545 0.11728801 -0.5623539
0.24891953 0.14768453 0.03940147 -0.41967437 -0.35484758 0.5140599 1.465377 -0.37062117
-0.18499435 -0.02154495 0.22331764 0.31802636 0.026096528 0.15120944 0.1629829 -0.07613919
0.6967449 -0.15895225 -0.36833212 -0.48064616 0.17550342 -0.22871502 -0.19374089 0.2698288
0.021284442 -0.21937253 0.010232698 -0.12283331 0.04525015 0.27497894 0.04058404 -0.016133174
-0.42430985 -0.47379646 0.066120714 -0.04076655 -0.05812975 -0.049772203 0.31421122 0.65057474
-0.3193781 0.020532986 -0.07801054 0.11003584 -0.063877635 -0.04551813 -0.18872772 0.20623775
0.31274906 -0.16222647 -0.34726337 -0.690068 0.13677685 0.019481434 -0.23006484 -0.028178181
0.13675176 0.06693742 -0.0950809 0.47268054 0.44535792 -0.11291875 0.3776737 0.6895763
0.22786032 0.21732321 -0.4610264 -0.23336317
00000000: c937 c43e 7324 18be 987b 82bd deb7 7f3c
00000010: 3002 133f ce56 833e afa2 ab3d ac6d ff3c
00000020: 59f2 1dbe b7c1 a83e 0e7b 663d 458d 2d3b
00000030: 1cdb b6bd 3c8e b5be e461 a9be 652e 1d3f
00000040: 8a5f a3be 6e30 843d 9c2d 35bd bedb 553e
00000050: e146 e23e 05fa b53e 38ab acbd 5f99 e0bd
00000060: 3b79 bbbd 7d17 3c3f 9710 4f3e 2925 c1bc
00000070: 852d 973c 497d 0fbf b234 f03d 6df6 0fbf
00000080: c3e4 7e3e 9d3a 173e 7063 213d 8fdf d6be
00000090: 95ae b5be 6e99 033f 7991 bb3f 0fc2 bdbe
000000a0: 296f 3dbe 097f b0bc 61ad 643e 5ad4 a23e
000000b0: 63c8 d53c a6d6 1a3e fde4 263e ddee 9bbd
000000c0: e05d 323f 61c4 22be 0796 bcbe 4117 f6be
000000d0: 2bb7 333e 4534 6abe 0364 46be 0027 8a3e
000000e0: b65c ae3c 31a3 60be 0ca7 273c 0890 fbbd
000000f0: 3958 393d 0aca 8c3e 733b 263d b829 84bc
00000100: 243f d9be 7395 f2be 4c6a 873d d3fa 26bd
00000110: 7619 6ebd f0dd 4bbd 4be0 a03e 118c 263f
00000120: 8785 a3be cb34 a83c fdc3 9fbd 785a e13d
00000130: 47d2 82bd 3871 3abd d741 41be fd2f 533e
00000140: a520 a03e b21e 26be 81cc b1be 4ca8 30bf
00000150: 3b0f 0c3e 8797 9f3c 1e96 6bbe eed5 e6bc
00000160: a708 0c3e 7c16 893d c6b9 c2bd 2f03 f23e
00000170: f405 e43e f241 e7bd 725e c13e 1388 303f
00000180: 3754 693e fa89 5e3e a70b ecbe c1f6 6ebe

6.weight f4 [157, 100]
-0.20544659 0.02095932 0.004633003 0.07028181 -0.07087931 -0.10177882 0.21746518 -0.03819436
0.07094551 -0.17511448 -0.08968593 0.0037237743 -0.10460673 0.0131795285 -0.12093785 0.117591046
-0.30160493 0.040799823 -0.1851192 -0.021114904 0.17629458 -0.4334892 -0.62728095 -0.18614909
-0.025200272 -0.12433935 0.009185638 0.013942905 0.029128212 -0.038372267 0.058576662 0.12662615
-0.014052563 0.010470111 -0.092614025 0.25848162 0.14001396 -0.29937696 -0.12896018 0.079679444
-0.1614259 0.039106295 0.19846502 -0.20011799 0.3257129 -0.21107207 -0.3175628 0.063250564
-0.40702114 -0.07348958 0.057577986 0.026316132 -0.22527787 0.076892205 -0.07108339 -0.2581273
-0.035443425 -0.30969635 0.10094199 0.0591119 -0.024238477 -0.013823874 0.00012024812 0.08280273
-0.013280865 -0.08584663 -0.069241405 0.062232696 -0.08246833 0.0592857 0.27334076 0.1856676
-0.1276942 0.14335814 -0.03189259 0.17531073 0.11956318 -0.073704526 0.0035213304 -0.16348948
0.06261804 -0.088701345 0.013678537 0.08800609 0.0034684343 0.11815158 -0.078573175 -0.03696396
-0.06315505 -0.15002055 0.044179868 -0.26390588 0.13266021 -0.0054360903 -0.18895282 -0.0063284812
0.07489466 0.15543973 -0.20181319 0.19057095 -0.056638755 0.16216366 0.017050473 -0.049863398
0.20406905 -0.17633417 -0.17628224 -0.04265756 0.08932521 0.23379374 -0.080064945 -0.036872134
-0.108873785 -0.3483656 -0.08890397 -0.08114793 0.18052462 -0.6729256 0.3664323 0.0008089254
0.1319369 0.05090876 0.18367018 -0.060456544 0.093274474 -1.0671152 -0.30080986 0.0047685616
0.14362569 -0.24306096 -0.063964285 -0.15231675 0.007025112 -0.052731305 -0.4808808 -0.32258645
0.27366903 -0.1601845 0.026756113 -0.5502619 -0.19098064 -0.059014626 -0.2194183 0.09637702
0.07036853 0.17101105 -0.10009424 0.031320445 0.006971791 0.034590434 -0.086669266 0.1379884
-0.19813277 -0.36623177 0.19214983 -0.11594245 0.013417655 0.05002709 -0.027789902 0.033330508
0.20804143 0.09135285 -0.027563164 -0.04684393 0.30174538 -0.23416226 0.011448027 0.13004833
-0.084257126 -0.13017221 -0.13706116 0.21011409 -0.19795795 -0.1368557 0.30561796 -0.67923886
0.1820365 0.16854472 0.06820739 -0.0045319386 -0.19974196 0.16294482 0.0407786 -0.016477581
-0.26723364 -0.031189183 -0.3569926 -0.0036667576 0.19719595 -0.057994418 -0.05654301 0.070155874
0.04937938 -0.14508969 -0.14078519 0.18807359 0.062657505 0.031186445 -0.0010589916 -0.023750864
-0.33882767 0.08109278 -0.081463955 -0.11489249 -0.46153742 0.07288558 0.04288985 0.042810045
0.16524622 -0.19067554 0.056586012 0.04347641 0.037981857 -0.2885613 -0.0014461577 0.06543865
0.14138925 0.088423975 0.09343884 0.059375796 0.017812405 0.12735069 0.11276344 -0.11385304
0.11904585 0.07465544 0.15878674 0.20222856 -0.21160844 -0.070363656 -0.18180686 -0.0029611518
0.1698375 -0.3874156 -0.012365021 0.0885518 -0.024330053 0.3142233 -0.1327129 0.046403762
0.051933646 -0.040468752 0.16640003 0.001180628 0.27661255 -0.09839433 -0.0003980312 -0.015488496
0.13124743 -0.16225249 -0.17914315 0.063185275 0.04244736 0.0029192574 -0.28709415 -0.103964135
00000000: 9760 52be e1b2 ab3c 72d0 973b e9ef 8f3d
00000010: 2c29 91bd 6a71 d0bd 31af 5e3e b071 1cbd
00000020: e14b 913d 3651 33be 42ad b7bd 910a 743b
00000030: 0e3c d6bd f3ee 573c 43ae f7bd 93d3 f03d
00000040: f66b 9abe b71d 273d e38f 3dbe 2af9 acbc
00000050: 9186 343e 4cf2 ddbe 7c95 20bf de9d 3ebe
00000060: cd70 cebc a1a5 febd 5c7f 163c c870 643c
00000070: 4a9e ee3c 3d2c 1dbd 15ee 6f3d 49aa 013e
00000080: b93c 66bc d48a 2b3c 6cac bdbd b457 843e
00000090: d25f 0f3e f047 99be 230e 04be fa2e a33d
000000a0: d54c 25be ec2d 203d 6a3a 4b3e bbeb 4cbe
000000b0: d7c3 a63e 4723 58be 9797 a2be 8389 813d
000000c0: 1365 d0be b481 96bd e5d6 6b3d ee94 d73c
000000d0: 3eaf 66be a979 9d3d 2b94 91bd 4329 84be
000000e0: 202d 11bd 8590 9ebe adba ce3d 521f 723d
000000f0: c58f c6bc 887d 62bc b82d fc38 7a94 a93d
00000100: fc97 59bc 5cd0 afbd 70ce 8dbd b6e7 7e3d
00000110: 28e5 a8bd 90d5 723d 52f3 8b3e a61f 3e3e
00000120: 45c2 02be 7acc 123e cea1 02bd a884 333e
00000130: 8add f43d 66f2 96bd 1fc6 663b c969 27be
00000140: e33d 803d 0da9 b5bd f11b 603c 893c b43d
00000150: ac4e 633b 75f9 f13d f9ea a0bd 8567 17bd
00000160: 6f57 81bd fd9e 19be f3f5 343d ac1e 87be
00000170: 14d8 073e 3b21 b2bb d97c 41be 265f cfbb
00000180: 5f62 993d 982b 1f3e 1ea8 4ebe 0825 433e
00000190: 0afe 67bd 3b0e 263e 6fad 8b3c 903d 4cbd
000001a0: 7af7 503e f290 34be 5583 34be b2b9 2ebd
000001b0: 23f0 b63d a067 6f3e 17f9 a3bd 3c07 17bd
000001c0: 38f9 debd fa5c b2be 4913 b6bd e330 a6bd
000001d0: 72db 383e da44 2cbf 049d bb3e 110e 543a
000001e0: 771a 073e b485 503d 0914 3c3e 48a1 77bd
000001f0: b006 bf3d 3b97 88bf c003 9abe 9841 9c3b
00000200: 9d12 133e f9e4 78be b5ff 82bd ecf8 1bbe
00000210: e932 e63b c8fc 57bd 0236 f6be 0d2a a5be
00000220: 591e 8c3e 6807 24be a32f db3c f7dd 0cbf
00000230: 6e90 43be 52b9 71bd 31af 60be 5161 c53d
00000240: 601d 903d 851d 2f3e 35fe ccbd de49 003d
00000250: 9f73 e43b b3ae 0d3d a87f b1bd d54c 0d3e
00000260: 51e3 4abe bb82 bbbe edc2 443e 3c73 edbd
00000270: b9d5 5b3c 35e9 4c3d a6a7 e3bc 9285 083d
00000280: d008 553e 3417 bb3d 25cc e1bc 6cdf 3fbd
00000290: 5f7e 9a3e 3bc8 6fbe 8190 3b3c 642b 053e
000002a0: 008f acbd dd4b 05be c359 0cbe 2628 573e
000002b0: 7db5 4abe e723 0cbe f579 9c3e 99e2 2dbf
000002c0: c767 3a3e fd96 2c3e 51b0 8b3d a880 94bb
000002d0: 2889 4cbe 02db 263e 7607 273d fefb 86bc
000002e0: d9d2 88be 7580 ffbc bcc7 b6be fc4d 70bb
000002f0: bced 493e 8e8b 6dbd a599 67bd e2ad 8f3d
00000300: 0842 4a3d 6492 14be fe29 10be 5d96 403e
00000310: 9452 803d b77a ff3c ddcd 8aba 2c91 c2bc
00000320: d27a adbe f913 a63d 93d6 a6bd c14c ebbd
00000330: a24e ecbe 0945 953d 44ad 2f3d 9659 2f3d
00000340: 4e36 293e 7340 43be bcc6 673d 5214 323d
00000350: dd92 1b3d 4fbe 93be 008d bdba b304 863d
00000360: 58c8 103e a117 b53d dd5c bf3d 0934 733d
00000370: 52eb 913c 3868 023e 85f0 e63d c82b e9bd
00000380: 50ce f33d f4e4 983d fe98 223e 0115 4f3e
00000390: e2af 58be d21a 90bd 942b 3abe e20f 42bb
000003a0: e2e9 2d3e 565b c6be a896 4abc a55a b53d
000003b0: d24f c7bc e0e1 a03e e4e5 07be df11 3e3d
000003c0: 60b8 543d 90c2 25bd c564 2a3e 4dbf 9a3a
000003d0: 29a0 8d3e f782 c9bd d8ae d0b9 76c3 7dbc
000003e0: ba65 063e 8425 26be 4d71 37be 4867 813d
000003f0: 48dd 2d3d 0351 3f3b 01fe 92be 26eb d4bd

6.bias f4 [157]
0.12280798 -0.07995106 0.27381513 -0.5750703 -0.10600209 -0.37866488 -0.066723876 -0.08203715
-0.07315775 0.15472335 -0.34558046 0.0363936 -0.007498963 -0.6303747 -0.69431406 -0.15809485
0.06058774 0.33118534 0.021583209 0.3609767 0.15145193 0.048627563 -0.27016956 0.6549404
-0.27819753 0.21235566 -0.022699483 0.60122705 -0.48004383 0.21037848 -0.2036328 -0.09825111
-0.5225973 0.08075838 0.26310742 0.18082778 0.11503035 0.60798705 0.25455385 0.119316585
-0.42794853 -0.06826159 0.40978196 0.141521 0.11391191 0.4238223 0.5209413 0.6276898
0.2411632 -0.51669073 -0.0860592 0.12971687 -0.27166212 -0.3303379 0.10926617 0.10182764
-0.4444885 -0.1536149 0.31288692 -0.45377156 -0.22934999 0.27751487 0.60212487 0.12459723
-0.105855234 -0.050837174 0.22657306 -0.2886583 -0.3121601 -0.24226129 0.102008745 0.01556275
0.37034592 -0.07168553 -0.30491498 0.03523022 0.043290414 -0.1775209 -0.6073743 0.1763967
-0.11462861 -0.00034470944 -0.008884507 0.17235741 0.2462799 0.39439914 -0.27144453 0.6987317
0.43670675 -0.32931563 -0.60768676 0.56178373 -0.121288076 0.5259577 0.06164297 -0.5425212
0.0027393932 -0.38039204 -0.37845898 -0.008161368 0.30182698 0.28045923 0.0009921873 0.30537114
0.070334055 0.091930404 0.25057238 0.07478046 -0.13821296 0.031791385 -0.21085393 -0.29385576
0.001264352 -0.031370837 0.22430274 -0.39505738 -0.014896292 -0.2783638 0.14570826 -0.10394177
0.22774379 0.6687583 -0.06475973 -0.27388236 0.2716169 -0.31962782 -0.26367658 0.36120185
0.5861646 -0.17488241 0.07389081 0.02197774 -0.26267314 -0.05693082 -0.26445383 -0.015032074
0.19921574 -0.37596297 0.06344536 0.17224358 0.80665314 -0.17103088 -0.49047184 -0.10607336
-0.1434496 0.032016158 -0.821906 0.010864122 0.04674404 0.19055355 -0.21152897 -0.5990939
-0.36780134 -0.20389539 0.07056665 0.048404783 0.18280385
00000000: c082 fb3d 62bd a3bd 7f31 8c3e cf37 13bf
00000010: a017 d9bd 5de0 c1be 87a6 88bd 1803 a8bd
00000020: bbd3 95bd cc6f 1e3e ecef b0be 7511 153d
00000030: dcb9 f5bb 3d60 21bf 91be 31bf 9ee3 21be
00000040: da2a 783d 2091 a93e 45cf b03c f0d1 b83e
00000050: 3716 1b3e b22d 473d aa53 8abe 2daa 273f
00000060: e86f 8ebe c373 593e 44f4 b9bc 04ea 193f
00000070: 4ec8 f5be 756d 573e 1e85 50be e137 c9bd
00000080: f0c8 05bf a664 a53d 04b6 863e eb2a 393e
00000090: 0895 eb3d 0aa5 1b3f e254 823e 415c f43d
000000a0: 121c dbbe bccc 8bbd f1ce d13e e2ea 103e
000000b0: a64a e93d 3dff d83e 695c 053f 47b0 203f
000000c0: 7cf3 763e d845 04bf ce3f b0bd 80d4 043e
000000d0: 4c17 8bbe 0d22 a9be f1c6 df3d 028b d03d
000000e0: ff93 e3be 394d 1dbe b732 a03e bf54 e8be
000000f0: b9da 6abe 6e16 8e3e db24 1a3f d52c ff3d
00000100: a1ca d8bd a43a 50bd c502 683e 05cb 93be
00000110: 73d3 9fbe 5813 78be f6e9 d03d e8fa 7e3c
00000120: fb9d bd3e ddcf 92bd d11d 9cbe 904d 103d
00000130: 4a51 313d 0ac8 35be e27c 1bbf 56a1 343e
00000140: 68c2 eabd 1eba b4b9 5390 11bc 767e 303e
00000150: cc30 7c3e afee c93e c7fa 8abe 15e0 323f
00000160: 0798 df3e 0f9c a8be 5c91 1bbf 0fd1 0f3f
00000170: e265 f8bd 2aa5 063f 577d 7c3d abe2 0abf
00000180: 6487 333b bfc2 c2be 60c5 c1be 42b7 05bc
00000190: 1189 9a3e 5a98 8f3e 480c 823a 9b59 9c3e
000001a0: 4d0b 903d 0246 bc3d 064b 803e 7f26 993d
000001b0: b387 0dbe af37 023d 18ea 57be 4374 96be
000001c0: 9db8 a53a b57e 00bd 9eaf 653e f644 cabe
000001d0: 940f 74bc b385 8ebe 8c34 153e 6cdf d4bd
000001e0: ab35 693e be33 2b3f c0a0 84bd 4f3a 8cbe
000001f0: 5f11 8b3e 42a6 a3be 9e00 87be 73ef b83e
00000200: e20e 163f 6014 33be 1154 973d a90a b43c
00000210: 187d 86be 4b30 69bd 7e66 87be 1749 76bc
00000220: 36ff 4b3e 387e c0be a4ef 813d 9f60 303e
00000230: d280 4e3f b822 2fbe 201f fbbe fd3c d9bd
00000240: 74e4 12be 6023 033d 6e68 52bf 6eff 313c
00000250: ae76 3f3d 7820 433e 0d9b 58be 385e 19bf
00000260: 7550 bcbe f4c9 50be 3f85 903d 1844 463d
00000270: ef30 3b3e
